AF_GLOSA/models/model081401/20000/critic_model/critic.pkl (torch, 174927 bytes, 14 tensors)

l1.weight f4 [256, 6]
000000 1e c9 10 3f 93 a1 2d bf 89 2c e0 3f b6 60 6f 3e
       0.5655688 -0.6782467 1.7513591 0.23376736
000010 9d 0e 15 be 23 a2 5c 3e 0f e4 35 be 59 bd 5c 3e
       -0.14556356 0.21546225 -0.17762779 0.21556605
000020 2e f0 8e 3e b6 1e d0 3e 90 c2 73 be 1e cc 9d 3d
       0.27917618 0.4064843 -0.23804688 0.07704948
000030 44 c4 4e bf ae 03 9d 3c 58 95 68 bd d8 7c 8c 3c
       -0.8076823 0.019166794 -0.05678305 0.017149374
000040 ac 6f 2e 3e 4f b4 a2 be 81 f5 49 be 12 14 6a 3d
       0.17034787 -0.3177819 -0.19722559 0.057148047
000050 b3 4b 1c bd a2 5a 79 3e 52 34 cc be a5 07 97 bd
       -0.03815813 0.2435098 -0.39883667 -0.07374505
000060 ae eb 53 bf 95 9a 89 3e d9 ab 97 bd b6 b4 9f 3e
       -0.82781494 0.2687575 -0.07405824 0.3119256
000070 c7 bb 70 bd 15 44 56 3e 88 e9 73 3f 94 c9 a3 be
       -0.05877283 0.20924409 0.95278215 -0.3198973
000080 d3 de 3b 3d 67 0c 91 be 8b f1 50 3c 70 1c 21 be
       0.0458668 -0.28329775 0.012752901 -0.15733504
000090 6e 0f 06 bf 35 ef 9a 3d d1 a9 13 3e 5d e5 ae 3e
       -0.52367294 0.07565156 0.14420249 0.34159365
0000a0 90 df 9d be 04 75 80 bc 51 64 c5 be 29 4b 75 3c
       -0.30834627 -0.015680797 -0.38553098 0.014971533
0000b0 94 47 91 3e 34 29 3a 3d d9 93 88 bc ab 06 6f be
       0.28374922 0.04544945 -0.016672062 -0.23342387
0000c0 21 f2 3d bf da 1d d9 3e bc 45 04 be 4a fc 59 3e
       -0.74197584 0.42405587 -0.12917227 0.21287647
0000d0 70 bb 20 be 70 69 bb 3d b6 2f 09 3e 60 80 1a 3e
       -0.15696502 0.0915097 0.13397107 0.15088034
0000e0 35 29 e0 bd 7f 52 69 be 2e 2c e5 3e a0 1f b9 bb
       -0.109453596 -0.22785376 0.4476027 -0.005649522
0000f0 bb 35 19 3f ef 33 a0 3e 86 d3 ec bb 49 bc ea 3d
       0.5984761 0.31289622 -0.007227364 0.11461694
000100 d9 b9 0d bf d6 b7 1e 3f 9b 84 2f 3f 05 29 7c be
       -0.55361706 0.6199926 0.68561715 -0.24625023
000110 e1 ca 09 be bc b4 ea be 70 d5 a9 3e af e9 a3 be
       -0.13456298 -0.45841014 0.33170652 -0.32014224
000120 d4 5a 64 3e 94 7d 18 3f d1 6a 12 3e 2a af c7 3e
       0.22300273 0.59566617 0.1429856 0.39000827
000130 0d 6e 23 be 31 ce f4 3d d4 3e 20 bf 09 af c2 3e
       -0.1595995 0.119533904 -0.6259587 0.38024166
000140 08 62 f9 3d 4d 18 c1 3e ec 6d a6 be a4 c8 38 3e
       0.12176901 0.37713853 -0.3250574 0.18045288
000150 27 85 41 bf 0a dc 67 3e 79 3e 46 3d f9 85 e5 3e
       -0.755938 0.22642532 0.048399422 0.44828776
000160 05 aa 64 be 6d 2c 55 3d 09 ba 31 bf 9b 05 36 3e
       -0.22330482 0.05204432 -0.6942449 0.17775576
000170 58 0d eb 3d fb ee 14 3f 8b 22 4f be 1c bc e1 3d
       0.114771545 0.58177155 -0.20228021 0.11022207
000180 8b f3 2f bf 40 7f 59 3e 2f cb ea 3d a8 71 00 3f
       -0.6873099 0.21239948 0.114645354 0.50173426
000190 27 6a 91 be e8 de 9b 3e 92 c7 1c bf aa 85 ef 3d
       -0.284013 0.304435 -0.6124202 0.11695416
0001a0 69 d6 84 3e 40 8e b5 3e 9e 91 7d be ff 6a ee bb
       0.25944832 0.3546009 -0.2476258 -0.0072759385
0001b0 c8 bf cc 3e a9 bc fb 3e da e4 13 be 2f 07 c2 3e
       0.39990067 0.49167374 -0.14442769 0.37896106
0001c0 ed 2c 09 3d 0a 2e 71 3c cc da 7d be 1f 24 a9 3e
       0.03349011 0.014720449 -0.24790496 0.3303537
0001d0 08 29 51 bd a9 f5 93 be 78 ee cb 3e 08 85 2f 3d
       -0.05106452 -0.2889836 0.39830375 0.042851478
0001e0 98 41 77 3e ff 52 d5 be be 3b dd 3d 6a 8d 80 3e
       0.24146116 -0.41664883 0.108024105 0.2510789
0001f0 34 e4 1e bf 34 51 8b 3f 6c 90 32 bf 65 1d 54 be
       -0.6206696 1.0884156 -0.6975162 -0.20714338
000200 d0 c8 59 bd 8b a7 51 3c fd 56 9c 3e 6d fe 19 bf
       -0.053170025 0.012796293 0.30535117 -0.6015385
000210 bb ba 85 bd a6 43 85 3f 10 77 78 be c6 a8 02 3e
       -0.06529757 1.041127 -0.24264169 0.12759694
000220 6c 7a bd be a9 1e 12 3f 92 4c b7 3e 6b f2 9f bd
       -0.37007463 0.57078034 0.35800606 -0.078099094
000230 47 a9 43 bf ae 47 de be 65 70 f1 3e 41 ee 34 be
       -0.7643017 -0.43414062 0.47156063 -0.17669012
000240 8b 39 63 3f 48 c0 51 be 53 88 28 3d bf 52 95 be
       0.8875968 -0.20483506 0.041145634 -0.29164693
000250 b1 b3 9c bc d6 3f 96 bd 54 a2 b6 3e 15 07 d5 3e
       -0.019128652 -0.073363945 0.35670722 0.41606966
000260 e7 05 f1 bd 32 4b ab 3e 70 8f 08 bf d4 58 23 3f
       -0.11768704 0.33455807 -0.5334387 0.63807416
000270 0e 6a a8 be 93 9d 4d 3f 94 ca 43 bd a4 76 2c 3e
       -0.32893413 0.80318564 -0.047800615 0.16842133
000280 36 69 52 be 92 a3 c5 3e 61 be 42 3f 18 8e 88 bd
       -0.20547947 0.38601357 0.76071745 -0.06667727
000290 a7 de 8f bc 10 9c 56 be 05 fd 40 bd 4b b5 43 3e
       -0.017562224 -0.2095797 -0.0471163 0.19112127
0002a0 65 dd 5c bf aa 1f a2 3c dd 81 cf 3c 54 ff 15 bd
       -0.8627532 0.01979049 0.025330478 -0.036620453
0002b0 2a 54 c8 3e 4e f4 d7 be cb f3 3f bf ba 52 37 be
       0.39126712 -0.42178577 -0.74981374 -0.17902651
0002c0 b4 63 0a 3d f6 c7 7d bc 5c 88 e6 3e 04 92 17 bf
       0.03378649 -0.015489569 0.4502591 -0.5920718
0002d0 74 5c 36 bf d5 98 95 3e c1 f6 e6 be d6 ee 59 3c
       -0.7123482 0.29218164 -0.45110133 0.013301572
0002e0 85 a1 4b be e2 84 39 3e cf 08 84 be 39 7c 6f 3f
       -0.19885834 0.18117097 -0.2578797 0.93548924
0002f0 c8 60 48 3d 3b 9e 57 3d e9 2b 1e be f5 7a 25 3f
       0.048920423 0.052641135 -0.15446438 0.6464074
000300 28 28 74 bf d2 6a c7 3e 7d 8a 89 be 6a 7e 1c bd
       -0.95373774 0.38948685 -0.2686347 -0.038206495
000310 c9 87 26 be 55 56 b7 3e 00 33 13 bf 17 73 40 3f
       -0.16262735 0.35808054 -0.57499695 0.75175613
000320 f4 cd b3 be 13 96 9a be 0c d0 01 bd 89 5a f1 be
       -0.35118067 -0.30192623 -0.03169255 -0.47139385
000330 7c 6e 08 3e 27 4f ca 3d fb 03 95 3e 08 61 12 be
       0.13323396 0.09878378 0.291046 -0.14294827
000340 9a 42 81 3e 8a cb c4 3e b9 5f f0 3e 9d 22 ad 3e
       0.25246125 0.38436538 0.4694803 0.3381547
000350 65 97 1a be 5b e5 10 3d c6 56 ac be 34 c0 1f 3f
       -0.15096815 0.03537498 -0.33659953 0.62402654
000360 cb 53 2e 3f db fe a8 bd 88 5c 03 be ee e8 1a 3e
       0.6809661 -0.08251735 -0.12828267 0.15127918
000370 a4 45 c1 be 7e 39 10 3f 7d 93 f3 be 27 25 b0 3e
       -0.37748444 0.56337726 -0.47573462 0.34403345
000380 3e 6d 4f 3f 8e 15 a7 3e c0 fd ee be e5 2e 1b 3e
       0.81026065 0.32633632 -0.4667797 0.15154608
000390 12 b5 3f 3f 7b 68 07 be 26 ac e4 bc c8 47 98 be
       0.74885666 -0.1322345 -0.027914118 -0.29742265
0003a0 9b c2 c0 3c db 7d 63 3d bb 16 0f bf 13 6a a2 3e
       0.023530295 0.055539947 -0.5589406 0.31721553
0003b0 21 78 74 3f cc 1d e9 3e 90 ce da be b4 c5 c1 3e
       0.954958 0.45530546 -0.4273572 0.37846148
0003c0 7a fb 32 bf 34 ed b1 bd ef 0a 46 3e 75 6b 80 be
       -0.6991497 -0.08687821 0.19340108 -0.25081983
0003d0 44 b4 ce 3e 4b bc 04 bf 8d 2f 49 3f 0d 23 12 bd
       0.40371907 -0.5184981 0.7858818 -0.03567796
0003e0 c8 98 07 bd 28 48 35 be fc f4 de bd ce 6f c5 3e
       -0.033104688 -0.17703307 -0.10886571 0.38561863
0003f0 39 df 20 3f ba 97 35 be 81 04 8e bf 6e f7 f3 be
       0.6284061 -0.1773366 -1.1095124 -0.4764971

l1.bias f4 [256]
000000 85 c4 b3 3d 40 2d 4a bf 4e 67 c9 be ce 12 54 bf
       0.087777175 -0.78975296 -0.39336628 -0.82841194
000010 80 09 0a 3d 04 e0 f4 3d 92 f4 1e bf f8 ed 02 bf
       0.033700466 0.1195679 -0.62091935 -0.5114436
000020 ea 49 cc be 66 5f 4e 3f 77 4b e7 3e 75 9f bb 3e
       -0.39900142 0.80614316 0.45174763 0.36645094
000030 d5 aa 20 bf 35 e4 00 bf 48 1a d6 be 1a 3f f0 be
       -0.6276067 -0.50348216 -0.41816926 -0.46923143
000040 1e dc ea be 94 4b 1c bf 99 9b 5e bd 6f c2 26 3f
       -0.4587106 -0.61052823 -0.05434761 0.6514043
000050 05 20 ac 3e 93 7d 21 bf 38 77 13 3e 48 74 2c 3f
       0.3361818 -0.63082236 0.14400947 0.6736493
000060 00 f0 3e 3e 70 c9 4a bd 21 bf 55 3e 09 5c ee 3e
       0.1864624 -0.049508512 0.20873691 0.46554592
000070 e1 a7 a4 be 1e a1 da be 68 43 59 bd f3 fb 88 3e
       -0.3215933 -0.42701048 -0.0530428 0.26754722
000080 c1 d9 b0 3e 91 f5 6f be 03 d3 72 3f 22 1d 18 3f
       0.34541133 -0.2343352 0.9485323 0.59419453
000090 d8 28 48 3e 8e 11 01 bf 82 99 fb 3e ad f0 f7 be
       0.1954683 -0.5041741 0.49140555 -0.4842581
0000a0 e0 a4 38 be ca 94 eb 3e e2 5c ce 3e dd af c3 3e
       -0.18031645 0.46011955 0.4030524 0.3822011
0000b0 fa 99 7a be 45 4b 63 3e 78 69 f5 3e 3a a3 97 3e
       -0.244728 0.22196682 0.4793203 0.2961672
0000c0 25 f6 b9 be da 1b e4 be 81 99 42 3e 1c c0 22 bf
       -0.36320606 -0.445525 0.1900387 -0.63574386
0000d0 c4 c5 fb be 13 0c 94 3d a0 fd 4f bd ce 9c bf bd
       -0.4917432 0.072288655 -0.050778985 -0.0935608
0000e0 da a8 ca bc c5 2e 6b 3d 77 d0 15 bf 1c e5 a1 3e
       -0.024738718 0.05741765 -0.5852122 0.3162011
0000f0 3f 83 3c bf 90 1a ea bb d5 38 e1 be bc af ba be
       -0.73637766 -0.00714428 -0.43988672 -0.364622
000100 e0 56 04 bf 23 a3 ab 3e e7 8b 8c bd 91 e0 d2 3e
       -0.5169506 0.335229 -0.06862622 0.41186956
000110 e3 8c b3 3e 7a ac 19 bf 31 89 55 be a2 be d4 3e
       0.35068426 -0.60028803 -0.20853116 0.4155169
000120 01 de 97 be c2 12 bd be 83 66 1a bf c4 42 a9 be
       -0.29661563 -0.36928374 -0.6031267 -0.3305875
000130 ec af a8 be 0c db d7 3e 77 a8 19 bf bf 45 02 bf
       -0.32946718 0.42159307 -0.6002268 -0.50887674
000140 a7 c3 fa 3e 9f e5 7f be 58 7c b0 3d da 95 81 b9
       0.48977396 -0.24989937 0.08617467 -0.00024716445
000150 02 51 ee 3d 8f 74 a9 3e df f8 7e bf be 69 83 3e
       0.11636545 0.3309674 -0.995985 0.25666612
000160 17 86 b1 bc d5 d7 89 be a2 75 65 bc 52 06 03 bf
       -0.021670384 -0.2692248 -0.014005097 -0.5118152
000170 22 61 d1 bd 2f fb 03 bf 35 d3 cf be 15 de 65 be
       -0.10223605 -0.5155515 -0.40590826 -0.22447999
000180 48 c8 b1 3e 03 05 c3 3e c6 77 05 3f 7f a3 ab be
       0.34723115 0.3808976 0.52135885 -0.33523175
000190 26 0f ba 3e 2b d9 ed be 6a 5d c2 3e 95 71 16 bf
       0.36339682 -0.4645475 0.37961894 -0.5876706
0001a0 54 fe 2e 3e 3f d6 cb be 69 24 f4 be e1 c9 60 3f
       0.17089206 -0.39811894 -0.4768403 0.8780804
0001b0 74 8e 91 3e 28 09 d7 3e 38 2f 04 3f 0b 4e fe bd
       0.28428996 0.41999173 0.5163455 -0.12417229
0001c0 ca b7 96 bd c9 8c 78 3d 25 a4 e8 be d7 27 e0 3e
       -0.07359274 0.06068114 -0.45437732 0.43780395
0001d0 56 b7 65 be 14 e8 47 bf a0 1a 63 be 88 aa c0 3e
       -0.22433218 -0.780885 -0.22178125 0.37630105
0001e0 ac fc 91 be 65 d3 97 3d ce 1c c4 3e d5 65 3d bf
       -0.28513086 0.07413367 0.38303226 -0.7398351
0001f0 a2 4e ea be 8a 3a 43 be 71 de 99 be 91 bb 3c be
       -0.45763117 -0.190653 -0.30052522 -0.18430926
000200 70 ee 09 3f 1d ee 50 3e c2 96 f8 be 5a dd d4 3e
       0.5387945 0.20403333 -0.4855252 0.41575128
000210 20 3a bb 3e b2 ed eb be 43 16 40 bf 02 64 98 be
       0.36567783 -0.46079785 -0.7503397 -0.297638
000220 d9 9b 58 3f 05 52 9c 3d a9 ee b8 3e 15 0a c4 be
       0.84612805 0.076328315 0.36119583 -0.38288942
000230 93 40 43 3f da 9f 07 bf fc 30 dd 3e 14 62 00 3f
       0.7627041 -0.5297829 0.43201435 0.50149655
000240 2f 7d 31 bf ab c0 3f be 43 d6 3c be 06 bb 39 3f
       -0.6933164 -0.18725841 -0.1844111 0.72551
000250 ad 61 81 bd f1 b4 09 bf 0d b6 db 3d f8 69 dd be
       -0.06317458 -0.5379172 0.10728083 -0.4324491
000260 7c 13 90 3e c0 3d cf be b5 53 01 bf 8c c3 1d 3f
       0.28139865 -0.404768 -0.5051835 0.61626506
000270 7e 5b c1 3e 60 76 eb 3e c0 06 bc 3e af f6 36 3f
       0.37765115 0.4598875 0.367239 0.7147016
000280 7a 38 ee bd bd 0e 11 3d c9 9a f3 bc 4f ae f1 be
       -0.11631866 0.035414446 -0.029736893 -0.472033
000290 6d 03 ef be 13 d3 0e 3e be c0 e1 3e b4 33 8d 3e
       -0.466823 0.13947706 0.44092363 0.2757851
0002a0 7c 5c 05 3f a4 51 c6 be 1f a6 0f 3f 52 1b ee 3e
       0.52094245 -0.38734162 0.56112856 0.4650522
0002b0 bc 0b 97 be 4f f8 8c 3e ce 4e bc 3e 43 bf 0b bf
       -0.2950114 0.27533194 0.36778873 -0.5458872
0002c0 3c 5f 69 3d 2b 03 bc be 30 4c c8 3b 4b 93 52 be
       0.05697559 -0.36721167 0.006112598 -0.20564
0002d0 03 2d 3c 3f f8 95 2a 3f 3c 24 d6 be 49 c9 f1 3e
       0.7350618 0.66635084 -0.4182452 0.4722388
0002e0 fd 6a 11 bf 55 94 d5 3a 6b 79 1c 3e b1 58 01 3f
       -0.56803876 0.0016294817 0.15280692 0.5052596
0002f0 d1 7c f4 be d5 0a 01 bf bd c6 11 3f 9f 1e 9a 3e
       -0.47751477 -0.50407153 0.56943876 0.30101487
000300 6c 93 54 be 25 a2 d7 be d9 bc 09 3f 8b cd ed be
       -0.20759362 -0.42115894 0.53803784 -0.4644588
000310 98 af df bc 23 08 9d 3e de f9 ce be fa 99 17 3f
       -0.02730541 0.3067027 -0.4042501 0.59219325
000320 d8 8e 3b bf e4 f8 e7 be 0e 7e b9 3d 11 22 8f 3e
       -0.7326484 -0.45307076 0.09057246 0.27955678
000330 e0 5e 26 3b 2f 33 95 3e f9 ba cc 3d f5 e9 0a 3f
       0.002538614 0.29140612 0.099966 0.5426324
000340 e0 fc 07 bf 49 d0 a0 3d a7 d3 0e bf e0 8d b6 3e
       -0.5312023 0.07852227 -0.55791706 0.35655117
000350 bc 79 08 3e 4e 53 1e be c1 a7 b9 be b9 15 00 3f
       0.13327688 -0.15461466 -0.362608 0.50033146
000360 2c 08 0c 3f 21 51 00 3f 92 e4 31 3e 64 8b 9d 3e
       0.5469997 0.5012379 0.17372349 0.3077041
000370 e5 a0 a6 be 53 2d 0b 3f cf b0 ab 3d 92 cf 5e 3e
       -0.32544628 0.54366034 0.08383333 0.2175887
000380 6e cf 56 3f 94 40 57 3f 4a 0a 94 be cc 62 80 bd
       0.8391026 0.84082913 -0.289141 -0.06268844
000390 d1 5e fb 3e f5 d3 1a bf f6 57 c6 3e b1 66 dc 3e
       0.49095777 -0.6047967 0.38738984 0.43047097
0003a0 1b a9 c8 bd b4 46 b8 be 54 ff 80 be 49 08 19 3e
       -0.09797879 -0.35991442 -0.251948 0.14944567
0003b0 89 a3 d6 3e e6 e7 f5 ba 85 5e fe 3e f5 0b e0 be
       0.41921642 -0.0018761128 0.49681488 -0.43759122
0003c0 8a 1d 43 be 23 0c af bd 3e 65 8d 3e 7a 69 11 3f
       -0.19054237 -0.08547237 0.27616304 0.5680157
0003d0 db 2a 96 3e 36 a3 17 3f 9b 06 3c 3d 6c c5 69 3f
       0.2932957 0.59233415 0.045904737 0.91316867
0003e0 c8 d7 2e be 85 b4 29 3f a2 03 1e 3f 59 4c 39 3e
       -0.17074502 0.66291076 0.61724293 0.1809553
0003f0 27 81 9a bd 0f 60 08 3f 13 4d 15 be e7 24 d0 3e
       -0.07544165 0.53271574 -0.14580183 0.40653154

l2.weight f4 [128, 256]
000000 ab 78 70 bf 24 46 f2 be b1 c7 e5 bd 05 25 0d bf
       -0.93934125 -0.47319138 -0.11219729 -0.5513461
000010 90 2d a3 bc 10 bb 49 be c4 fb 15 bf ac 31 ab be
       -0.019919187 -0.19700265 -0.5858729 -0.33436334
000020 89 e3 f0 bd dc c2 d2 3e 89 b0 7b 3d 67 fd 46 3f
       -0.11762149 0.4116429 0.061447654 0.7773041
000030 9d 0e 26 be de 97 2c bf bd bc 49 bf 30 90 86 bf
       -0.16216512 -0.6741923 -0.78803617 -1.0512753
000040 dd 4b c2 be 9f e2 36 bf b4 27 1f 3e 4c cd d2 3e
       -0.37948504 -0.71439546 0.1554249 0.41172254
000050 a1 96 9d be b3 8a c0 be 9e 95 c9 3d e4 8f a8 3f
       -0.30778983 -0.3760582 0.0984299 1.3168912
000060 c1 44 af be 27 05 cd 3c d9 54 a3 bd 80 4c 7a 3e
       -0.34232143 0.02502687 -0.07975168 0.24443245
000070 b1 73 80 3e 46 fa c7 3d 87 cb 0c 3f e6 3a db 3e
       0.25088266 0.09764533 0.5499806 0.42818373
000080 5e e7 3a 3e 06 2d 48 3d f2 5b c1 3e f4 08 98 3e
       0.18252322 0.048871063 0.3776546 0.2969433
000090 fa 27 87 be bc 44 87 bf ff c9 bf 3e 03 99 83 bf
       -0.26397687 -1.0567851 0.37458798 -1.028107
0000a0 17 36 8a bd ae 2a ea bc 56 53 aa 3f 95 81 dd bd
       -0.06748598 -0.028584804 1.3306682 -0.108157314
0000b0 47 2b ed bd f3 37 47 be b4 e5 c9 bd 04 a2 87 3e
       -0.1158052 -0.19454937 -0.098582655 0.26490796
0000c0 db 62 1a bf 90 3c 61 bc 6a 00 c0 be 84 9f 09 be
       -0.6030709 -0.013747349 -0.37500316 -0.13439757
0000d0 6c 27 af bf fd db 46 bf 4c 4e 7b be 96 4f 01 be
       -1.3683906 -0.77679425 -0.24541587 -0.12628016
0000e0 86 12 c5 3e 44 7a 0e bc c8 fa ae bf 3f 07 b4 3e
       0.38490695 -0.008696143 -1.3670282 0.35161778
0000f0 c0 c6 b3 be a8 b0 d6 bd 5c 37 0d be b4 4a 42 be
       -0.35112572 -0.10482913 -0.13790649 -0.1897381
000100 c6 35 cc be bb 42 ab be b7 4b 5b 3e 87 5f ec bd
       -0.39884776 -0.3344935 0.21415602 -0.11541658
000110 56 85 c6 be 15 59 ab 3e 77 ec 6c bd ed 37 90 be
       -0.38773602 0.33466402 -0.057842698 -0.28167668
000120 54 dc 02 be 1f 11 c4 be 20 80 44 be a3 d2 80 3d
       -0.12779361 -0.38294312 -0.19189501 0.06290176
000130 5b fb 01 bf dc b5 2e 3f d2 7c 8b be bb e9 63 be
       -0.50774163 0.68246245 -0.27243668 -0.2225713
000140 56 03 9e 3e 9d 3f 0c be c7 61 0f 3f fe 88 6b be
       0.3086192 -0.13696142 0.5600857 -0.23001477
000150 6a 32 4f 3f 67 5a 41 bb 7f 67 06 bf fb 05 e0 be
       0.809363 -0.0029503347 -0.5250167 -0.43754563
000160 e0 d4 25 3b 52 59 10 3f 6a 6d 06 3f bc 3b f4 be
       0.0025303885 0.5638629 0.525107 -0.47701824
000170 17 d0 8c be d1 90 ac 3d 14 90 39 3e bb 6a 7a be
       -0.2750251 0.08426059 0.18121368 -0.24454777
000180 63 76 f4 3d 06 23 c0 3d c6 87 0d 3f 9d c4 ae be
       0.11936643 0.0938168 0.552853 -0.3413438
000190 cf a2 35 bd 3d 6c 67 be a7 04 0b 3f 13 b5 7a be
       -0.04434472 -0.22599883 0.54303974 -0.24483137
0001a0 72 c4 c1 bd 0d f2 d4 be c6 fb 07 bf 27 60 e9 3e
       -0.09461297 -0.4159092 -0.5311855 0.4558117
0001b0 19 3a 1a 3f d4 d3 1d 3f 19 ee 05 3f f3 f5 99 3d
       0.602449 0.6165135 0.52316433 0.07517614
0001c0 cc 87 58 3d 5d a2 38 be d0 8a 83 be 4f 67 12 3f
       0.05286388 -0.18030687 -0.25691843 0.57188886
0001d0 bb 88 79 be 96 8f d5 3d a8 04 8a be 8e 74 95 bd
       -0.24368565 0.104277775 -0.26956677 -0.07297622
0001e0 66 db 48 be 6d d0 16 3e 69 97 89 be 61 ae 16 bf
       -0.19614944 0.14727946 -0.2687333 -0.5885983
0001f0 85 f4 83 bc 14 df 9b be 19 ab 9c be 2b a9 b1 bb
       -0.016107807 -0.30443633 -0.30599287 -0.0054217777
000200 49 81 e7 bd 4f c0 c2 bd 85 41 41 be b9 6a 82 be
       -0.11303956 -0.09509336 -0.1887265 -0.25472048
000210 3d e3 00 3e 7d e2 27 bf ab 0f 1e bf 65 61 4c 3e
       0.12586685 -0.6557997 -0.6174266 0.19959028
000220 f7 fe bc 3e fe 43 7c 3e 41 63 cb 3d ed e7 b8 be
       0.36913273 0.24635312 0.099310406 -0.36114445
000230 e1 0c c1 3e f4 62 38 be fe c3 55 3e d3 52 08 3e
       0.37705138 -0.18006498 0.20875546 0.13312845
000240 5c aa 05 be 23 00 0c bf ca fe e0 bc 38 b9 95 3b
       -0.13053268 -0.5468771 -0.027465243 0.004569199
000250 58 be 8e be 45 07 02 be 26 90 29 be 31 9b 41 be
       -0.27879596 -0.12698086 -0.16558895 -0.18906857
000260 44 e3 2e 3f 35 6e c2 3d b2 53 69 be 46 0b 60 3d
       0.6831553 0.094936766 -0.22785833 0.05469825
000270 1f d6 fc 3e b9 2c 79 3d 26 44 a4 3d ba a6 a4 bd
       0.4938211 0.060833666 0.08020811 -0.08039613
000280 74 1f b3 3d 7a 71 04 3f 3f 01 02 be b8 35 f2 be
       0.087462336 0.5173565 -0.12695788 -0.4730661
000290 a4 f2 a1 bd 0d 28 a9 3c 76 b4 00 3f 97 68 60 3f
       -0.07907608 0.02064898 0.5027536 0.8765959
0002a0 cd b5 00 3f b5 d8 3a be 64 e3 11 3f f5 fe d1 3e
       0.50277406 -0.1824673 0.56987596 0.4101483
0002b0 55 32 87 3e 32 c9 17 3e 04 e3 1c be c3 11 f7 be
       0.26405588 0.14822844 -0.15320975 -0.4825574
0002c0 55 83 43 3d 71 ed 25 3e 82 6a 74 bd 58 d2 8f be
       0.04773267 0.16203858 -0.059671886 -0.28090167
0002d0 e2 78 86 3e 12 08 91 bd b0 9d d2 be f0 d8 80 3e
       0.262641 -0.070816174 -0.4113593 0.2516551
0002e0 ec c8 cd bd 2c d8 8a 3e d1 c9 e3 3e dd 4e 13 be
       -0.100480884 0.2711805 0.4448991 -0.14385553
0002f0 9e 59 1a bf 68 c3 b5 be ca da ba 3e b5 69 51 3d
       -0.60292995 -0.35500646 0.36495048 0.0511262
000300 63 64 95 be 93 ee d2 bc 29 78 39 3d b7 98 ed 3d
       -0.2917815 -0.025748527 0.04528061 0.11601394
000310 b9 48 8e be bb 1f 1a be 09 05 09 bf 87 5b c3 3e
       -0.27789858 -0.15051167 -0.5352331 0.38155767
000320 e8 65 53 bd 36 89 1e bc 0d 98 c2 be eb 5c 7b be
       -0.051610857 -0.009676268 -0.3800663 -0.24547164
000330 a5 ba 80 3d 08 7c 77 3e c1 09 af be 14 39 5d 3f
       0.062855996 0.24168408 -0.3418713 0.8641522
000340 ab cc da be 2c 21 88 be 4f d4 85 be 84 46 b5 3d
       -0.42734274 -0.26587808 -0.2613854 0.088513404
000350 06 ef 8a bd be 4b 80 bc e2 3f db 3d 4b ce af 3e
       -0.06783871 -0.015661117 0.10705544 0.34337077
000360 e1 9e 02 3f 41 53 18 3e 4f f3 5a 3e 5f 79 68 3d
       0.5102368 0.14875509 0.21381877 0.056756373
000370 92 09 2a bd 5d fa c0 3e 5e c7 d1 3e 6f a5 97 3e
       -0.041513033 0.37691012 0.40972418 0.29618403
000380 cb 4b 73 3e 5c c4 42 3e 32 7e d8 be 86 e0 98 3d
       0.23759381 0.19020218 -0.4228378 0.074646994
000390 d6 e1 f0 bc 79 78 39 bf d0 42 be bd fa da 42 be
       -0.029404562 -0.7244945 -0.09290087 -0.19028845
0003a0 f8 44 63 3e 12 19 6c be 54 1a c9 be 6c ec 01 be
       0.22194278 -0.23056439 -0.392779 -0.12687844
0003b0 70 0f 0c bb 5d 9e 95 3d e2 56 f5 3e cb 2d a4 be
       -0.0021371506 0.07305596 0.4791785 -0.32066187
0003c0 81 c7 b3 bc 1a 1e 07 bf 23 58 0e 3e db 23 00 3f
       -0.021945717 -0.52780306 0.13900809 0.5005471
0003d0 e4 a1 8a 3e 33 cc 91 be 0b 0d 25 3f bc 4c b7 3e
       0.27076638 -0.28476104 0.64473027 0.3580073
0003e0 6b d3 81 bd 06 c4 68 3d a0 25 82 bd a7 3a 8f bd
       -0.06339153 0.056827568 -0.06354833 -0.06993609
0003f0 5b af e6 3e 5c 0d 03 3f 76 26 12 be 18 31 63 be
       0.4505566 0.5119226 -0.14272484 -0.22186697

l2.bias f4 [128]
000000 c8 cd b9 3e cd 16 c5 be a4 97 72 3e 3e ff ca 3e
       0.3628981 -0.38493958 0.23690659 0.3964786
000010 e0 5a ec bc 28 e8 1d be c9 81 61 bf 04 f8 13 bf
       -0.028851926 -0.15420592 -0.8808866 -0.57800317
000020 72 b8 0a bf 06 0e 46 bd a4 03 4b 3d 0d f9 b1 3d
       -0.5418769 -0.048353218 0.04956402 0.08690081
000030 f4 38 66 be fc 06 a7 3e 3f 38 25 3f 27 4d d7 3e
       -0.22482663 0.32622516 0.6453895 0.4205105
000040 16 01 9e 3d 65 50 20 bf af 0c 36 3d 42 00 b3 bc
       0.07715051 -0.6262267 0.04444569 -0.021850709
000050 3c f0 53 3f 9e 13 46 3e 43 e3 cc be 91 75 a8 be
       0.82788444 0.19343421 -0.40017137 -0.32902196
000060 a4 54 ff be b1 3f dc be 90 eb 06 be 64 eb dd bd
       -0.49869263 -0.43017343 -0.13175797 -0.10835913
000070 83 4b 54 3e 2e c3 65 bf df 71 b1 bd 71 b9 66 be
       0.2073193 -0.89750946 -0.08664297 -0.22531678
000080 c7 73 a5 be de 1f 2f be df a1 97 3d 1e 83 09 bf
       -0.32314894 -0.17102 0.07403921 -0.53715694
000090 e5 01 d2 3b 0a 5a 7a bd 98 29 93 be fc 00 cc be
       0.0064089173 -0.061121024 -0.2874267 -0.398445
0000a0 0f 51 5e 3f dc e8 e5 be ef a4 d7 3c 48 20 52 3b
       0.86842436 -0.4490422 0.026323764 0.0032062698
0000b0 45 bb 29 bb b2 05 f5 3e 0c c3 08 3f 4e 50 53 bd
       -0.0025898975 0.47855908 0.5342262 -0.051590256
0000c0 2a 0a 39 3d aa a4 e5 3e be b6 4a be 04 78 21 bd
       0.04517571 0.4485219 -0.19796273 -0.039421096
0000d0 7d 90 d5 3c ca d6 d5 3e 81 b6 3d bf 9d 8c f0 3e
       0.026069874 0.41765434 -0.74106604 0.4698228
0000e0 48 fe e4 3e 42 1c 80 3e 27 8a d3 3d 16 61 30 be
       0.4472525 0.2502156 0.10329085 -0.17224535
0000f0 30 b6 d7 3d fc 75 e0 be 56 89 1f be 6d f6 c0 be
       0.105327964 -0.43840015 -0.15579733 -0.37688008
000100 45 81 31 be 37 56 97 be 9b d3 c9 bd 5f 2a ab be
       -0.17334469 -0.29557964 -0.09854814 -0.33430764
000110 95 91 bc 3e 7f 26 5f 3e 5d 4d 0b 3f 8b cf 10 bf
       0.3682982 0.21792029 0.5441492 -0.56566685
000120 96 43 a4 3d 03 5f f7 3e 32 50 45 bb 70 87 0c 3e
       0.080207035 0.48314676 -0.0030107615 0.1372354
000130 d6 38 7a be a1 13 c4 be e8 a5 19 be 71 46 66 bc
       -0.24435744 -0.38296226 -0.15004694 -0.0140548805
000140 99 54 89 3e 13 f7 10 bd 4f e4 e3 be 47 f4 1f 3d
       0.26822355 -0.03539188 -0.44510123 0.03905132
000150 c6 34 59 3d 02 79 28 be b6 4e 89 3c bf cf e9 be
       0.053028844 -0.16452411 0.016761165 -0.4566631
000160 66 4f c6 3e c9 50 0b 3e ea 94 ca 3c b8 89 83 bb
       0.3873245 0.13605036 0.02472921 -0.00401422
000170 b2 2e 29 3e 38 33 cb 3e bd b7 ab be c2 4c c6 be
       0.16521719 0.39687514 -0.3353862 -0.38730437
000180 87 ba cd 3d ee 2a cc 3e 4c 09 0d bf e1 ee 0f be
       0.10045343 0.39876503 -0.5509231 -0.14055969
000190 48 b8 73 3d d7 0d c9 bd 8e af d5 bc 2b 89 1f bc
       0.059501916 -0.09817093 -0.026084688 -0.009737293
0001a0 c3 71 6e 3e 0d ae b3 3d eb e4 07 3f 37 b6 f1 3d
       0.23285584 0.08773432 0.53083676 0.11802333
0001b0 45 cd a5 3c ac cc 08 b9 e7 72 06 bf 13 e3 3e 3d
       0.020239482 -0.00013046217 -0.5251908 0.046603274
0001c0 50 07 33 3e 56 0a b3 bd f4 43 9c 3e 6d 97 6e be
       0.17483258 -0.08742206 0.30520594 -0.23299952
0001d0 f0 17 0f 3e d3 c4 99 be 41 1d 65 be 64 51 3c 3e
       0.13973975 -0.30032977 -0.2237444 0.18390423
0001e0 56 6e 22 3f 34 df 4e 3e 28 44 f0 bd c5 0d 38 3e
       0.6344961 0.20202333 -0.1173175 0.17974003
0001f0 68 93 8b be c7 94 e5 3d be 34 8a be 85 ea 83 be
       -0.272609 0.11210018 -0.26993364 -0.25764862

l3.weight f4 [64, 128]
000000 5f ed 7b bd 7c 95 2f 3f 4c d7 d1 3d f9 6f 54 3e
       -0.06150567 0.6858747 0.10246143 0.20745839
000010 13 27 54 3c 75 62 21 3e c2 96 a7 bd 4f b3 14 bf
       0.012948769 0.15760215 -0.08183052 -0.58086103
000020 6c 8f 49 be 9f 9d 91 be 08 ac 66 3d 4f b5 e6 be
       -0.19683617 -0.28440568 0.056316406 -0.45060202
000030 f4 a6 0d be 61 fd 0c 3e 04 7d e5 bd a2 8e 51 3e
       -0.13833219 0.13768531 -0.112054855 0.20464566
000040 f3 7b 7c 3e a0 3b 97 bd 0d 1b 90 be af 28 d3 be
       0.24656658 -0.073844194 -0.28145638 -0.41241977
000050 c9 38 7b 3e d5 cf d8 3e 4b 18 40 bd 37 0b ee be
       0.2453338 0.42346063 -0.046898168 -0.4649293
000060 24 2a d2 be c6 05 47 be 7e fc 65 3e 44 b5 89 bd
       -0.41047776 -0.19435796 0.224596 -0.06724027
000070 11 89 d7 be b9 c2 4f bd 7b c9 02 3e 0b 55 d6 bd
       -0.4209676 -0.05072281 0.12772171 -0.104654394
000080 99 95 43 3e 57 9b 19 3f a5 2a e6 3e 09 8d 8d bf
       0.19100036 0.60002655 0.4495441 -1.1058666
000090 08 a9 23 bf a4 9a b6 3d 29 df e4 3d 91 33 89 bc
       -0.63929796 0.08916214 0.11175377 -0.016748222
0000a0 81 78 1c 3e 93 0e 16 bf 99 2b f8 3c c3 25 f8 3b
       0.15280344 -0.5861599 0.030294226 0.007572861
0000b0 d7 9f 13 3f e0 c3 7d 3e ec f1 c5 3d d0 d4 dc bd
       0.5766577 0.24781752 0.096652836 -0.10782778
0000c0 61 3e db be ea 18 39 3e 6c b6 de be c4 19 e0 bd
       -0.4282103 0.1807591 -0.43498552 -0.109424144
0000d0 03 84 97 bd b8 9c 9f 3e 69 a1 f3 be c6 a1 25 bf
       -0.07398226 0.31174254 -0.47584084 -0.6469997
0000e0 9c 38 a2 3e bd 50 06 3f 4a d0 13 3e 74 c5 1e 3e
       0.31683815 0.52466947 0.14434925 0.1550501
0000f0 97 e5 d8 bd f2 83 af be 54 62 1d 3e 59 92 1d 3e
       -0.10590666 -0.34280354 0.1536954 0.15387858
000100 f7 b5 1f be 20 fa 87 3e 8f f5 f3 3d 0c 92 b1 bd
       -0.15596758 0.26558018 0.11912071 -0.08670434
000110 0e f3 c1 3e 2f 3f 01 3e 1b 74 99 3e 10 35 d2 be
       0.3788075 0.12621759 0.29971394 -0.41056108
000120 3b 42 8b 3f ed 90 1d bd 00 58 00 3f 7c a4 bf 3e
       1.0879587 -0.03846829 0.5013428 0.3743018
000130 25 eb 3e be a9 36 03 be 8d 3b 0b bd 31 6e 03 3f
       -0.18644388 -0.1281382 -0.03399234 0.51340014
000140 15 53 d0 3e 5b 8c 82 bd d8 63 38 bf a0 9f 1e 3e
       0.40688387 -0.06374427 -0.7202735 0.1549058
000150 4e 93 ca 3e 9e 4d ba be fa bf fb be ba 15 81 3d
       0.3956551 -0.36387342 -0.49169904 0.06302972
000160 42 da 83 3d ec 46 c5 be a8 2d 4e 3f 60 2c 04 3f
       0.06438114 -0.38530672 0.80538416 0.5163021
000170 9f 39 aa 3e 47 17 5f 3e f4 19 88 be 45 dd 7a 3c
       0.33247086 0.21786223 -0.265823 0.015311544
000180 3c 69 be 3c 47 ce c6 3e 5b f4 fd be 11 a3 33 3e
       0.023243539 0.38829252 -0.4960049 0.17542674
000190 f8 04 13 3e c5 f9 05 3f cc b3 29 3e 43 e5 b0 be
       0.14357364 0.52334243 0.16572493 -0.34549913
0001a0 77 b3 b5 3d 91 dc 05 3e ef 59 87 3c 78 37 e0 be
       0.08872121 0.1307242 0.016522376 -0.4379232
0001b0 e9 57 91 be 28 90 b7 3e 12 64 e1 be 10 33 dd 3d
       -0.28387383 0.3585217 -0.4402166 0.10800755
0001c0 0c 9c f8 3e 6b d9 06 be c1 61 8f 3e 00 a2 47 be
       0.48556554 -0.13168876 0.28004268 -0.19495392
0001d0 46 eb ef be b5 ba bb be d1 d9 3c be 7f 29 12 3f
       -0.46859187 -0.36665884 -0.18442465 0.5709457
0001e0 5e 42 cf 3e 3b 9c 7e bd 04 d0 14 bd 85 90 86 3e
       0.40480322 -0.06216071 -0.03633119 0.26282135
0001f0 eb 59 0c bf 6f 5f 4b 3e ad 66 29 3b 79 aa a3 be
       -0.54824704 0.19860624 0.0025848553 -0.31965998
000200 ea 33 41 bf 2e a8 03 be 67 7d 74 bf be db 8f 3e
       -0.7546984 -0.12857124 -0.9550385 0.28097337
000210 02 49 60 3d b8 06 e0 3e 33 a0 53 be 3c c7 4d bf
       0.054757126 0.43755126 -0.2066658 -0.8038213
000220 9e 1c fa 3e 2e 72 f2 be 6f ce e0 3e d9 0a ee 3e
       0.48849958 -0.47352737 0.43907496 0.4649265
000230 ad 9c 38 bf e8 29 3d 3e 70 d0 5d 3e 4d 9c eb 3e
       -0.7211407 0.18473017 0.21661544 0.46017686
000240 45 5e 1d 3e 9a 58 4e bc ac 0f 84 bd 19 a3 ad bc
       0.15367992 -0.012594366 -0.06448302 -0.021195935
000250 13 e3 49 3e d5 c3 0c 3f da 90 fa 3d 9b 8f 48 be
       0.19715528 0.54986316 0.122346595 -0.19586031
000260 1d 97 0d be e6 36 7c 3e a0 54 85 be 3e 07 c6 bd
       -0.13827176 0.24630317 -0.26041126 -0.0966935
000270 6e 2a bc 3d 62 b0 5b be a9 39 7a bf da db b7 be
       0.0918778 -0.21454003 -0.9774423 -0.3590992
000280 6e 09 26 bb 8f 57 ce be 57 11 83 be 66 33 5b bd
       -0.002533521 -0.40301177 -0.25599167 -0.053515814
000290 f2 80 ce 3d 21 36 25 3e e9 19 ef bd c3 96 6b be
       0.10083188 0.1613393 -0.11674864 -0.2300673
0002a0 5b 28 6b 3e 4a 0b 94 3e b5 e6 df 3d b7 0d ff 3e
       0.22964613 0.28914863 0.10932676 0.4981515
0002b0 f4 a8 29 bf 30 bd 94 bd 83 5e 52 be e8 51 8a 3e
       -0.66273427 -0.07262647 -0.20543866 0.27015615
0002c0 85 c7 b6 be 05 e2 8f 3e 9b af 9e be 09 22 47 3d
       -0.35699096 0.28102127 -0.3099335 0.048616443
0002d0 60 65 7d be 9b c8 fc bd 29 75 59 3e 38 43 05 3f
       -0.24745703 -0.1234295 0.212361 0.5205569
0002e0 d5 86 c7 bd 36 a9 c4 be eb 41 2f 3e ba ef 75 bf
       -0.09742514 -0.38410348 0.1711499 -0.9606892
0002f0 71 32 0b 3e 12 98 a2 3e 5d 38 2b 3f d3 a6 df be
       0.1359346 0.31756645 0.6688288 -0.43681964
000300 d0 ae 55 be 2a 7a fe bc ea 0d 74 be cf ce 4e 3e
       -0.20867467 -0.031064112 -0.23833433 0.20196079
000310 0f 11 19 3e f2 f6 16 bf 01 ed eb 3e 0a 4e 52 3e
       0.14947914 -0.5897056 0.46079257 0.20537582
000320 14 84 91 bd d7 68 ad 3d d6 48 bf be 1b d5 b8 3e
       -0.0710527 0.08467262 -0.37360257 0.36100087
000330 c0 86 55 3e 37 d9 84 3d cb 10 c0 be 07 27 9a 3d
       0.20852184 0.06486743 -0.37512812 0.07526975
000340 b5 21 3b 3f fb b2 bd be 53 db d2 be a3 1a 6e 3e
       0.7309831 -0.37050614 -0.41182956 0.23252349
000350 f3 78 e5 3c b1 01 b0 3e 24 6a 19 3e 00 9f 0d be
       0.028011775 0.3437629 0.14981896 -0.13830185
000360 98 6e 0a 3f 0e 7e 8f 3d f6 cd 11 be cd 5c cd 3e
       0.54075 0.07006465 -0.14238724 0.40109864
000370 45 94 56 3e 47 80 5b 3e b5 0c 9f be de 06 7a 3d
       0.20954998 0.21435653 -0.31064382 0.061041705
000380 6d 17 ae 3e a4 79 1c be 5d 0f 20 3f a0 c2 5b 3e
       0.34002247 -0.15280777 0.6252344 0.21460962
000390 69 7d 02 be 21 11 dd be dc 2e e5 be a1 e0 8f 3e
       -0.12743153 -0.4317713 -0.44762313 0.28101066
0003a0 f9 1b 42 3d f7 e0 da 3e b1 7f 16 3e df ee 3c 3b
       0.047389958 0.4274976 0.14697148 0.0028828902
0003b0 42 67 4c be 7a 68 e4 be 8c b3 95 3e ec 56 a9 3e
       -0.19961265 -0.4461096 0.29238546 0.3307413
0003c0 e2 39 97 3c 9d ea e6 be d4 07 a4 3d 48 d7 51 3e
       0.018460218 -0.4510087 0.080093056 0.2049228
0003d0 87 5e c4 bd f8 86 5c 3e 09 42 54 3e ab bc f8 be
       -0.09588342 0.21535861 0.20728315 -0.48581442
0003e0 4f 43 2a 3e bb 20 32 3d 39 7f 3e bf d5 53 02 3d
       0.16627239 0.043488245 -0.74412876 0.03181823
0003f0 bd f6 9b bc 0f b7 cd 3e f8 37 0c bf a8 9a c8 bd
       -0.019038552 0.40178725 -0.547729 -0.09795123

l3.bias f4 [64]
000000 84 eb 45 3c 32 74 8d 3e c0 40 9e 3e 65 2f 53 3d
       0.012080077 0.27627712 0.30908775 0.05155887
000010 e0 c7 e7 3d 27 30 08 bf ef ea d0 3e ca d8 12 3e
       0.1131742 -0.53198475 0.4080424 0.14340511
000020 fd 20 55 bf 09 8c 61 3d a1 12 50 be 11 15 c2 3e
       -0.8325346 0.05506519 -0.20319606 0.37906697
000030 b4 2e e8 3d e9 aa 53 be f6 8e e9 3d e1 65 4f bf
       0.11337033 -0.20670666 0.11404221 -0.8101483
000040 65 43 a4 3e 84 71 85 3e bf 36 76 3e 94 f3 a9 be
       0.32082668 0.26063168 0.24044321 -0.33193648
000050 fc f1 1a be c0 af a6 be d8 db 19 bf 58 6e 44 3f
       -0.15131372 -0.32555962 -0.6010108 0.7673087
000060 e6 b7 70 be 4f 57 86 be 25 9c 50 3f d4 dc df 3d
       -0.23507652 -0.26238486 0.8148826 0.109307915
000070 ff 72 5c bf 79 64 3d 3f 7f 3b 45 3f c7 92 55 3f
       -0.8611297 0.73981434 0.7704391 0.8342709
000080 16 ba 14 3e e5 60 06 3f 7f 30 0b 3e 32 75 57 be
       0.14524111 0.524916 0.13592719 -0.210408
000090 b0 83 3b bd 9b ae 8f 3e a9 b9 54 3e 90 30 2c bf
       -0.045779884 0.280629 0.20773949 -0.672616
0000a0 c9 50 08 3f 1c d5 b6 3c 9a 8b 04 bf 3a 0d 04 be
       0.5324827 0.022318415 -0.51775515 -0.1289567
0000b0 fc 68 12 3f c7 ff 07 bf 55 1f 1f bf ed 89 ce 3e
       0.57191443 -0.5312466 -0.62157184 0.40339604
0000c0 6b 67 56 bf 14 85 79 bd cb 22 2f bf b9 8e 76 3e
       -0.83751553 -0.06091793 -0.68412465 0.24077882
0000d0 8c 4f 09 3d c0 0a 85 be b2 3f 1d 3e 93 7f ea be
       0.033523127 -0.25984764 0.15356329 -0.45800456
0000e0 29 43 69 3e 3f 76 b8 bc d3 ed ba 3c 96 2e 4d be
       0.22779526 -0.022517322 0.022818482 -0.20037302
0000f0 6e 4d 9e bd a6 ed 21 3e 63 be 53 3f 2d 8c 0a bd
       -0.07729612 0.15813312 0.8271238 -0.03382509

l4.weight f4 [1, 64]
000000 0d ad 16 3e 34 dc 8e be 1c 08 b2 be aa 87 77 3e
       0.14714451 -0.27902377 -0.34771812 0.24172845
000010 e9 79 91 be cd 26 c2 3e d0 76 9c be e1 cd 90 be
       -0.28413323 0.37920228 -0.30559397 -0.28282073
000020 08 02 87 3f 0c 90 a6 3e a6 45 3c 3e fc c7 0a bf
       1.0547495 0.32531774 0.18385944 -0.542114
000030 64 79 5c 3e 95 c8 6a 3e fe a9 bd be 38 e9 84 3f
       0.21530682 0.22928078 -0.37043756 1.0383673
000040 b5 43 c1 be 76 17 f3 bd 91 de e6 3d cc 3b 13 3f
       -0.3774697 -0.11869709 0.1127292 0.5751312
000050 a7 eb cb be f1 65 bd 3e 94 39 c8 3e d7 7a 2c bf
       -0.39828226 0.36991838 0.3910643 -0.6737494
000060 ea 1a 48 3e f8 40 c4 bd 52 aa 82 bf cf 5c 12 be
       0.19541517 -0.09582704 -1.0208228 -0.14293216
000070 a7 07 7d 3f e8 f4 83 bf db c9 51 bf 75 9f 7a bf
       0.988398 -1.0309114 -0.8194863 -0.9789956
000080 ad 34 fd 3e 5f 4a 20 bf 3b 9d a4 be c0 4d e8 3e
       0.4945425 -0.6261348 -0.32151207 0.4537182
000090 90 9c 07 3f 9f 20 7e be 72 86 55 be ce 3a 05 3f
       0.5297327 -0.24817131 -0.20852068 0.52042854
0000a0 ce f8 39 bf 2d fd 01 be b1 ba 02 3f 72 65 aa 3e
       -0.7264527 -0.12694235 0.5106612 0.33280522
0000b0 78 11 c4 be a4 ee 32 3f 3e f2 3f 3f 28 34 d9 bd
       -0.38294578 0.69895387 0.7497901 -0.10605651
0000c0 55 26 54 3f 68 2b 0a 3e 4a fb 83 3f e6 70 1d be
       0.8287099 0.1349312 1.0311062 -0.15375099
0000d0 66 f3 98 be bc d8 f5 bd 06 f6 45 be fd 16 c8 3e
       -0.29873198 -0.120042294 -0.19332132 0.3908004
0000e0 d4 2f 59 be fe 64 7d 3e d8 3a 65 be e5 0f 8c 3e
       -0.21209651 0.24745557 -0.22385728 0.27355877
0000f0 5d 20 83 be 5a d9 ab be 8e fb 5c bf ff 93 df bd
       -0.2561063 -0.33564264 -0.8632134 -0.109169

net.0.weight f4 [256, 6]
000000 1e c9 10 3f 93 a1 2d bf 89 2c e0 3f b6 60 6f 3e
       0.5655688 -0.6782467 1.7513591 0.23376736
000010 9d 0e 15 be 23 a2 5c 3e 0f e4 35 be 59 bd 5c 3e
       -0.14556356 0.21546225 -0.17762779 0.21556605
000020 2e f0 8e 3e b6 1e d0 3e 90 c2 73 be 1e cc 9d 3d
       0.27917618 0.4064843 -0.23804688 0.07704948
000030 44 c4 4e bf ae 03 9d 3c 58 95 68 bd d8 7c 8c 3c
       -0.8076823 0.019166794 -0.05678305 0.017149374
000040 ac 6f 2e 3e 4f b4 a2 be 81 f5 49 be 12 14 6a 3d
       0.17034787 -0.3177819 -0.19722559 0.057148047
000050 b3 4b 1c bd a2 5a 79 3e 52 34 cc be a5 07 97 bd
       -0.03815813 0.2435098 -0.39883667 -0.07374505
000060 ae eb 53 bf 95 9a 89 3e d9 ab 97 bd b6 b4 9f 3e
       -0.82781494 0.2687575 -0.07405824 0.3119256
000070 c7 bb 70 bd 15 44 56 3e 88 e9 73 3f 94 c9 a3 be
       -0.05877283 0.20924409 0.95278215 -0.3198973
000080 d3 de 3b 3d 67 0c 91 be 8b f1 50 3c 70 1c 21 be
       0.0458668 -0.28329775 0.012752901 -0.15733504
000090 6e 0f 06 bf 35 ef 9a 3d d1 a9 13 3e 5d e5 ae 3e
       -0.52367294 0.07565156 0.14420249 0.34159365
0000a0 90 df 9d be 04 75 80 bc 51 64 c5 be 29 4b 75 3c
       -0.30834627 -0.015680797 -0.38553098 0.014971533
0000b0 94 47 91 3e 34 29 3a 3d d9 93 88 bc ab 06 6f be
       0.28374922 0.04544945 -0.016672062 -0.23342387
0000c0 21 f2 3d bf da 1d d9 3e bc 45 04 be 4a fc 59 3e
       -0.74197584 0.42405587 -0.12917227 0.21287647
0000d0 70 bb 20 be 70 69 bb 3d b6 2f 09 3e 60 80 1a 3e
       -0.15696502 0.0915097 0.13397107 0.15088034
0000e0 35 29 e0 bd 7f 52 69 be 2e 2c e5 3e a0 1f b9 bb
       -0.109453596 -0.22785376 0.4476027 -0.005649522
0000f0 bb 35 19 3f ef 33 a0 3e 86 d3 ec bb 49 bc ea 3d
       0.5984761 0.31289622 -0.007227364 0.11461694
000100 d9 b9 0d bf d6 b7 1e 3f 9b 84 2f 3f 05 29 7c be
       -0.55361706 0.6199926 0.68561715 -0.24625023
000110 e1 ca 09 be bc b4 ea be 70 d5 a9 3e af e9 a3 be
       -0.13456298 -0.45841014 0.33170652 -0.32014224
000120 d4 5a 64 3e 94 7d 18 3f d1 6a 12 3e 2a af c7 3e
       0.22300273 0.59566617 0.1429856 0.39000827
000130 0d 6e 23 be 31 ce f4 3d d4 3e 20 bf 09 af c2 3e
       -0.1595995 0.119533904 -0.6259587 0.38024166
000140 08 62 f9 3d 4d 18 c1 3e ec 6d a6 be a4 c8 38 3e
       0.12176901 0.37713853 -0.3250574 0.18045288
000150 27 85 41 bf 0a dc 67 3e 79 3e 46 3d f9 85 e5 3e
       -0.755938 0.22642532 0.048399422 0.44828776
000160 05 aa 64 be 6d 2c 55 3d 09 ba 31 bf 9b 05 36 3e
       -0.22330482 0.05204432 -0.6942449 0.17775576
000170 58 0d eb 3d fb ee 14 3f 8b 22 4f be 1c bc e1 3d
       0.114771545 0.58177155 -0.20228021 0.11022207
000180 8b f3 2f bf 40 7f 59 3e 2f cb ea 3d a8 71 00 3f
       -0.6873099 0.21239948 0.114645354 0.50173426
000190 27 6a 91 be e8 de 9b 3e 92 c7 1c bf aa 85 ef 3d
       -0.284013 0.304435 -0.6124202 0.11695416
0001a0 69 d6 84 3e 40 8e b5 3e 9e 91 7d be ff 6a ee bb
       0.25944832 0.3546009 -0.2476258 -0.0072759385
0001b0 c8 bf cc 3e a9 bc fb 3e da e4 13 be 2f 07 c2 3e
       0.39990067 0.49167374 -0.14442769 0.37896106
0001c0 ed 2c 09 3d 0a 2e 71 3c cc da 7d be 1f 24 a9 3e
       0.03349011 0.014720449 -0.24790496 0.3303537
0001d0 08 29 51 bd a9 f5 93 be 78 ee cb 3e 08 85 2f 3d
       -0.05106452 -0.2889836 0.39830375 0.042851478
0001e0 98 41 77 3e ff 52 d5 be be 3b dd 3d 6a 8d 80 3e
       0.24146116 -0.41664883 0.108024105 0.2510789
0001f0 34 e4 1e bf 34 51 8b 3f 6c 90 32 bf 65 1d 54 be
       -0.6206696 1.0884156 -0.6975162 -0.20714338
000200 d0 c8 59 bd 8b a7 51 3c fd 56 9c 3e 6d fe 19 bf
       -0.053170025 0.012796293 0.30535117 -0.6015385
000210 bb ba 85 bd a6 43 85 3f 10 77 78 be c6 a8 02 3e
       -0.06529757 1.041127 -0.24264169 0.12759694
000220 6c 7a bd be a9 1e 12 3f 92 4c b7 3e 6b f2 9f bd
       -0.37007463 0.57078034 0.35800606 -0.078099094
000230 47 a9 43 bf ae 47 de be 65 70 f1 3e 41 ee 34 be
       -0.7643017 -0.43414062 0.47156063 -0.17669012
000240 8b 39 63 3f 48 c0 51 be 53 88 28 3d bf 52 95 be
       0.8875968 -0.20483506 0.041145634 -0.29164693
000250 b1 b3 9c bc d6 3f 96 bd 54 a2 b6 3e 15 07 d5 3e
       -0.019128652 -0.073363945 0.35670722 0.41606966
000260 e7 05 f1 bd 32 4b ab 3e 70 8f 08 bf d4 58 23 3f
       -0.11768704 0.33455807 -0.5334387 0.63807416
000270 0e 6a a8 be 93 9d 4d 3f 94 ca 43 bd a4 76 2c 3e
       -0.32893413 0.80318564 -0.047800615 0.16842133
000280 36 69 52 be 92 a3 c5 3e 61 be 42 3f 18 8e 88 bd
       -0.20547947 0.38601357 0.76071745 -0.06667727
000290 a7 de 8f bc 10 9c 56 be 05 fd 40 bd 4b b5 43 3e
       -0.017562224 -0.2095797 -0.0471163 0.19112127
0002a0 65 dd 5c bf aa 1f a2 3c dd 81 cf 3c 54 ff 15 bd
       -0.8627532 0.01979049 0.025330478 -0.036620453
0002b0 2a 54 c8 3e 4e f4 d7 be cb f3 3f bf ba 52 37 be
       0.39126712 -0.42178577 -0.74981374 -0.17902651
0002c0 b4 63 0a 3d f6 c7 7d bc 5c 88 e6 3e 04 92 17 bf
       0.03378649 -0.015489569 0.4502591 -0.5920718
0002d0 74 5c 36 bf d5 98 95 3e c1 f6 e6 be d6 ee 59 3c
       -0.7123482 0.29218164 -0.45110133 0.013301572
0002e0 85 a1 4b be e2 84 39 3e cf 08 84 be 39 7c 6f 3f
       -0.19885834 0.18117097 -0.2578797 0.93548924
0002f0 c8 60 48 3d 3b 9e 57 3d e9 2b 1e be f5 7a 25 3f
       0.048920423 0.052641135 -0.15446438 0.6464074
000300 28 28 74 bf d2 6a c7 3e 7d 8a 89 be 6a 7e 1c bd
       -0.95373774 0.38948685 -0.2686347 -0.038206495
000310 c9 87 26 be 55 56 b7 3e 00 33 13 bf 17 73 40 3f
       -0.16262735 0.35808054 -0.57499695 0.75175613
000320 f4 cd b3 be 13 96 9a be 0c d0 01 bd 89 5a f1 be
       -0.35118067 -0.30192623 -0.03169255 -0.47139385
000330 7c 6e 08 3e 27 4f ca 3d fb 03 95 3e 08 61 12 be
       0.13323396 0.09878378 0.291046 -0.14294827
000340 9a 42 81 3e 8a cb c4 3e b9 5f f0 3e 9d 22 ad 3e
       0.25246125 0.38436538 0.4694803 0.3381547
000350 65 97 1a be 5b e5 10 3d c6 56 ac be 34 c0 1f 3f
       -0.15096815 0.03537498 -0.33659953 0.62402654
000360 cb 53 2e 3f db fe a8 bd 88 5c 03 be ee e8 1a 3e
       0.6809661 -0.08251735 -0.12828267 0.15127918
000370 a4 45 c1 be 7e 39 10 3f 7d 93 f3 be 27 25 b0 3e
       -0.37748444 0.56337726 -0.47573462 0.34403345
000380 3e 6d 4f 3f 8e 15 a7 3e c0 fd ee be e5 2e 1b 3e
       0.81026065 0.32633632 -0.4667797 0.15154608
000390 12 b5 3f 3f 7b 68 07 be 26 ac e4 bc c8 47 98 be
       0.74885666 -0.1322345 -0.027914118 -0.29742265
0003a0 9b c2 c0 3c db 7d 63 3d bb 16 0f bf 13 6a a2 3e
       0.023530295 0.055539947 -0.5589406 0.31721553
0003b0 21 78 74 3f cc 1d e9 3e 90 ce da be b4 c5 c1 3e
       0.954958 0.45530546 -0.4273572 0.37846148
0003c0 7a fb 32 bf 34 ed b1 bd ef 0a 46 3e 75 6b 80 be
       -0.6991497 -0.08687821 0.19340108 -0.25081983
0003d0 44 b4 ce 3e 4b bc 04 bf 8d 2f 49 3f 0d 23 12 bd
       0.40371907 -0.5184981 0.7858818 -0.03567796
0003e0 c8 98 07 bd 28 48 35 be fc f4 de bd ce 6f c5 3e
       -0.033104688 -0.17703307 -0.10886571 0.38561863
0003f0 39 df 20 3f ba 97 35 be 81 04 8e bf 6e f7 f3 be
       0.6284061 -0.1773366 -1.1095124 -0.4764971

net.0.bias f4 [256]
000000 85 c4 b3 3d 40 2d 4a bf 4e 67 c9 be ce 12 54 bf
       0.087777175 -0.78975296 -0.39336628 -0.82841194
000010 80 09 0a 3d 04 e0 f4 3d 92 f4 1e bf f8 ed 02 bf
       0.033700466 0.1195679 -0.62091935 -0.5114436
000020 ea 49 cc be 66 5f 4e 3f 77 4b e7 3e 75 9f bb 3e
       -0.39900142 0.80614316 0.45174763 0.36645094
000030 d5 aa 20 bf 35 e4 00 bf 48 1a d6 be 1a 3f f0 be
       -0.6276067 -0.50348216 -0.41816926 -0.46923143
000040 1e dc ea be 94 4b 1c bf 99 9b 5e bd 6f c2 26 3f
       -0.4587106 -0.61052823 -0.05434761 0.6514043
000050 05 20 ac 3e 93 7d 21 bf 38 77 13 3e 48 74 2c 3f
       0.3361818 -0.63082236 0.14400947 0.6736493
000060 00 f0 3e 3e 70 c9 4a bd 21 bf 55 3e 09 5c ee 3e
       0.1864624 -0.049508512 0.20873691 0.46554592
000070 e1 a7 a4 be 1e a1 da be 68 43 59 bd f3 fb 88 3e
       -0.3215933 -0.42701048 -0.0530428 0.26754722
000080 c1 d9 b0 3e 91 f5 6f be 03 d3 72 3f 22 1d 18 3f
       0.34541133 -0.2343352 0.9485323 0.59419453
000090 d8 28 48 3e 8e 11 01 bf 82 99 fb 3e ad f0 f7 be
       0.1954683 -0.5041741 0.49140555 -0.4842581
0000a0 e0 a4 38 be ca 94 eb 3e e2 5c ce 3e dd af c3 3e
       -0.18031645 0.46011955 0.4030524 0.3822011
0000b0 fa 99 7a be 45 4b 63 3e 78 69 f5 3e 3a a3 97 3e
       -0.244728 0.22196682 0.4793203 0.2961672
0000c0 25 f6 b9 be da 1b e4 be 81 99 42 3e 1c c0 22 bf
       -0.36320606 -0.445525 0.1900387 -0.63574386
0000d0 c4 c5 fb be 13 0c 94 3d a0 fd 4f bd ce 9c bf bd
       -0.4917432 0.072288655 -0.050778985 -0.0935608
0000e0 da a8 ca bc c5 2e 6b 3d 77 d0 15 bf 1c e5 a1 3e
       -0.024738718 0.05741765 -0.5852122 0.3162011
0000f0 3f 83 3c bf 90 1a ea bb d5 38 e1 be bc af ba be
       -0.73637766 -0.00714428 -0.43988672 -0.364622
000100 e0 56 04 bf 23 a3 ab 3e e7 8b 8c bd 91 e0 d2 3e
       -0.5169506 0.335229 -0.06862622 0.41186956
000110 e3 8c b3 3e 7a ac 19 bf 31 89 55 be a2 be d4 3e
       0.35068426 -0.60028803 -0.20853116 0.4155169
000120 01 de 97 be c2 12 bd be 83 66 1a bf c4 42 a9 be
       -0.29661563 -0.36928374 -0.6031267 -0.3305875
000130 ec af a8 be 0c db d7 3e 77 a8 19 bf bf 45 02 bf
       -0.32946718 0.42159307 -0.6002268 -0.50887674
000140 a7 c3 fa 3e 9f e5 7f be 58 7c b0 3d da 95 81 b9
       0.48977396 -0.24989937 0.08617467 -0.00024716445
000150 02 51 ee 3d 8f 74 a9 3e df f8 7e bf be 69 83 3e
       0.11636545 0.3309674 -0.995985 0.25666612
000160 17 86 b1 bc d5 d7 89 be a2 75 65 bc 52 06 03 bf
       -0.021670384 -0.2692248 -0.014005097 -0.5118152
000170 22 61 d1 bd 2f fb 03 bf 35 d3 cf be 15 de 65 be
       -0.10223605 -0.5155515 -0.40590826 -0.22447999
000180 48 c8 b1 3e 03 05 c3 3e c6 77 05 3f 7f a3 ab be
       0.34723115 0.3808976 0.52135885 -0.33523175
000190 26 0f ba 3e 2b d9 ed be 6a 5d c2 3e 95 71 16 bf
       0.36339682 -0.4645475 0.37961894 -0.5876706
0001a0 54 fe 2e 3e 3f d6 cb be 69 24 f4 be e1 c9 60 3f
       0.17089206 -0.39811894 -0.4768403 0.8780804
0001b0 74 8e 91 3e 28 09 d7 3e 38 2f 04 3f 0b 4e fe bd
       0.28428996 0.41999173 0.5163455 -0.12417229
0001c0 ca b7 96 bd c9 8c 78 3d 25 a4 e8 be d7 27 e0 3e
       -0.07359274 0.06068114 -0.45437732 0.43780395
0001d0 56 b7 65 be 14 e8 47 bf a0 1a 63 be 88 aa c0 3e
       -0.22433218 -0.780885 -0.22178125 0.37630105
0001e0 ac fc 91 be 65 d3 97 3d ce 1c c4 3e d5 65 3d bf
       -0.28513086 0.07413367 0.38303226 -0.7398351
0001f0 a2 4e ea be 8a 3a 43 be 71 de 99 be 91 bb 3c be
       -0.45763117 -0.190653 -0.30052522 -0.18430926
000200 70 ee 09 3f 1d ee 50 3e c2 96 f8 be 5a dd d4 3e
       0.5387945 0.20403333 -0.4855252 0.41575128
000210 20 3a bb 3e b2 ed eb be 43 16 40 bf 02 64 98 be
       0.36567783 -0.46079785 -0.7503397 -0.297638
000220 d9 9b 58 3f 05 52 9c 3d a9 ee b8 3e 15 0a c4 be
       0.84612805 0.076328315 0.36119583 -0.38288942
000230 93 40 43 3f da 9f 07 bf fc 30 dd 3e 14 62 00 3f
       0.7627041 -0.5297829 0.43201435 0.50149655
000240 2f 7d 31 bf ab c0 3f be 43 d6 3c be 06 bb 39 3f
       -0.6933164 -0.18725841 -0.1844111 0.72551
000250 ad 61 81 bd f1 b4 09 bf 0d b6 db 3d f8 69 dd be
       -0.06317458 -0.5379172 0.10728083 -0.4324491
000260 7c 13 90 3e c0 3d cf be b5 53 01 bf 8c c3 1d 3f
       0.28139865 -0.404768 -0.5051835 0.61626506
000270 7e 5b c1 3e 60 76 eb 3e c0 06 bc 3e af f6 36 3f
       0.37765115 0.4598875 0.367239 0.7147016
000280 7a 38 ee bd bd 0e 11 3d c9 9a f3 bc 4f ae f1 be
       -0.11631866 0.035414446 -0.029736893 -0.472033
000290 6d 03 ef be 13 d3 0e 3e be c0 e1 3e b4 33 8d 3e
       -0.466823 0.13947706 0.44092363 0.2757851
0002a0 7c 5c 05 3f a4 51 c6 be 1f a6 0f 3f 52 1b ee 3e
       0.52094245 -0.38734162 0.56112856 0.4650522
0002b0 bc 0b 97 be 4f f8 8c 3e ce 4e bc 3e 43 bf 0b bf
       -0.2950114 0.27533194 0.36778873 -0.5458872
0002c0 3c 5f 69 3d 2b 03 bc be 30 4c c8 3b 4b 93 52 be
       0.05697559 -0.36721167 0.006112598 -0.20564
0002d0 03 2d 3c 3f f8 95 2a 3f 3c 24 d6 be 49 c9 f1 3e
       0.7350618 0.66635084 -0.4182452 0.4722388
0002e0 fd 6a 11 bf 55 94 d5 3a 6b 79 1c 3e b1 58 01 3f
       -0.56803876 0.0016294817 0.15280692 0.5052596
0002f0 d1 7c f4 be d5 0a 01 bf bd c6 11 3f 9f 1e 9a 3e
       -0.47751477 -0.50407153 0.56943876 0.30101487
000300 6c 93 54 be 25 a2 d7 be d9 bc 09 3f 8b cd ed be
       -0.20759362 -0.42115894 0.53803784 -0.4644588
000310 98 af df bc 23 08 9d 3e de f9 ce be fa 99 17 3f
       -0.02730541 0.3067027 -0.4042501 0.59219325
000320 d8 8e 3b bf e4 f8 e7 be 0e 7e b9 3d 11 22 8f 3e
       -0.7326484 -0.45307076 0.09057246 0.27955678
000330 e0 5e 26 3b 2f 33 95 3e f9 ba cc 3d f5 e9 0a 3f
       0.002538614 0.29140612 0.099966 0.5426324
000340 e0 fc 07 bf 49 d0 a0 3d a7 d3 0e bf e0 8d b6 3e
       -0.5312023 0.07852227 -0.55791706 0.35655117
000350 bc 79 08 3e 4e 53 1e be c1 a7 b9 be b9 15 00 3f
       0.13327688 -0.15461466 -0.362608 0.50033146
000360 2c 08 0c 3f 21 51 00 3f 92 e4 31 3e 64 8b 9d 3e
       0.5469997 0.5012379 0.17372349 0.3077041
000370 e5 a0 a6 be 53 2d 0b 3f cf b0 ab 3d 92 cf 5e 3e
       -0.32544628 0.54366034 0.08383333 0.2175887
000380 6e cf 56 3f 94 40 57 3f 4a 0a 94 be cc 62 80 bd
       0.8391026 0.84082913 -0.289141 -0.06268844
000390 d1 5e fb 3e f5 d3 1a bf f6 57 c6 3e b1 66 dc 3e
       0.49095777 -0.6047967 0.38738984 0.43047097
0003a0 1b a9 c8 bd b4 46 b8 be 54 ff 80 be 49 08 19 3e
       -0.09797879 -0.35991442 -0.251948 0.14944567
0003b0 89 a3 d6 3e e6 e7 f5 ba 85 5e fe 3e f5 0b e0 be
       0.41921642 -0.0018761128 0.49681488 -0.43759122
0003c0 8a 1d 43 be 23 0c af bd 3e 65 8d 3e 7a 69 11 3f
       -0.19054237 -0.08547237 0.27616304 0.5680157
0003d0 db 2a 96 3e 36 a3 17 3f 9b 06 3c 3d 6c c5 69 3f
       0.2932957 0.59233415 0.045904737 0.91316867
0003e0 c8 d7 2e be 85 b4 29 3f a2 03 1e 3f 59 4c 39 3e
       -0.17074502 0.66291076 0.61724293 0.1809553
0003f0 27 81 9a bd 0f 60 08 3f 13 4d 15 be e7 24 d0 3e
       -0.07544165 0.53271574 -0.14580183 0.40653154
