AF_GLOSA/models/model081401/10000/critic_model/critic.pkl (torch, 174927 bytes, 14 tensors)

l1.weight f4 [256, 6]
0	0x3e92673f	0.28594396
1	0xbc97ae5e	-0.018515762
2	0x3fd7a701	1.684784
3	0x3d8df694	0.06931797
4	0x3c1416d1	0.009038643
5	0x3e7e10b1	0.24811055
6	0xbe35a2be	-0.17737862
7	0x3ebfa74d	0.37432328
8	0x3e2464d3	0.16054086
9	0x3eb3bf5f	0.35106942
10	0xbdddd0e2	-0.10830857
11	0x3e9030b8	0.2816217
12	0xbf094227	-0.53616565
13	0x3da8b9a9	0.08238537
14	0xbbe854f6	-0.0070902063
15	0x3d57c931	0.052682105
16	0x3dc3f7be	0.095687374
17	0xbe5bb9f3	-0.21457653
18	0xbd9eb2a9	-0.077489205
19	0xbd1136db	-0.035452705
20	0xbd09d89b	-0.033653837
21	0x3f0007ca	0.50011885
22	0xbe6ec85a	-0.23318616
23	0x3e2e1f83	0.17004208
24	0xbf301d50	-0.6879473
25	0x3e383b66	0.17991409
26	0xbe1b86c1	-0.15188123
27	0x3df18c80	0.117943764
28	0xbde2f105	-0.11081127
29	0x3d57dd3f	0.05270123
30	0x3f039441	0.5139809
31	0xbd3981cf	-0.04528981
32	0x3d495af9	0.049159024
33	0xbdfaf2fe	-0.12253378
34	0x3e3b0d54	0.18266803
35	0x3e3e6322	0.18592504
36	0xbea80759	-0.32818106
37	0xbe0ca57f	-0.13735007
38	0x3db452c6	0.0880485
39	0x3ed95451	0.4244714
40	0xbe9374c6	-0.2880003
41	0x3da90809	0.08253486
42	0xbea91743	-0.3302556
43	0x3e9f9e6e	0.3117556
44	0x3dd023fe	0.10163115
45	0x3dd3b1c4	0.103366405
46	0x3e28d033	0.16485672
47	0xbce32a05	-0.027729997
48	0xbed911b6	-0.42396325
49	0x3e05d2a4	0.13068634
50	0xbde60687	-0.11231714
51	0x3e95891f	0.29206178
52	0xbe3fc69b	-0.18728106
53	0x3cb98e94	0.022650994
54	0x3e2e995e	0.17050692
55	0x3e7e211a	0.24817315
56	0xbe66380f	-0.22482322
57	0xbebb88f1	-0.36627916
58	0x3e921e37	0.28538677
59	0xbdbb3259	-0.091404624
60	0x3eed36e6	0.46330947
61	0x3e27b787	0.16378604
62	0x3cea689d	0.028614337
63	0x3dbf5e80	0.09344196
64	0xbf0a3ac0	-0.53995895
65	0x3ee28a8d	0.4424633
66	0x3ee4b4bc	0.4466914
67	0xbdb65c19	-0.08904285
68	0xbe133ce7	-0.14378701
69	0xbecf0d15	-0.40439668
70	0x3e82f2a9	0.2557576
71	0xbe08a645	-0.13344677
72	0xbd8a8463	-0.06763532
73	0x3f366d70	0.7126074
74	0xbe1e9ab5	-0.15488704
75	0x3ea9f8bb	0.3319758
76	0x3beb6988	0.007184211
77	0x3eab09e4	0.33405983
78	0xbf0eeadb	-0.5582711
79	0x3eb21779	0.34783533
80	0x3e02e4d3	0.12782602
81	0x3ea87905	0.3290483
82	0xbe742ed2	-0.23845986
83	0x3df11090	0.11770737
84	0xbf10a5dd	-0.5650309
85	0x3dfe3608	0.124126494
86	0x3dbbb0c5	0.091645755
87	0x3eb0a5d3	0.34501514
88	0xbe7aa829	-0.2447821
89	0xbd784d0a	-0.060620345
90	0xbf228eae	-0.6349896
91	0x3d85b930	0.06529462
92	0x3ddd1424	0.10794857
93	0x3ea8adc6	0.3294508
94	0xbe73eb35	-0.23820193
95	0xbca57f14	-0.020202197
96	0xbeedcee9	-0.46446922
97	0xbcab1cb6	-0.020887714
98	0x3df1cf75	0.118071474
99	0x3ed90e37	0.42393658
100	0xbe812b7d	-0.2522849
101	0x3de8f663	0.113751195
102	0xbeeaae45	-0.45836082
103	0xbd40c3ea	-0.04706184
104	0x3e7771d7	0.2416452
105	0x3ec0d406	0.3766176
106	0xbe75855b	-0.23976652
107	0x3d0060b8	0.03134224
108	0x3e0368b5	0.12832911
109	0x3ee35828	0.44403195
110	0xbe06429b	-0.13111345
111	0x3e2c4d3f	0.16826342
112	0x3dfeb925	0.12437657
113	0x3e4638df	0.19357632
114	0xbe08ee87	-0.13372241
115	0x3e999a26	0.30000418
116	0xbc92da7f	-0.017926453
117	0xbec561e0	-0.38551235
118	0x3e8ff3ff	0.28115842
119	0xbe319270	-0.17341018
120	0x3e544583	0.20729642
121	0xbe787527	-0.2426344
122	0x3e430b2a	0.19047228
123	0x3e66a6c0	0.22524548
124	0xbedcc6a7	-0.4312031
125	0x3f311c87	0.69184154
126	0xbf0e4163	-0.5556852
127	0xbd4a9da9	-0.049466763
128	0xbcd13b14	-0.025540866
129	0x3d1ea967	0.038735773
130	0x3e9687af	0.29400393
131	0xbebd49a2	-0.3697024
132	0xbd11d7b7	-0.035606112
133	0x3f6ca756	0.92442834
134	0xbe39dbc6	-0.18150243
135	0x3e60d7b7	0.21957289
136	0xbe9426e8	-0.28935933
137	0x3e839da0	0.25706196
138	0x3ea4b022	0.3216563
139	0xbe105cc7	-0.14097892
140	0xbf27d606	-0.6556095
141	0xbf00e933	-0.50355834
142	0x3e88e6a6	0.2673847
143	0xbe7598da	-0.2398409
144	0x3f0be5bb	0.54647416
145	0x3d0c494c	0.03424959
146	0x3d720a9c	0.05909215
147	0xbdf6c372	-0.12048997
148	0x3e02fd9d	0.12792058
149	0x3e344f37	0.17608343
150	0x3e90c6cf	0.2827668
151	0x3e5f29bd	0.21793266
152	0xbd8465ab	-0.06464704
153	0x3e860da5	0.26182285
154	0xbee2a969	-0.44269875
155	0x3f00ced3	0.5031559
156	0xbe136873	-0.14395313
157	0x3f26e905	0.6519931
158	0x3e05475c	0.13015503
159	0x3e49c875	0.19705375
160	0xbe804f0c	-0.25060308
161	0xbc78882a	-0.015169183
162	0x3f1efe80	0.62107086
163	0xbdd4f4b8	-0.10398239
164	0x3ce5c8f1	0.028049918
165	0xbe0a3355	-0.13496144
166	0x3bd0d7d4	0.006373385
167	0x3df3a864	0.11897352
168	0xbf1d1bc1	-0.61370474
169	0x3bb749fe	0.0055935374
170	0xbd9cc522	-0.076547876
171	0xbdcb0caa	-0.09914525
172	0x3e32a89c	0.17447132
173	0xbeb88ce7	-0.36045
174	0xbf13e6ea	-0.5777422
175	0xbdfa1654	-0.1221129
176	0xbd7c5bd5	-0.061611015
177	0xbda2ddc6	-0.07952456
178	0x3e98012f	0.29688403
179	0xbee7bfc2	-0.45263487
180	0xbe35eb2c	-0.17765492
181	0xbe5cd06d	-0.21563883
182	0xbe8c18cd	-0.27362671
183	0x3e4df469	0.20112766
184	0xbe7623c4	-0.24037081
185	0xbe52eea0	-0.2059884
186	0xbb064d95	-0.002049302
187	0x3f2356f2	0.63804543
188	0x3bd53223	0.006506221
189	0xbcc235be	-0.023707267
190	0xbe97c694	-0.2964369
191	0x3d1a652d	0.037694145
192	0xbf3fce5c	-0.74924254
193	0x3e111713	0.14168958
194	0xbebd86d9	-0.37016943
195	0xbdcbfb80	-0.09960079
196	0xbe624ecc	-0.22100371
197	0x3db086d1	0.08619464
198	0xbed000c2	-0.40625578
199	0x3f15dc84	0.58539605
200	0xbe848f0f	-0.25890395
201	0xbdad05d2	-0.08448376
202	0xbca82d49	-0.020529406
203	0xbece1f62	-0.40258318
204	0xbc87c13b	-0.016571632
205	0xbde12d05	-0.10994915
206	0x3e23f757	0.16012321
207	0xbee00155	-0.43751016
208	0xbd51d490	-0.051228106
209	0xbd6c73b8	-0.057727545
210	0x3ef67596	0.48136586
211	0x3e0bb398	0.13642728
212	0xbd31e33c	-0.0434296
213	0xbcbc6a58	-0.022999927
214	0xbef26d29	-0.47348908
215	0x3eb6f8e7	0.35736772
216	0x3ed19a89	0.40938213
217	0x3d408a6d	0.047007013
218	0x3c2ae0b0	0.010429546
219	0x3de64f08	0.11245543
220	0xbe221e30	-0.15831828
221	0x3f04a6b4	0.5181687
222	0xbf0d3cea	-0.5517107
223	0x3e9a4851	0.30133298
224	0x3f0e394b	0.5555617
225	0x3e9582d2	0.2920137
226	0xbe90a454	-0.28250372
227	0x3d988dc4	0.07448915
228	0x3f1a9a8e	0.6039208
229	0xbddb71e5	-0.10715083
230	0x3d727087	0.059189346
231	0xbe4eb0da	-0.20184651
232	0x3d9f32ec	0.077733845
233	0x3d3de954	0.046365097
234	0xbee29584	-0.44254696
235	0x3e519ae0	0.20469236
236	0x3efbcb3c	0.49178493
237	0x3ed6184f	0.4181542
238	0xbe9c685f	-0.3054838
239	0x3e6b7654	0.22994357
240	0xbef32177	-0.4748647
241	0xbb84f2f3	-0.004057282
242	0x3e173272	0.14765337
243	0xbe1246ee	-0.1428487
244	0x3ea1d199	0.31605223
245	0xbeef2cab	-0.46713766
246	0x3f010e3c	0.50412345
247	0x3da00cc1	0.078149326
248	0xbc6f6b3e	-0.014612971
249	0xbe195e28	-0.14977324
250	0x3db230f6	0.08700745
251	0x3e962f4e	0.29332966
252	0x3f13e1e6	0.5776657
253	0xbd9779b0	-0.07396257
254	0xbf0879c1	-0.5331078
255	0xbece2600	-0.40263367

l1.bias f4 [256]
0	0x3f0ab352	0.5417987
1	0xbe7d5fc0	-0.24743557
2	0xbec17ee9	-0.37792137
3	0xbedbbff8	-0.42919898
4	0xbdbc8f90	-0.0920707
5	0x3f1c6eab	0.61106366
6	0xbef254e1	-0.47330382
7	0xbd2b693a	-0.0418484
8	0xbf080011	-0.531251
9	0x3f105fd4	0.5639622
10	0x3e84e6ba	0.2595728
11	0x3ecc399f	0.3988771
12	0xbaac8521	-0.0013162234
13	0xbec9b2a0	-0.39394093
14	0xbef2ca85	-0.47420135
15	0xbee5d89e	-0.44891828
16	0xbf056dc4	-0.52120614
17	0xbf05bccc	-0.52241206
18	0x3f055d79	0.5209575
19	0x3e7905a6	0.24318561
20	0x3ec1a3a1	0.3782015
21	0xbed59527	-0.41715357
22	0xbdfa8bfa	-0.1223373
23	0x3ea5056e	0.32230705
24	0x3f0a7b05	0.5409396
25	0xbbf317e6	-0.0074186204
26	0xbe895c0d	-0.26828042
27	0x3ebc61a5	0.36793247
28	0xbef21605	-0.47282425
29	0xbec1d865	-0.37860408
30	0xbf38ffa5	-0.7226508
31	0xbef5b7cc	-0.47991788
32	0x3b8588cf	0.0040751467
33	0xbe99e55a	-0.30057794
34	0x3e838669	0.25688484
35	0x3e05dc22	0.13072255
36	0x3ef5816f	0.47950312
37	0xbea360d6	-0.31909817
38	0x3eec8ac3	0.46199617
39	0xbed8e8ac	-0.42365015
40	0xbe9cc16c	-0.3061632
41	0x3f0ecdba	0.55782664
42	0x3e8d994e	0.27656025
43	0x3ebb34a7	0.36563608
44	0xbf214e3a	-0.6300999
45	0x3d1cd42a	0.038288273
46	0x3f0658af	0.5247907
47	0x3f140011	0.578126
48	0xbf0225b7	-0.508388
49	0xbe98bc84	-0.29831326
50	0x3ef7f6e5	0.48430553
51	0x3e36ec9f	0.17863701
52	0xbedcc2bf	-0.4311733
53	0x3f26ce04	0.65158105
54	0x3ef59aa0	0.47969532
55	0xbe69f04c	-0.22845572
56	0xbf0a5c4e	-0.54047096
57	0x3f07c43d	0.5303381
58	0xbec22126	-0.37915915
59	0x3e7355ac	0.2376315
60	0xbd990661	-0.0747192
61	0xbebbb459	-0.36661032
62	0x3db42a3a	0.087971166
63	0x3ebab1bb	0.36463723
64	0xbe9d6d36	-0.30747384
65	0x3d88b787	0.0667563
66	0xbf11cef9	-0.5695644
67	0x3f1a42f5	0.6025842
68	0x3e9284b4	0.2861687
69	0xbf3e32b0	-0.74296093
70	0x3c9b8144	0.018982537
71	0x3e8656b3	0.2623802
72	0x3e66aa9e	0.22526023
73	0xbeaef599	-0.3417175
74	0xbf3d7aee	-0.740157
75	0xbf273ffe	-0.6533202
76	0xbe9a579f	-0.30144975
77	0x3ebf1b78	0.37325644
78	0xbf204e4e	-0.62619483
79	0xbe0bfd86	-0.1367093
80	0x3f2a6d9f	0.6657352
81	0xbf401d6b	-0.7504489
82	0x3e50003a	0.20312586
83	0xbe952dd6	-0.29136533
84	0xbe09d18e	-0.13458845
85	0x3ec3a8e6	0.38214797
86	0xbee07966	-0.4384262
87	0x3eca74ed	0.39542332
88	0x3e43438a	0.19068733
89	0xbf17122f	-0.5901212
90	0xbf31a965	-0.693991
91	0xbe041eb9	-0.12902345
92	0xbe604222	-0.21900228
93	0xbebf5f74	-0.37377512
94	0xbf07749b	-0.529123
95	0x3f2c8de8	0.6740403
96	0x3ed29844	0.41131794
97	0x3ee525b9	0.44755343
98	0xbd78c6f7	-0.060736623
99	0xbee7e5da	-0.4529255
100	0x3d4959d8	0.049157947
101	0xbf0c091b	-0.54701394
102	0xbe33b200	-0.1754837
103	0xbe02e58b	-0.12782876
104	0xbe560b1b	-0.20902674
105	0xbe8b17e3	-0.27166662
106	0xbf169534	-0.58821416
107	0x3ef83511	0.48477986
108	0x3e8c2f81	0.27379993
109	0x3e2d15e0	0.16902876
110	0xbe2c829d	-0.168467
111	0xbec381be	-0.38184923
112	0xbf0a2874	-0.53967977
113	0xbeca45d3	-0.39506397
114	0x3e26de71	0.16295792
115	0x3ec6e2a0	0.38844776
116	0xbe1f8934	-0.15579683
117	0xbf34e5de	-0.7066325
118	0xbf071be0	-0.5277691
119	0x3f320521	0.69539076
120	0xbf0a7c83	-0.5409624
121	0xbe316f98	-0.17327726
122	0x3f05dcc4	0.52289987
123	0x3e637f86	0.22216615
124	0xbee91da6	-0.45530432
125	0xbe4301cd	-0.19043656
126	0x3ca1f237	0.019768817
127	0xbdb031b2	-0.08603229
128	0x3efd523a	0.49476796
129	0x3edb2f87	0.42809698
130	0xbecba7b6	-0.3977639
131	0x3f1ccce6	0.6125015
132	0x3f41d9c7	0.75722927
133	0xbea50f72	-0.32238346
134	0xbe8ca797	-0.2747161
135	0xbd50f5ab	-0.051015537
136	0x3e3219b7	0.17392622
137	0xbf133aa5	-0.5751136
138	0x3dca3b77	0.09874623
139	0x3c10007d	0.008789179
140	0x3f23d198	0.6399169
141	0xbf304b94	-0.68865323
142	0xbe93ded9	-0.28880957
143	0xbec7d983	-0.39033136
144	0xbeab9ab9	-0.33516482
145	0xbe884a0f	-0.26619002
146	0xbd4e370f	-0.050345477
147	0x3ec3fe1b	0.38279805
148	0x3ea6e816	0.32598943
149	0xbecee9c6	-0.4041273
150	0x3e54deac	0.20788068
151	0xbecb6d43	-0.39731798
152	0xbd881740	-0.066450596
153	0xbf1bb047	-0.6081585
154	0x3dedbe46	0.116085574
155	0x3ed1b1c7	0.40955946
156	0x3f0e8266	0.5566772
157	0x3eb74a8a	0.35799056
158	0x3eac4a12	0.3365026
159	0x3ef34623	0.47514448
160	0xbe6e7124	-0.23285347
161	0xbe5e4e2f	-0.21709512
162	0xbca7c050	-0.020477444
163	0x3e405856	0.18783697
164	0xbf17eb46	-0.59343374
165	0xbde3c9d2	-0.111224785
166	0xbdfe5f77	-0.12420552
167	0x3ea4251c	0.32059562
168	0xbe5576c5	-0.20846088
169	0xbeed3c6c	-0.4633516
170	0x3eaa2f43	0.33239183
171	0x3e753592	0.23946217
172	0xbf068663	-0.5254881
173	0x3e496d16	0.19670519
174	0x3e0c07af	0.13674806
175	0xbe89d603	-0.2692109
176	0xbde13e65	-0.10998229
177	0xbf18b8a0	-0.59656715
178	0xbd86a07c	-0.06573579
179	0xbdb76114	-0.08954063
180	0x3efd376b	0.49456343
181	0x3dd5afe6	0.104339406
182	0xbe682709	-0.2267114
183	0x3f1e868a	0.6192404
184	0xbe48d083	-0.19610791
185	0xbf1ee0f1	-0.62061983
186	0xbf1a313f	-0.60231394
187	0x3e147000	0.1449585
188	0xbec5337f	-0.3851585
189	0xbeb1b2dc	-0.3470677
190	0x3e96b64c	0.29435956
191	0x3cc7aef9	0.024375426
192	0xbecd4bf0	-0.40096998
193	0xbf0a1e3d	-0.5395239
194	0x3e81725e	0.25282568
195	0xbf520504	-0.82038903
196	0x3f0ad125	0.5422538
197	0x3f06effc	0.5270994
198	0xbeb3bab6	-0.35103387
199	0x3eafdc35	0.34347692
200	0xbee513f5	-0.44741789
201	0xbe8a9da3	-0.27073392
202	0xbe9a9552	-0.30192047
203	0x3f243c2f	0.6415433
204	0xbe350224	-0.17676598
205	0xbf2852c2	-0.6575128
206	0x3f41413e	0.75490177
207	0x3eff25a0	0.49833393
208	0xbe933b69	-0.28756264
209	0x3d8837a4	0.066512376
210	0xbd8243b0	-0.063605666
211	0x3eefd9fc	0.46845996
212	0xbc035ec9	-0.008018204
213	0xbf0b46cd	-0.5440491
214	0x3c53b694	0.012921948
215	0x3e30a5d8	0.17250764
216	0x3f142c01	0.57879645
217	0x3d56d938	0.05245325
218	0xbd2fb61a	-0.042898275
219	0x3f0c86cf	0.548932
220	0xbee1d439	-0.44107226
221	0x3ee4937c	0.44643772
222	0xbf432269	-0.7622438
223	0x3f05a467	0.52203983
224	0x3eb2b8ab	0.34906515
225	0x3ea6c391	0.3257108
226	0xbeb84088	-0.35986733
227	0xbef3aa24	-0.47590744
228	0x3f1bb562	0.60823643
229	0x3e4c413f	0.19946764
230	0x3e5cff9a	0.2158188
231	0x3f1ae08b	0.60498875
232	0xbf21bb36	-0.63176286
233	0xbecaf755	-0.39641824
234	0xbd96419f	-0.07336735
235	0x3eb6841b	0.35647663
236	0x3f3b3cc4	0.73139596
237	0xbdcf8b25	-0.101339616
238	0x3eab5153	0.33460483
239	0xbe175e66	-0.14782104
240	0xbebff173	-0.374889
241	0xbedcfb07	-0.4316027
242	0xbe955a76	-0.2917058
243	0x3f20e6d6	0.6285223
244	0xbd99d0b9	-0.07510514
245	0x3f145a00	0.5794983
246	0x3e08bd94	0.13353568
247	0x3e8e8a16	0.27839726
248	0xbf02a834	-0.5103791
249	0x3f05dda5	0.5229133
250	0x3f4d18c1	0.80115896
251	0xbde99d8b	-0.11407002
252	0x3dcb266b	0.09919437
253	0xbe54ed58	-0.20793664
254	0x3dd80d62	0.105494276
255	0x3f0cfe9c	0.55076003

l2.weight f4 [128, 256]
0	0xbf0c6665	-0.5484374
1	0xbdeff58f	-0.117167585
2	0xbdcc5a9f	-0.09978222
3	0xbe9aa2ad	-0.30202237
4	0xbe7d0ec8	-0.2471267
5	0x3dcdfdcf	0.10058176
6	0xbeb3971e	-0.3507623
7	0x3dbd99a3	0.092578195
8	0xbe9aa4bb	-0.30203804
9	0x3e69ef9a	0.22845307
10	0xbe81c50c	-0.25345647
11	0x3f2e76c9	0.6815
12	0xbd96cd0b	-0.073633276
13	0xbf21c40c	-0.6318977
14	0xbf5f7965	-0.8729461
15	0xbf85f37e	-1.0464933
16	0xbeaa1cab	-0.33224997
17	0xbeed4c65	-0.46347347
18	0xbd3a2b37	-0.04545137
19	0x3e5a71ec	0.2133252
20	0xbe894d0f	-0.26816604
21	0xbdfd3daa	-0.12365277
22	0xbe2a8c7b	-0.16655152
23	0x3f75f5e6	0.96078336
24	0xbd978989	-0.073992796
25	0xbd907ed2	-0.07055439
26	0xbe91d3e0	-0.2848196
27	0x3e5ae232	0.21375349
28	0x3e68d822	0.22738698
29	0x3e7da75d	0.24770875
30	0x3e3f2c8f	0.18669342
31	0x3e16894b	0.1470081
32	0xbdc26cbd	-0.094933964
33	0xbdb28838	-0.08717388
34	0x3def6c08	0.11690527
35	0xbe03d7ea	-0.12875333
36	0xbe693e29	-0.22777618
37	0xbf2bd9c1	-0.6712914
38	0x3ec445c0	0.38334465
39	0xbf45580c	-0.77087474
40	0xbc993b2f	-0.018704979
41	0xbd777f62	-0.060424216
42	0x3f7e2fc5	0.9929164
43	0xbe83493e	-0.25641817
44	0xbe981ca2	-0.29709345
45	0x3dd98f6a	0.10623057
46	0x3d521593	0.051290106
47	0x3da9d224	0.08292034
48	0xbf12e81a	-0.5738541
49	0xbd6d26e9	-0.057898436
50	0xbddac55b	-0.10682174
51	0x3d45f88c	0.048332736
52	0xbf8c92c8	-1.0982294
53	0xbe8b971b	-0.27263722
54	0xbec53bbf	-0.38522145
55	0xbed1fc45	-0.4101278
56	0x3c02e550	0.007989243
57	0x3e59718b	0.2123472
58	0xbf989f0a	-1.1923535
59	0x3efe3a0b	0.49653658
60	0xbdf53c54	-0.11974397
61	0xbe69ead5	-0.22843488
62	0x3e389acf	0.18027805
63	0xbd241744	-0.04006125
64	0xbe5f4d3a	-0.21806803
65	0xbf086a39	-0.5328708
66	0xbccad7b5	-0.02476106
67	0xbe505506	-0.20344934
68	0xbe41d37f	-0.18928336
69	0x3ed7bfec	0.42138612
70	0x3e461a6c	0.19346017
71	0xbeee857a	-0.4658621
72	0x3e06fd63	0.13182597
73	0xbf102b3d	-0.56315976
74	0xbcf42d9b	-0.029806903
75	0x3e1d4bbe	0.15360925
76	0xbf3012de	-0.6877879
77	0x3f558de1	0.83419615
78	0xbe0919a8	-0.13388693
79	0x3dda0cb5	0.10646955
80	0x3e7fc253	0.24976473
81	0x3da5f471	0.08103264
82	0x3f53c6f4	0.82725453
83	0xbec15d8a	-0.37766677
84	0x3ef00e3f	0.4688587
85	0xbd3ff1d0	-0.04686147
86	0xbe8f2dd7	-0.2796466
87	0xbd67a42b	-0.056553047
88	0x3e2801f3	0.16406994
89	0x3e15cdec	0.14629334
90	0x3e6a1996	0.22861323
91	0xbd94f98c	-0.0727416
92	0xbef8b473	-0.48575172
93	0x3e497202	0.19672397
94	0x3db0ab43	0.086264156
95	0x3da19cf4	0.078912646
96	0x3e637084	0.2221089
97	0x3eaaab9e	0.3333406
98	0x3ea9ae90	0.33140993
99	0xbec16c62	-0.37778002
100	0x3d77c814	0.060493544
101	0xbe9add95	-0.3024718
102	0x3e356174	0.17712957
103	0x3e1340ff	0.14380263
104	0xbe4c0e48	-0.19927323
105	0xbe9ee189	-0.31031445
106	0xbf06fe85	-0.52732116
107	0x3e45df78	0.19323528
108	0x3f2e9962	0.68202794
109	0x3ecc9033	0.39953765
110	0x3e95a93f	0.29230687
111	0xbe9ea741	-0.3098698
112	0xbe260866	-0.16214141
113	0xbbd84046	-0.006599459
114	0xbc790ee5	-0.015201305
115	0x3f30f403	0.6912233
116	0xbc907534	-0.017634012
117	0x3e43ccbc	0.19121069
118	0xbd189fb1	-0.03726167
119	0x3d96f429	0.073707886
120	0xbeb51433	-0.35366973
121	0x3d5642db	0.052309852
122	0xbe389ef0	-0.1802938
123	0xbea259f4	-0.31709254
124	0x3db58208	0.08862692
125	0xbf05bd86	-0.52242315
126	0xbe740113	-0.23828535
127	0x3b7b3cb9	0.0038335754
128	0xbdb2db21	-0.08733202
129	0x3e029f57	0.12756096
130	0xbd924c91	-0.0714351
131	0xbe801428	-0.25015378
132	0x3dd0f7db	0.10203525
133	0xbf2138a2	-0.6297704
134	0xbe878d3e	-0.26474947
135	0x3e709379	0.23493756
136	0xbd28bc14	-0.04119499
137	0xbd683352	-0.056689568
138	0xbceb076c	-0.028690062
139	0xbba061cc	-0.004894471
140	0x3e3d7626	0.18502101
141	0xbe4407ab	-0.1914355
142	0x3db42d1c	0.087976664
143	0xbe03efa8	-0.1288439
144	0x3dce7b3a	0.10082097
145	0xbf142c72	-0.5788032
146	0x3daa73bd	0.083228566
147	0xbe3813e1	-0.17976333
148	0xbe1fe6a2	-0.15615323
149	0x3b195a72	0.0023399857
150	0xbe331b91	-0.17490984
151	0xbe91710f	-0.2840657
152	0x3ef2a12d	0.47388592
153	0x3c8698d4	0.016430296
154	0xbb73110c	-0.0037089018
155	0xbdfe1b1d	-0.12407515
156	0x3e7e46fa	0.24831763
157	0x3c8535d6	0.016261023
158	0x3dad0bd0	0.08449519
159	0xbe71113f	-0.23541735
160	0xbe573637	-0.21016775
161	0x3eb9be75	0.3627812
162	0xbe965f0c	-0.2936939
163	0xbda5233d	-0.08063362
164	0xbe17eacb	-0.1483566
165	0xbde35859	-0.11100835
166	0x3e4f75aa	0.20259729
167	0x3f458d27	0.77168506
168	0x3e68f6ad	0.2275035
169	0xbeb8c659	-0.36088827
170	0x3ec0d053	0.3765894
171	0x3e0f3d06	0.13988122
172	0x3e00c180	0.12573814
173	0x3eba4b79	0.36385706
174	0xbebf90b3	-0.37415084
175	0xbe755a42	-0.23960212
176	0x3eafa5df	0.34306237
177	0xbcb25e30	-0.021773428
178	0xbe934955	-0.28766885
179	0xbd08595b	-0.03328834
180	0x3d806e8d	0.06271086
181	0xbeb2f258	-0.3495052
182	0xbe021dbb	-0.12706654
183	0x3e89e0c8	0.26929307
184	0x3e8b6a38	0.27229476
185	0xbd7745e6	-0.060369395
186	0x3de99221	0.11404825
187	0xbdad1606	-0.08451466
188	0xbee34a36	-0.44392556
189	0xbe166da7	-0.14690267
190	0x3e4a0f68	0.1973244
191	0xbd84c51e	-0.064829096
192	0xbef09876	-0.46991318
193	0x3c9b5d16	0.018965285
194	0xbe12fe2d	-0.14354773
195	0x3e3f1af8	0.18662632
196	0x3c4157ea	0.0118007455
197	0xbda9e91a	-0.08296414
198	0xbf196850	-0.59924793
199	0x3e07880d	0.13235493
200	0x3e24d062	0.16095117
201	0x3d171eee	0.03689473
202	0xbf095bbb	-0.53655595
203	0xbdad66ca	-0.08466871
204	0xbe2732f7	-0.16328035
205	0xbd51e5db	-0.051244598
206	0xbe2082f6	-0.15674958
207	0x3f4e3d03	0.80561846
208	0xbe9739f8	-0.29536414
209	0xbed6e325	-0.41970173
210	0x3e2ee9b1	0.17081334
211	0x3e445437	0.1917275
212	0xbd8cfae4	-0.06883791
213	0x3dcc34e1	0.09971023
214	0xbc63c7b0	-0.01390259
215	0xbc0aadb5	-0.008464267
216	0x3ec04d58	0.3755901
217	0xbe9d609e	-0.30737776
218	0x3debb3bf	0.11508893
219	0x3de98896	0.11403005
220	0xbe85f5de	-0.26164144
221	0x3ec38fa9	0.38195542
222	0x3d7f2f99	0.062301252
223	0x3e982861	0.29718307
224	0x3dad7ae8	0.08470708
225	0xbd7d9697	-0.06191119
226	0xbe897c8e	-0.2685284
227	0xbd72ab08	-0.05924514
228	0xbbe89e64	-0.0070989598
229	0xbe11db02	-0.14243701
230	0x3e236f35	0.15960391
231	0xbdccd4a5	-0.10001496
232	0x3dc3672a	0.09541161
233	0xbeeefdb0	-0.46677923
234	0xbefad97f	-0.4899406
235	0xbe678799	-0.2261032
236	0x3b718e44	0.0036858479
237	0x3e87aee9	0.26500633
238	0x3e9514d6	0.2911746
239	0x3d07d8fb	0.033165913
240	0xbe98170a	-0.29705077
241	0xbf28832f	-0.6582517
242	0xbdb21eee	-0.086973056
243	0x3ec68f86	0.38781375
244	0x3e2d7309	0.16938414
245	0xbe56da9c	-0.2098183
246	0x3f5e98ac	0.8695171
247	0x3e03e5a7	0.12880574
248	0xbd76b3a9	-0.06022993
249	0xbd39eba0	-0.045390725
250	0xbe0c42f6	-0.13697419
251	0xbe19c2f3	-0.15015773
252	0x3f175e3b	0.5912816
253	0x3dae861a	0.085216716
254	0xbc8152b0	-0.015786499
255	0xbe9524e7	-0.29129717

l2.bias f4 [128]
0	0x3e1da1c7	0.15393744
1	0xbe6316ba	-0.22176638
2	0x3e44d047	0.19220077
3	0x3efc39ec	0.4926294
4	0xbde2412a	-0.11047585
5	0xbea6508c	-0.32483327
6	0xbf256cf1	-0.64619356
7	0xbebe14f9	-0.37125376
8	0xbec8657c	-0.39139926
9	0xbe5c7302	-0.21528247
10	0xbe0f10c9	-0.13971247
11	0x3e07d306	0.13264093
12	0xbe70f1e3	-0.23529772
13	0x3dfc14c4	0.12308648
14	0x3f2e1899	0.68006283
15	0x3e9343d1	0.28762677
16	0xbe041317	-0.12897907
17	0xbec6df3f	-0.38842198
18	0xbe2be3b0	-0.16786075
19	0x3e4a3576	0.19746956
20	0x3f0f48c8	0.5597043
21	0x3e72ec73	0.2372301
22	0xbeb2710d	-0.34851876
23	0xbdf1bcc8	-0.11803585
24	0xbed158ab	-0.4088796
25	0xbea11747	-0.31463072
26	0xbbc048f9	-0.005868074
27	0xbd6dfade	-0.058100574
28	0x3ea2983c	0.3175677
29	0xbf27a480	-0.6548538
30	0x3c3795aa	0.011205116
31	0xbdff007b	-0.124512635
32	0xbec1c286	-0.37843722
33	0xbec29b8c	-0.38009298
34	0x3d7f9d02	0.062405594
35	0xbe0911f8	-0.13385761
36	0x3e4b91b7	0.19879805
37	0x3d3813a0	0.04494059
38	0xbe7ac589	-0.24489416
39	0xbe8af066	-0.27136534
40	0x3f14f0bf	0.5817985
41	0xbea12a03	-0.31477365
42	0xbd9cf7aa	-0.07664426
43	0xbe9ee320	-0.31032658
44	0x3b554f21	0.0032548385
45	0x3ed9c0a9	0.425298
46	0x3e35372e	0.1769683
47	0xbdadb644	-0.0848203
48	0xbba502da	-0.0050357403
49	0x3e93765f	0.28801247
50	0xbc40b8ed	-0.01176284
51	0xbec24d98	-0.37949824
52	0x3daaa1c8	0.083316386
53	0x3e8cd4aa	0.27506
54	0xbf03d1d9	-0.5149208
55	0xbca533f9	-0.020166384
56	0x3ec79802	0.3898316
57	0xbd383455	-0.044971783
58	0xbda43c5d	-0.08019326
59	0xbd7f02de	-0.062258594
60	0x3de58481	0.11206914
61	0xbb6437c7	-0.0034823285
62	0x3dc14ee0	0.09438872
63	0xbe8b7487	-0.2723734
64	0x3e4decd2	0.20109871
65	0xbe1a3a82	-0.15061381
66	0x3c80b67e	0.015712019
67	0xbe4222f8	-0.18958652
68	0x3dd61b96	0.1045448
69	0x3e89bd14	0.26902068
70	0x3d2b4a90	0.041819155
71	0xbee059ef	-0.43818614
72	0xbd346ef2	-0.04405112
73	0x3e570a8e	0.2100012
74	0x3b4a9ccd	0.0030916214
75	0xbe562f93	-0.20916586
76	0x3c98df4e	0.018661167
77	0xbe678be1	-0.22611953
78	0xbe652ff0	-0.22381568
79	0x3e1f3dab	0.15550868
80	0x3d89b9b9	0.06724877
81	0x3e56e465	0.20985563
82	0xbe16ad41	-0.14714529
83	0xbd1651b4	-0.036699012
84	0x3e544271	0.2072847
85	0xbce952b5	-0.02848182
86	0x3e93143d	0.28726378
87	0xbd7b6570	-0.061376035
88	0x3ee4be0f	0.44676253
89	0xbda6b42f	-0.08139836
90	0x3dc5bc1a	0.09655018
91	0x3e279798	0.16366422
92	0x3aad692c	0.0013230196
93	0x3d9a3d26	0.075311944
94	0x3e31706b	0.1732804
95	0xbe9c77a2	-0.30560023
96	0x3e0f3e4d	0.1398861
97	0x3eb5e417	0.3552558
98	0xbec67b30	-0.3876586
99	0x3e4df480	0.201128
100	0xbdf60e5d	-0.12014458
101	0xbd385500	-0.045002937
102	0xbcd156e0	-0.02555412
103	0xbe576ddf	-0.21038006
104	0xbde5bf49	-0.112181254
105	0x3e14e1c9	0.14539255
106	0x3e5be5ba	0.21474352
107	0xbe42c628	-0.19020903
108	0xbde4256d	-0.11139951
109	0x3e73ebf6	0.2382048
110	0xbe74d34e	-0.23908731
111	0xbdb0ebfb	-0.0863876
112	0x3de8d8c0	0.11369467
113	0xbe0343bd	-0.12818809
114	0x3e2b452b	0.16725604
115	0xbe706a8d	-0.23478146
116	0xbe054b98	-0.13017118
117	0xbe37a189	-0.17932715
118	0xbde3012d	-0.11084209
119	0x3d529100	0.051407814
120	0x3e8c9f54	0.27465308
121	0x3e0501af	0.12988923
122	0xbddf8baf	-0.109153144
123	0xbdec2e44	-0.11532262
124	0xbe7af894	-0.24508888
125	0x3dec3267	0.11533051
126	0xbf048081	-0.5175858
127	0xbe0ce4e7	-0.13759194

l3.weight f4 [64, 128]
0	0x3d3bbb16	0.045832716
1	0x3ef6bde1	0.4819174
2	0x3e48187f	0.19540595
3	0x3e385c30	0.18003917
4	0x3e69bf72	0.22826937
5	0x3bd35865	0.0064497464
6	0x3d8b10a9	0.06790287
7	0xbec0b3ec	-0.3763727
8	0xbe1bfc57	-0.15232979
9	0xbe906999	-0.28205565
10	0xbe2e02c5	-0.16993244
11	0xbeec4fb6	-0.46154565
12	0xbe09d77f	-0.13461111
13	0xbb58e1d4	-0.0033093588
14	0xbd7c07f9	-0.06153104
15	0x3d25b531	0.040456
16	0x3e4e42a4	0.20142609
17	0x3dae73b8	0.08518165
18	0xbdcb8f41	-0.09939433
19	0xbd57544e	-0.052570634
20	0x3cdfd2fc	0.027322285
21	0x3e59b35f	0.21259831
22	0x3e1d1ee7	0.1534382
23	0xbea493c7	-0.32143995
24	0x3d087f7d	0.033324707
25	0xbe8c8b86	-0.27450198
26	0xbe3c570c	-0.18392581
27	0xbdb6ec9e	-0.0893185
28	0xbec681f3	-0.38771018
29	0xbc450e68	-0.0120273605
30	0x3ebf6afb	0.37386307
31	0x3da38394	0.07984081
32	0x3e40c8c8	0.18826592
33	0x3ebeb397	0.3724639
34	0x3e647c6e	0.22313091
35	0xbf0cb898	-0.5496917
36	0xbf40b7ef	-0.7528066
37	0xbdc59e1f	-0.096493
38	0x3e16c2e8	0.14722788
39	0xbe1ab60a	-0.15108505
40	0x3b620bfb	0.0034492004
41	0xbf4e24d3	-0.8052494
42	0xbe235507	-0.15950404
43	0xbd565753	-0.052329373
44	0x3e3ff516	0.18745837
45	0xbbd1d2c3	-0.0064032986
46	0xbe394366	-0.18092117
47	0x3d5cde80	0.05392313
48	0xbee3ab41	-0.44466594
49	0x3dce6f00	0.10079765
50	0xbecb751b	-0.39737782
51	0x3d8aebda	0.06783266
52	0xbe4abf12	-0.1979945
53	0xbd92f7a4	-0.0717614
54	0xbe8f4d7d	-0.27988806
55	0xbf1b98f5	-0.6078027
56	0x3e1f8809	0.15579237
57	0x3e3bab46	0.18327054
58	0x3e7fa44b	0.24965017
59	0x3e8f4d98	0.27988887
60	0x3e16b1a9	0.1471621
61	0xbef18e4c	-0.47178876
62	0x3de50fed	0.11184678
63	0x3ebab4e5	0.36466137
64	0xbe052051	-0.13000609
65	0x3f05e81e	0.5230731
66	0x3ecdbff1	0.40185502
67	0x3e20ade6	0.15691337
68	0x3e844e29	0.2584088
69	0xbc821628	-0.015879706
70	0x3dfc09db	0.12306567
71	0xbe3f66d1	-0.18691565
72	0x3f39f1dc	0.72634673
73	0x3c74212a	0.014900485
74	0x3e82a5ef	0.25517222
75	0x3d9ccd28	0.07656318
76	0xbd70b081	-0.058762077
77	0xbe49a5eb	-0.19692199
78	0x3e0fa290	0.14026856
79	0x3e6142e0	0.21998167
80	0x3e37b4be	0.17940041
81	0xbe9bdf98	-0.30444026
82	0xbe9dfc2c	-0.30856454
83	0x3ead0176	0.33790177
84	0x3ebeffe8	0.37304616
85	0xbf006c05	-0.50164825
86	0xbdcc3a88	-0.099721014
87	0x3e3fc586	0.18727693
88	0xbd8fad80	-0.070155144
89	0xbeee96f7	-0.46599552
90	0x3f005adc	0.5013864
91	0x3f0bc90a	0.54603636
92	0x3f269e30	0.65085125
93	0x3d4fb317	0.050707903
94	0x3df00d2e	0.11721264
95	0x3df2777b	0.11839195
96	0x3d249226	0.04017844
97	0xbd969e2e	-0.07354389
98	0xbe7c32eb	-0.24628799
99	0x3ea9bd9f	0.33152482
100	0x3e84a386	0.25906008
101	0x3e92bc1a	0.28659135
102	0x3e250994	0.16116935
103	0xbe11d74f	-0.1424229
104	0x3c9030a2	0.017601315
105	0x3ed1bbb6	0.40963525
106	0xbe0e5f5d	-0.13903566
107	0xbec01339	-0.37514666
108	0xbe65cb5f	-0.22440861
109	0x3e802baf	0.25033328
110	0xbe96274b	-0.29326853
111	0x3d41f065	0.0473484
112	0x3e4bf793	0.19918661
113	0x3dc80379	0.09766287
114	0x3db80698	0.08985633
115	0xbdb9d8c8	-0.09074551
116	0xbed48f3d	-0.41515532
117	0xbe114a47	-0.14188491
118	0x3cf83e6f	0.030303208
119	0x3ed927e3	0.42413244
120	0x3e824cc4	0.25449193
121	0xbe18f0be	-0.14935586
122	0x3dfe0ae5	0.12404422
123	0x3f05cc82	0.5226518
124	0xbeabf19f	-0.3358278
125	0xbe984fa4	-0.2974826
126	0x3dc42ad4	0.09578481
127	0xbdaf8fcb	-0.08572348
128	0xbf051c31	-0.5199614
129	0xbdffd10d	-0.12491045
130	0xbf6f917b	-0.9358136
131	0x3ea913ec	0.33023012
132	0x3da107b9	0.07862801
133	0x3f022b9c	0.5084779
134	0xbe061ed6	-0.130977
135	0xbeede221	-0.46461585
136	0x3efbae53	0.49156436
137	0xbed0ef0c	-0.40807378
138	0x3e8d3e69	0.27586678
139	0x3e537671	0.2065065
140	0xbf1b0e4b	-0.60568684
141	0x3e89381d	0.26800624
142	0x3e55b632	0.20870283
143	0x3ed42139	0.41431597
144	0x3e5f5a1b	0.21811716
145	0x3db1bc3f	0.08678483
146	0xbe32e3e5	-0.17469747
147	0x3e0aa5e3	0.13539843
148	0x3dc04dee	0.09389864
149	0x3d883166	0.06650047
150	0x3e3783e1	0.17921402
151	0xbe4aefe8	-0.1981808
152	0xbe0dae1a	-0.13835946
153	0x3eed0068	0.46289372
154	0xbe28d64a	-0.16487995
155	0x3d3f89b5	0.046762187
156	0xbc4864d0	-0.012231067
157	0xbe06f5bf	-0.13179682
158	0xbf246696	-0.64219034
159	0xbedb0831	-0.42779687
160	0x3d3ee48b	0.046604674
161	0xbee9104b	-0.45520243
162	0xbe9f8bb9	-0.31161287
163	0xbc8d0c13	-0.017217671
164	0x3cbe8c1e	0.023260172
165	0x3d876273	0.066105746
166	0xbc364a28	-0.011126079
167	0xbe3765f0	-0.1790998
168	0x3e1dab60	0.15397406
169	0x3ef905ab	0.48637137
170	0xbc6516ab	-0.013982455
171	0x3e9cc275	0.3061711
172	0xbf0f9cdf	-0.5609874
173	0x3bfaedd2	0.007657745
174	0xbd84e058	-0.06488103
175	0x3e700922	0.23440984
176	0xbede90ea	-0.43469936
177	0x3eb73a2b	0.35786566
178	0xbe889028	-0.26672482
179	0x3dc9e093	0.09857287
180	0xbea9daff	-0.33174893
181	0xbce71a63	-0.028210824
182	0x3e26f2d7	0.16303574
183	0x3f12012d	0.57033044
184	0xbdc533f3	-0.09629049
185	0xbf00f8e3	-0.5037977
186	0xbaf47d40	-0.001865305
187	0xbf15a7cc	-0.5845916
188	0xbb7c651c	-0.0038512414
189	0x3ea34af8	0.31893134
190	0x3f29ea02	0.6637269
191	0xbeb01cc8	-0.34396958
192	0xbd78b827	-0.060722496
193	0x3c45c150	0.012070015
194	0xbc20b6d9	-0.009809219
195	0x3e2829b4	0.16422158
196	0x3e49a095	0.19690163
197	0xbef06451	-0.46951535
198	0x3eb52715	0.3538138
199	0x3e6ac8dd	0.22928186
200	0xbe755b60	-0.23960638
201	0x3e427453	0.18989687
202	0xbec64c10	-0.38729906
203	0xbd395e41	-0.045255903
204	0x3d76080b	0.060066264
205	0x3e0f19b4	0.13974649
206	0xbe9670c3	-0.29382905
207	0xbcd19b7c	-0.025586836
208	0x3ece517c	0.40296543
209	0xbd9fd658	-0.07804555
210	0xbed3dfe9	-0.41381767
211	0x3eb96266	0.36207885
212	0xbcf0e441	-0.029405715
213	0x3ec5e170	0.38648558
214	0x3e88afb6	0.26696557
215	0x3c52671b	0.012841965
216	0x3ed922dd	0.4240941
217	0x3d8ae78b	0.067824446
218	0xbec1f564	-0.3788253
219	0x3e960c07	0.2930605
220	0x3dc76da5	0.0973771
221	0x3d7f2d3e	0.062299006
222	0xbe9500cb	-0.29102167
223	0x3d192d8d	0.037396956
224	0x3e8119b6	0.25214928
225	0xbe8893d4	-0.26675284
226	0x3f337cfe	0.701126
227	0x3e3b7965	0.18308027
228	0x3c648d4a	0.013949702
229	0xbea52a8b	-0.3225902
230	0xbe96f609	-0.29484585
231	0x3e36db5e	0.1785712
232	0xbe1f61a7	-0.15564595
233	0x3e88e89e	0.26739973
234	0x3e891875	0.26776472
235	0xbd0e8c96	-0.034802042
236	0xbe00f71c	-0.12594265
237	0xbed863b6	-0.42263573
238	0x3e867163	0.26258382
239	0x3e3bdfa5	0.18347032
240	0x3e124b0a	0.14286438
241	0xbec3fa64	-0.3827697
242	0x3d39e4ff	0.045384403
243	0x3dd80220	0.1054728
244	0xbd790d9a	-0.060803987
245	0x3e8d5bd1	0.27609113
246	0x3daa6918	0.08320826
247	0xbe1cb174	-0.15302068
248	0x3ddf2969	0.1089657
249	0x3cca386d	0.024685109
250	0xbf30efea	-0.6911608
251	0x3d1a024c	0.037599847
252	0x39f069b0	0.0004585511
253	0x3eaedb5e	0.3415174
254	0xbedf448b	-0.43606982
255	0x3dda170a	0.106489256

l3.bias f4 [64]
0	0xbe0c6074	-0.13708669
1	0x3e4d2fcd	0.20037766
2	0x3e3d8ce3	0.18510775
3	0x3e2fe5a4	0.17177445
4	0xbc3cbcaf	-0.011519595
5	0xbe94fd72	-0.29099613
6	0x3e787d56	0.24266562
7	0x3e3ce28c	0.18445796
8	0xbf0e59d1	-0.556058
9	0xbe1a8ab6	-0.15091977
10	0xbe2e84d9	-0.17042865
11	0x3d92a9e8	0.07161313
12	0x3ca05fb5	0.019576887
13	0xbdf5d03d	-0.12002609
14	0x3dabd9ee	0.08391176
15	0xbf1a806e	-0.6035222
16	0x3e982ccc	0.29721677
17	0x3dbfe233	0.09369316
18	0x3da6acf3	0.08138456
19	0xbecdd6d0	-0.4020295
20	0xbd978f28	-0.07400352
21	0xbe3e2fdc	-0.18572944
22	0xbef8796d	-0.4853014
23	0x3efd108f	0.49426696
24	0xbe43ee37	-0.1913384
25	0xbddcb0b7	-0.10775893
26	0x3f13806b	0.57617825
27	0xbd5e0e6f	-0.054212984
28	0xbf1161c8	-0.5678983
29	0x3f0bcca8	0.54609156
30	0x3f007511	0.5017863
31	0x3f1180f0	0.5683737
32	0x3a82b7a5	0.0009972943
33	0x3f03be2e	0.51462066
34	0x3dc9d879	0.09855742
35	0xbdda8bc6	-0.10671191
36	0xbcaae7ea	-0.020862538
37	0x3daa6b52	0.08321251
38	0x3e47f12f	0.19525598
39	0xbebcbdca	-0.36863548
40	0x3ea39dc3	0.319563
41	0x3de168bc	0.110063046
42	0xbebdcde2	-0.3707114
43	0xbdb14b50	-0.08656943
44	0x3e7c25bf	0.24623774
45	0xbed9a2a1	-0.42506889
46	0xbed10384	-0.40822995
47	0x3e2fb680	0.17159462
48	0xbf1a3b68	-0.60246897
49	0xbd1cba03	-0.038263332
50	0xbf116eea	-0.56809866
51	0x3e1f3303	0.15546803
52	0x3d08ce6a	0.033399977
53	0xbd523520	-0.051320195
54	0x3db9df65	0.09075812
55	0xbed753e5	-0.42056194
56	0x3e8ac7e3	0.27105626
57	0xbd2c7fc5	-0.042114038
58	0x3e1edeee	0.15514728
59	0xbda32f6b	-0.07968029
60	0x3e12cd8a	0.1433622
61	0x3d1f6d6e	0.03892272
62	0x3f16adac	0.5885875
63	0x3e1b2b31	0.15153195

l4.weight f4 [1, 64]
0	0x3e144566	0.14479598
1	0xbebacb26	-0.36483115
2	0xbebf4f19	-0.37365034
3	0x3e95e04f	0.29272696
4	0xbefd0793	-0.4941984
5	0x3ea45df3	0.32102928
6	0xbea53408	-0.3226626
7	0xbe0dcc5f	-0.13847493
8	0x3f5d16c3	0.86362857
9	0x3e60961b	0.2193226
10	0x3e4ba90e	0.19888708
11	0xbebd1655	-0.369311
12	0x3e6a314a	0.22870365
13	0x3ed9adfb	0.4251555
14	0xbeafa62e	-0.34306473
15	0x3f583687	0.844582
16	0xbf00a57f	-0.50252527
17	0xbe6e6494	-0.23280555
18	0x3d19beeb	0.03753559
19	0x3eb70a7e	0.35750192
20	0xbed99148	-0.42493653
21	0x3e7b1bfa	0.24522391
22	0x3f35dde7	0.7104172
23	0xbf02807e	-0.50977314
24	0x3e3b4fb2	0.1829212
25	0xbe6d75a3	-0.23189406
26	0xbf54317b	-0.82888
27	0xbd160d94	-0.036634043
28	0x3f4c0ab5	0.7970384
29	0xbf579053	-0.84204596
30	0xbf22ba64	-0.6356566
31	0xbf4962e2	-0.7866651
32	0x3e41cebc	0.18926519
33	0xbf328abc	-0.6974294
34	0xbea25e49	-0.3171256
35	0x3e24a0e1	0.16076995
36	0x3ec5437e	0.38528055
37	0xbe61fcf4	-0.2206915
38	0xbdf891c9	-0.12137181
39	0x3ea8826a	0.32911998
40	0xbf091082	-0.53540814
41	0xbe59a764	-0.2125526
42	0x3f2aca52	0.66714966
43	0x3ea6efcc	0.32604825
44	0xbe8505dd	-0.25981036
45	0x3f4dfdeb	0.80465573
46	0x3f0f3628	0.5594201
47	0x3d76bc87	0.060238387
48	0x3f23c347	0.63969845
49	0x3e9427b0	0.2893653
50	0x3fa60b9b	1.2972292
51	0xbe6d5cf7	-0.23179995
52	0xbdcac142	-0.09900142
53	0xbdd3400b	-0.103149496
54	0xbe34cb3f	-0.17655657
55	0x3edc3a56	0.43013257
56	0xbe548fd9	-0.20757999
57	0x3e99c8e7	0.3003609
58	0xbea06b23	-0.3133174
59	0x3dc796c3	0.097455524
60	0xbea59b72	-0.32345158
61	0xbeaeb35b	-0.34121212
62	0xbf388ad6	-0.72086847
63	0xbe7a1dec	-0.24425477

net.0.weight f4 [256, 6]
0	0x3e92673f	0.28594396
1	0xbc97ae5e	-0.018515762
2	0x3fd7a701	1.684784
3	0x3d8df694	0.06931797
4	0x3c1416d1	0.009038643
5	0x3e7e10b1	0.24811055
6	0xbe35a2be	-0.17737862
7	0x3ebfa74d	0.37432328
8	0x3e2464d3	0.16054086
9	0x3eb3bf5f	0.35106942
10	0xbdddd0e2	-0.10830857
11	0x3e9030b8	0.2816217
12	0xbf094227	-0.53616565
13	0x3da8b9a9	0.08238537
14	0xbbe854f6	-0.0070902063
15	0x3d57c931	0.052682105
16	0x3dc3f7be	0.095687374
17	0xbe5bb9f3	-0.21457653
18	0xbd9eb2a9	-0.077489205
19	0xbd1136db	-0.035452705
20	0xbd09d89b	-0.033653837
21	0x3f0007ca	0.50011885
22	0xbe6ec85a	-0.23318616
23	0x3e2e1f83	0.17004208
24	0xbf301d50	-0.6879473
25	0x3e383b66	0.17991409
26	0xbe1b86c1	-0.15188123
27	0x3df18c80	0.117943764
28	0xbde2f105	-0.11081127
29	0x3d57dd3f	0.05270123
30	0x3f039441	0.5139809
31	0xbd3981cf	-0.04528981
32	0x3d495af9	0.049159024
33	0xbdfaf2fe	-0.12253378
34	0x3e3b0d54	0.18266803
35	0x3e3e6322	0.18592504
36	0xbea80759	-0.32818106
37	0xbe0ca57f	-0.13735007
38	0x3db452c6	0.0880485
39	0x3ed95451	0.4244714
40	0xbe9374c6	-0.2880003
41	0x3da90809	0.08253486
42	0xbea91743	-0.3302556
43	0x3e9f9e6e	0.3117556
44	0x3dd023fe	0.10163115
45	0x3dd3b1c4	0.103366405
46	0x3e28d033	0.16485672
47	0xbce32a05	-0.027729997
48	0xbed911b6	-0.42396325
49	0x3e05d2a4	0.13068634
50	0xbde60687	-0.11231714
51	0x3e95891f	0.29206178
52	0xbe3fc69b	-0.18728106
53	0x3cb98e94	0.022650994
54	0x3e2e995e	0.17050692
55	0x3e7e211a	0.24817315
56	0xbe66380f	-0.22482322
57	0xbebb88f1	-0.36627916
58	0x3e921e37	0.28538677
59	0xbdbb3259	-0.091404624
60	0x3eed36e6	0.46330947
61	0x3e27b787	0.16378604
62	0x3cea689d	0.028614337
63	0x3dbf5e80	0.09344196
64	0xbf0a3ac0	-0.53995895
65	0x3ee28a8d	0.4424633
66	0x3ee4b4bc	0.4466914
67	0xbdb65c19	-0.08904285
68	0xbe133ce7	-0.14378701
69	0xbecf0d15	-0.40439668
70	0x3e82f2a9	0.2557576
71	0xbe08a645	-0.13344677
72	0xbd8a8463	-0.06763532
73	0x3f366d70	0.7126074
74	0xbe1e9ab5	-0.15488704
75	0x3ea9f8bb	0.3319758
76	0x3beb6988	0.007184211
77	0x3eab09e4	0.33405983
78	0xbf0eeadb	-0.5582711
79	0x3eb21779	0.34783533
80	0x3e02e4d3	0.12782602
81	0x3ea87905	0.3290483
82	0xbe742ed2	-0.23845986
83	0x3df11090	0.11770737
84	0xbf10a5dd	-0.5650309
85	0x3dfe3608	0.124126494
86	0x3dbbb0c5	0.091645755
87	0x3eb0a5d3	0.34501514
88	0xbe7aa829	-0.2447821
89	0xbd784d0a	-0.060620345
90	0xbf228eae	-0.6349896
91	0x3d85b930	0.06529462
92	0x3ddd1424	0.10794857
93	0x3ea8adc6	0.3294508
94	0xbe73eb35	-0.23820193
95	0xbca57f14	-0.020202197
96	0xbeedcee9	-0.46446922
97	0xbcab1cb6	-0.020887714
98	0x3df1cf75	0.118071474
99	0x3ed90e37	0.42393658
100	0xbe812b7d	-0.2522849
101	0x3de8f663	0.113751195
102	0xbeeaae45	-0.45836082
103	0xbd40c3ea	-0.04706184
104	0x3e7771d7	0.2416452
105	0x3ec0d406	0.3766176
106	0xbe75855b	-0.23976652
107	0x3d0060b8	0.03134224
108	0x3e0368b5	0.12832911
109	0x3ee35828	0.44403195
110	0xbe06429b	-0.13111345
111	0x3e2c4d3f	0.16826342
112	0x3dfeb925	0.12437657
113	0x3e4638df	0.19357632
114	0xbe08ee87	-0.13372241
115	0x3e999a26	0.30000418
116	0xbc92da7f	-0.017926453
117	0xbec561e0	-0.38551235
118	0x3e8ff3ff	0.28115842
119	0xbe319270	-0.17341018
120	0x3e544583	0.20729642
121	0xbe787527	-0.2426344
122	0x3e430b2a	0.19047228
123	0x3e66a6c0	0.22524548
124	0xbedcc6a7	-0.4312031
125	0x3f311c87	0.69184154
126	0xbf0e4163	-0.5556852
127	0xbd4a9da9	-0.049466763
128	0xbcd13b14	-0.025540866
129	0x3d1ea967	0.038735773
130	0x3e9687af	0.29400393
131	0xbebd49a2	-0.3697024
132	0xbd11d7b7	-0.035606112
133	0x3f6ca756	0.92442834
134	0xbe39dbc6	-0.18150243
135	0x3e60d7b7	0.21957289
136	0xbe9426e8	-0.28935933
137	0x3e839da0	0.25706196
138	0x3ea4b022	0.3216563
139	0xbe105cc7	-0.14097892
140	0xbf27d606	-0.6556095
141	0xbf00e933	-0.50355834
142	0x3e88e6a6	0.2673847
143	0xbe7598da	-0.2398409
144	0x3f0be5bb	0.54647416
145	0x3d0c494c	0.03424959
146	0x3d720a9c	0.05909215
147	0xbdf6c372	-0.12048997
148	0x3e02fd9d	0.12792058
149	0x3e344f37	0.17608343
150	0x3e90c6cf	0.2827668
151	0x3e5f29bd	0.21793266
152	0xbd8465ab	-0.06464704
153	0x3e860da5	0.26182285
154	0xbee2a969	-0.44269875
155	0x3f00ced3	0.5031559
156	0xbe136873	-0.14395313
157	0x3f26e905	0.6519931
158	0x3e05475c	0.13015503
159	0x3e49c875	0.19705375
160	0xbe804f0c	-0.25060308
161	0xbc78882a	-0.015169183
162	0x3f1efe80	0.62107086
163	0xbdd4f4b8	-0.10398239
164	0x3ce5c8f1	0.028049918
165	0xbe0a3355	-0.13496144
166	0x3bd0d7d4	0.006373385
167	0x3df3a864	0.11897352
168	0xbf1d1bc1	-0.61370474
169	0x3bb749fe	0.0055935374
170	0xbd9cc522	-0.076547876
171	0xbdcb0caa	-0.09914525
172	0x3e32a89c	0.17447132
173	0xbeb88ce7	-0.36045
174	0xbf13e6ea	-0.5777422
175	0xbdfa1654	-0.1221129
176	0xbd7c5bd5	-0.061611015
177	0xbda2ddc6	-0.07952456
178	0x3e98012f	0.29688403
179	0xbee7bfc2	-0.45263487
180	0xbe35eb2c	-0.17765492
181	0xbe5cd06d	-0.21563883
182	0xbe8c18cd	-0.27362671
183	0x3e4df469	0.20112766
184	0xbe7623c4	-0.24037081
185	0xbe52eea0	-0.2059884
186	0xbb064d95	-0.002049302
187	0x3f2356f2	0.63804543
188	0x3bd53223	0.006506221
189	0xbcc235be	-0.023707267
190	0xbe97c694	-0.2964369
191	0x3d1a652d	0.037694145
192	0xbf3fce5c	-0.74924254
193	0x3e111713	0.14168958
194	0xbebd86d9	-0.37016943
195	0xbdcbfb80	-0.09960079
196	0xbe624ecc	-0.22100371
197	0x3db086d1	0.08619464
198	0xbed000c2	-0.40625578
199	0x3f15dc84	0.58539605
200	0xbe848f0f	-0.25890395
201	0xbdad05d2	-0.08448376
202	0xbca82d49	-0.020529406
203	0xbece1f62	-0.40258318
204	0xbc87c13b	-0.016571632
205	0xbde12d05	-0.10994915
206	0x3e23f757	0.16012321
207	0xbee00155	-0.43751016
208	0xbd51d490	-0.051228106
209	0xbd6c73b8	-0.057727545
210	0x3ef67596	0.48136586
211	0x3e0bb398	0.13642728
212	0xbd31e33c	-0.0434296
213	0xbcbc6a58	-0.022999927
214	0xbef26d29	-0.47348908
215	0x3eb6f8e7	0.35736772
216	0x3ed19a89	0.40938213
217	0x3d408a6d	0.047007013
218	0x3c2ae0b0	0.010429546
219	0x3de64f08	0.11245543
220	0xbe221e30	-0.15831828
221	0x3f04a6b4	0.5181687
222	0xbf0d3cea	-0.5517107
223	0x3e9a4851	0.30133298
224	0x3f0e394b	0.5555617
225	0x3e9582d2	0.2920137
226	0xbe90a454	-0.28250372
227	0x3d988dc4	0.07448915
228	0x3f1a9a8e	0.6039208
229	0xbddb71e5	-0.10715083
230	0x3d727087	0.059189346
231	0xbe4eb0da	-0.20184651
232	0x3d9f32ec	0.077733845
233	0x3d3de954	0.046365097
234	0xbee29584	-0.44254696
235	0x3e519ae0	0.20469236
236	0x3efbcb3c	0.49178493
237	0x3ed6184f	0.4181542
238	0xbe9c685f	-0.3054838
239	0x3e6b7654	0.22994357
240	0xbef32177	-0.4748647
241	0xbb84f2f3	-0.004057282
242	0x3e173272	0.14765337
243	0xbe1246ee	-0.1428487
244	0x3ea1d199	0.31605223
245	0xbeef2cab	-0.46713766
246	0x3f010e3c	0.50412345
247	0x3da00cc1	0.078149326
248	0xbc6f6b3e	-0.014612971
249	0xbe195e28	-0.14977324
250	0x3db230f6	0.08700745
251	0x3e962f4e	0.29332966
252	0x3f13e1e6	0.5776657
253	0xbd9779b0	-0.07396257
254	0xbf0879c1	-0.5331078
255	0xbece2600	-0.40263367

net.0.bias f4 [256]
0	0x3f0ab352	0.5417987
1	0xbe7d5fc0	-0.24743557
2	0xbec17ee9	-0.37792137
3	0xbedbbff8	-0.42919898
4	0xbdbc8f90	-0.0920707
5	0x3f1c6eab	0.61106366
6	0xbef254e1	-0.47330382
7	0xbd2b693a	-0.0418484
8	0xbf080011	-0.531251
9	0x3f105fd4	0.5639622
10	0x3e84e6ba	0.2595728
11	0x3ecc399f	0.3988771
12	0xbaac8521	-0.0013162234
13	0xbec9b2a0	-0.39394093
14	0xbef2ca85	-0.47420135
15	0xbee5d89e	-0.44891828
16	0xbf056dc4	-0.52120614
17	0xbf05bccc	-0.52241206
18	0x3f055d79	0.5209575
19	0x3e7905a6	0.24318561
20	0x3ec1a3a1	0.3782015
21	0xbed59527	-0.41715357
22	0xbdfa8bfa	-0.1223373
23	0x3ea5056e	0.32230705
24	0x3f0a7b05	0.5409396
25	0xbbf317e6	-0.0074186204
26	0xbe895c0d	-0.26828042
27	0x3ebc61a5	0.36793247
28	0xbef21605	-0.47282425
29	0xbec1d865	-0.37860408
30	0xbf38ffa5	-0.7226508
31	0xbef5b7cc	-0.47991788
32	0x3b8588cf	0.0040751467
33	0xbe99e55a	-0.30057794
34	0x3e838669	0.25688484
35	0x3e05dc22	0.13072255
36	0x3ef5816f	0.47950312
37	0xbea360d6	-0.31909817
38	0x3eec8ac3	0.46199617
39	0xbed8e8ac	-0.42365015
40	0xbe9cc16c	-0.3061632
41	0x3f0ecdba	0.55782664
42	0x3e8d994e	0.27656025
43	0x3ebb34a7	0.36563608
44	0xbf214e3a	-0.6300999
45	0x3d1cd42a	0.038288273
46	0x3f0658af	0.5247907
47	0x3f140011	0.578126
48	0xbf0225b7	-0.508388
49	0xbe98bc84	-0.29831326
50	0x3ef7f6e5	0.48430553
51	0x3e36ec9f	0.17863701
52	0xbedcc2bf	-0.4311733
53	0x3f26ce04	0.65158105
54	0x3ef59aa0	0.47969532
55	0xbe69f04c	-0.22845572
56	0xbf0a5c4e	-0.54047096
57	0x3f07c43d	0.5303381
58	0xbec22126	-0.37915915
59	0x3e7355ac	0.2376315
60	0xbd990661	-0.0747192
61	0xbebbb459	-0.36661032
62	0x3db42a3a	0.087971166
63	0x3ebab1bb	0.36463723
64	0xbe9d6d36	-0.30747384
65	0x3d88b787	0.0667563
66	0xbf11cef9	-0.5695644
67	0x3f1a42f5	0.6025842
68	0x3e9284b4	0.2861687
69	0xbf3e32b0	-0.74296093
70	0x3c9b8144	0.018982537
71	0x3e8656b3	0.2623802
72	0x3e66aa9e	0.22526023
73	0xbeaef599	-0.3417175
74	0xbf3d7aee	-0.740157
75	0xbf273ffe	-0.6533202
76	0xbe9a579f	-0.30144975
77	0x3ebf1b78	0.37325644
78	0xbf204e4e	-0.62619483
79	0xbe0bfd86	-0.1367093
80	0x3f2a6d9f	0.6657352
81	0xbf401d6b	-0.7504489
82	0x3e50003a	0.20312586
83	0xbe952dd6	-0.29136533
84	0xbe09d18e	-0.13458845
85	0x3ec3a8e6	0.38214797
86	0xbee07966	-0.4384262
87	0x3eca74ed	0.39542332
88	0x3e43438a	0.19068733
89	0xbf17122f	-0.5901212
90	0xbf31a965	-0.693991
91	0xbe041eb9	-0.12902345
92	0xbe604222	-0.21900228
93	0xbebf5f74	-0.37377512
94	0xbf07749b	-0.529123
95	0x3f2c8de8	0.6740403
96	0x3ed29844	0.41131794
97	0x3ee525b9	0.44755343
98	0xbd78c6f7	-0.060736623
99	0xbee7e5da	-0.4529255
100	0x3d4959d8	0.049157947
101	0xbf0c091b	-0.54701394
102	0xbe33b200	-0.1754837
103	0xbe02e58b	-0.12782876
104	0xbe560b1b	-0.20902674
105	0xbe8b17e3	-0.27166662
106	0xbf169534	-0.58821416
107	0x3ef83511	0.48477986
108	0x3e8c2f81	0.27379993
109	0x3e2d15e0	0.16902876
110	0xbe2c829d	-0.168467
111	0xbec381be	-0.38184923
112	0xbf0a2874	-0.53967977
113	0xbeca45d3	-0.39506397
114	0x3e26de71	0.16295792
115	0x3ec6e2a0	0.38844776
116	0xbe1f8934	-0.15579683
117	0xbf34e5de	-0.7066325
118	0xbf071be0	-0.5277691
119	0x3f320521	0.69539076
120	0xbf0a7c83	-0.5409624
121	0xbe316f98	-0.17327726
122	0x3f05dcc4	0.52289987
123	0x3e637f86	0.22216615
124	0xbee91da6	-0.45530432
125	0xbe4301cd	-0.19043656
126	0x3ca1f237	0.019768817
127	0xbdb031b2	-0.08603229
128	0x3efd523a	0.49476796
129	0x3edb2f87	0.42809698
130	0xbecba7b6	-0.3977639
131	0x3f1ccce6	0.6125015
132	0x3f41d9c7	0.75722927
133	0xbea50f72	-0.32238346
134	0xbe8ca797	-0.2747161
135	0xbd50f5ab	-0.051015537
136	0x3e3219b7	0.17392622
137	0xbf133aa5	-0.5751136
138	0x3dca3b77	0.09874623
139	0x3c10007d	0.008789179
140	0x3f23d198	0.6399169
141	0xbf304b94	-0.68865323
142	0xbe93ded9	-0.28880957
143	0xbec7d983	-0.39033136
144	0xbeab9ab9	-0.33516482
145	0xbe884a0f	-0.26619002
146	0xbd4e370f	-0.050345477
147	0x3ec3fe1b	0.38279805
148	0x3ea6e816	0.32598943
149	0xbecee9c6	-0.4041273
150	0x3e54deac	0.20788068
151	0xbecb6d43	-0.39731798
152	0xbd881740	-0.066450596
153	0xbf1bb047	-0.6081585
154	0x3dedbe46	0.116085574
155	0x3ed1b1c7	0.40955946
156	0x3f0e8266	0.5566772
157	0x3eb74a8a	0.35799056
158	0x3eac4a12	0.3365026
159	0x3ef34623	0.47514448
160	0xbe6e7124	-0.23285347
161	0xbe5e4e2f	-0.21709512
162	0xbca7c050	-0.020477444
163	0x3e405856	0.18783697
164	0xbf17eb46	-0.59343374
165	0xbde3c9d2	-0.111224785
166	0xbdfe5f77	-0.12420552
167	0x3ea4251c	0.32059562
168	0xbe5576c5	-0.20846088
169	0xbeed3c6c	-0.4633516
170	0x3eaa2f43	0.33239183
171	0x3e753592	0.23946217
172	0xbf068663	-0.5254881
173	0x3e496d16	0.19670519
174	0x3e0c07af	0.13674806
175	0xbe89d603	-0.2692109
176	0xbde13e65	-0.10998229
177	0xbf18b8a0	-0.59656715
178	0xbd86a07c	-0.06573579
179	0xbdb76114	-0.08954063
180	0x3efd376b	0.49456343
181	0x3dd5afe6	0.104339406
182	0xbe682709	-0.2267114
183	0x3f1e868a	0.6192404
184	0xbe48d083	-0.19610791
185	0xbf1ee0f1	-0.62061983
186	0xbf1a313f	-0.60231394
187	0x3e147000	0.1449585
188	0xbec5337f	-0.3851585
189	0xbeb1b2dc	-0.3470677
190	0x3e96b64c	0.29435956
191	0x3cc7aef9	0.024375426
192	0xbecd4bf0	-0.40096998
193	0xbf0a1e3d	-0.5395239
194	0x3e81725e	0.25282568
195	0xbf520504	-0.82038903
196	0x3f0ad125	0.5422538
197	0x3f06effc	0.5270994
198	0xbeb3bab6	-0.35103387
199	0x3eafdc35	0.34347692
200	0xbee513f5	-0.44741789
201	0xbe8a9da3	-0.27073392
202	0xbe9a9552	-0.30192047
203	0x3f243c2f	0.6415433
204	0xbe350224	-0.17676598
205	0xbf2852c2	-0.6575128
206	0x3f41413e	0.75490177
207	0x3eff25a0	0.49833393
208	0xbe933b69	-0.28756264
209	0x3d8837a4	0.066512376
210	0xbd8243b0	-0.063605666
211	0x3eefd9fc	0.46845996
212	0xbc035ec9	-0.008018204
213	0xbf0b46cd	-0.5440491
214	0x3c53b694	0.012921948
215	0x3e30a5d8	0.17250764
216	0x3f142c01	0.57879645
217	0x3d56d938	0.05245325
218	0xbd2fb61a	-0.042898275
219	0x3f0c86cf	0.548932
220	0xbee1d439	-0.44107226
221	0x3ee4937c	0.44643772
222	0xbf432269	-0.7622438
223	0x3f05a467	0.52203983
224	0x3eb2b8ab	0.34906515
225	0x3ea6c391	0.3257108
226	0xbeb84088	-0.35986733
227	0xbef3aa24	-0.47590744
228	0x3f1bb562	0.60823643
229	0x3e4c413f	0.19946764
230	0x3e5cff9a	0.2158188
231	0x3f1ae08b	0.60498875
232	0xbf21bb36	-0.63176286
233	0xbecaf755	-0.39641824
234	0xbd96419f	-0.07336735
235	0x3eb6841b	0.35647663
236	0x3f3b3cc4	0.73139596
237	0xbdcf8b25	-0.101339616
238	0x3eab5153	0.33460483
239	0xbe175e66	-0.14782104
240	0xbebff173	-0.374889
241	0xbedcfb07	-0.4316027
242	0xbe955a76	-0.2917058
243	0x3f20e6d6	0.6285223
244	0xbd99d0b9	-0.07510514
245	0x3f145a00	0.5794983
246	0x3e08bd94	0.13353568
247	0x3e8e8a16	0.27839726
248	0xbf02a834	-0.5103791
249	0x3f05dda5	0.5229133
250	0x3f4d18c1	0.80115896
251	0xbde99d8b	-0.11407002
252	0x3dcb266b	0.09919437
253	0xbe54ed58	-0.20793664
254	0x3dd80d62	0.105494276
255	0x3f0cfe9c	0.55076003
