AF_GLOSA/models/model081401/20000/actor_model/actor.pkl (torch, 236975 bytes, 26 tensors)

encoder.0.weight f4 [256, 6]
0	0xbe657503	-0.22407918
1	0xbd93ecf2	-0.07222928
2	0xbe189074	-0.14898854
3	0xbd5d3069	-0.054001246
4	0x3e390e19	0.18071784
5	0x3dafe6ea	0.08588965
6	0xbd6f0a28	-0.058359295
7	0xbdc05815	-0.093918
8	0xbe3e0d71	-0.18559815
9	0x3e9c5029	0.30529907
10	0x3db9635e	0.09052156
11	0xbea28c14	-0.31747496
12	0x3cd9157d	0.026499504
13	0x3e9823a5	0.29714695
14	0x3ecca529	0.39969757
15	0x3ed2a643	0.41142473
16	0x3ecbeb9e	0.398282
17	0xbe8efd37	-0.27927563
18	0x3e03ccad	0.12871046
19	0xbeb97f19	-0.3622978
20	0x3dc399e4	0.09550837
21	0x3ece3d09	0.4028094
22	0x3ec9b3f5	0.3939511
23	0x3ec07ab7	0.37593624
24	0x3c640284	0.013916615
25	0xbed5c31d	-0.41750422
26	0xbeb794f2	-0.35855824
27	0x3dc0db13	0.09416785
28	0xbeb94b63	-0.36190328
29	0xbe8fca62	-0.28084093
30	0xbd4484ce	-0.047978215
31	0xbd019392	-0.031634875
32	0x3c459ef8	0.012061827
33	0xbec60564	-0.38675988
34	0x3e4b20b0	0.19836688
35	0x3e1f6f2c	0.15569752
36	0x3eb2c4ad	0.34915677
37	0xbe94792d	-0.289987
38	0x3ec7854e	0.3896889
39	0xbe2d5628	-0.16927397
40	0xbe898c44	-0.26864827
41	0xbeb5e010	-0.3552251
42	0x3e12af5e	0.1432471
43	0xbde8fc07	-0.113761954
44	0x3e6124a0	0.21986628
45	0x3e9e6b25	0.3094112
46	0x3dc57bca	0.096427515
47	0x3e876ffa	0.2645262
48	0xbdb67273	-0.08908548
49	0xbeaf0fcc	-0.3419174
50	0xbd3a34a3	-0.045460355
51	0x3e8a5e84	0.27025235
52	0x3d47803c	0.04870628
53	0x3dd871c8	0.10568577
54	0xbd35dfe0	-0.044402957
55	0x3e4815e2	0.19539598
56	0x3e8b31eb	0.27186522
57	0xbeb7d03e	-0.35901064
58	0x3e264997	0.1623901
59	0xbda87717	-0.082258396
60	0xbe80b329	-0.25136688
61	0xbe37d2ca	-0.17951503
62	0x3e960d57	0.29307052
63	0x3de07120	0.10959077
64	0x3dd2eae2	0.102987066
65	0x3ebd2fdf	0.36950585
66	0xbebe266a	-0.37138683
67	0xbeccac60	-0.39975262
68	0xbdc3b921	-0.09556795
69	0x3dec3627	0.11533766
70	0x3e9f5811	0.31121877
71	0x3eb748c7	0.35797712
72	0x3ea9ea22	0.33186442
73	0x3d4cd70c	0.050009772
74	0xbd92bb45	-0.07164625
75	0xbd10e517	-0.035374727
76	0xbea43a3b	-0.32075676
77	0x3ee05f3f	0.43822667
78	0x3eb39634	0.35075533
79	0xbe864b0d	-0.26229134
80	0x3d943335	0.072363295
81	0x3e23849b	0.15968554
82	0xbdedb5cc	-0.116069406
83	0xbeb25a8c	-0.34834707
84	0x3e015e14	0.12633544
85	0x3e68f62b	0.22750156
86	0x3ea33642	0.31877333
87	0xbe4381aa	-0.19092432
88	0xbe9a81b5	-0.30177084
89	0xbe4e68f8	-0.2015723
90	0xbde5add3	-0.11214795
91	0xbceafbef	-0.028684584
92	0x3eb6443e	0.3559894
93	0xbeafbb0e	-0.343224
94	0xbe7464b7	-0.23866545
95	0xbe5184f3	-0.20460872
96	0xbe18ea36	-0.14933094
97	0xbe766eff	-0.24065779
98	0x3ea756df	0.32683465
99	0xbe540b9d	-0.20707555
100	0xbdedd916	-0.116136715
101	0x3c66ff06	0.014098888
102	0xbd310b8e	-0.04322391
103	0x3ea59e60	0.32347393
104	0x3e02ebf3	0.1278532
105	0x3e67eff3	0.22650127
106	0xbd7837ab	-0.060599964
107	0x3d47dc05	0.04879381
108	0x3eba89ad	0.36433163
109	0x3e50c604	0.20388037
110	0x3ea53f4e	0.3227486
111	0x3e740ffb	0.23834221
112	0xbea4a31e	-0.321557
113	0xbd9276d4	-0.07151571
114	0x3de0073d	0.109388806
115	0x3eaca3c7	0.33718702
116	0x3eab16a8	0.33415723
117	0xbec14da1	-0.3775454
118	0x3ecb0147	0.39649412
119	0xbda6abbe	-0.08138226
120	0x3e3c0f0f	0.1836512
121	0x3da3a5c7	0.07990604
122	0xbec184d6	-0.37796658
123	0x3e7f0659	0.24904765
124	0xbebf2246	-0.37330836
125	0x3ed4400d	0.41455117
126	0x3d831d34	0.064020544
127	0x3e5e873f	0.2173128
128	0x3e5252d1	0.20539404
129	0xbd458b96	-0.048228823
130	0xbe45d368	-0.19318926
131	0x3ea87ad3	0.32906207
132	0xbec03763	-0.37542257
133	0xbc801c52	-0.015638504
134	0x3eaa7a7c	0.33296573
135	0x3d54f402	0.051990516
136	0x3c1e1143	0.00964767
137	0x3eaf6fe7	0.34265062
138	0x3e11697e	0.14200398
139	0x3ed030a1	0.406621
140	0xbe81c2c5	-0.2534391
141	0x3e8fc0fe	0.2807693
142	0xbc11b960	-0.0088942945
143	0xbea4a7d7	-0.32159302
144	0xbcb1b8f0	-0.02169463
145	0x3e77b221	0.24189045
146	0xbe9d8731	-0.30767205
147	0xbec6cdb3	-0.3882881
148	0x3e18d7b2	0.14926031
149	0xbe9abad2	-0.30220658
150	0x3ec6e627	0.38847467
151	0x3c15fb05	0.009154086
152	0xbeac7da5	-0.3368961
153	0x3dffd276	0.12491314
154	0x3e8b17c4	0.2716657
155	0xbec6c783	-0.3882409
156	0x3ece3924	0.4027797
157	0xbed2918a	-0.41126662
158	0x3dbf505e	0.09341501
159	0x3e60de57	0.21959816
160	0xbc82c8bd	-0.01596486
161	0x3eb0ce47	0.34532377
162	0x3e2a16c9	0.16610254
163	0x3e0c49b0	0.13699985
164	0xbeaa442c	-0.33255136
165	0x3e935c7b	0.28781494
166	0x3e7f2216	0.24915347
167	0x3ec0c231	0.37648156
168	0xbe8faa51	-0.2805963
169	0xbe9b2039	-0.3029802
170	0xbdaef1ec	-0.08542237
171	0x3d4e9c19	0.050441835
172	0xbe830955	-0.25593057
173	0xbebd87b1	-0.37017587
174	0xbebfaf73	-0.37438545
175	0x3df4aba3	0.119467996
176	0xbe77985f	-0.24179219
177	0xbd6bccef	-0.057568487
178	0x3da78f8d	0.08181677
179	0xbd80e5f6	-0.062938616
180	0x3ea34e64	0.31895745
181	0x3e441629	0.19149078
182	0x3ed7163f	0.4200916
183	0x3e5aebd8	0.2137903
184	0x3e453262	0.19257501
185	0x3d19d7a4	0.037559167
186	0x3d6c50e1	0.05769432
187	0x3dd797b4	0.10526982
188	0x3eb62d47	0.3558142
189	0x3e9de8e2	0.30841738
190	0xbe8f5b47	-0.27999327
191	0xbd8e1356	-0.06937282
192	0xbe40f8a6	-0.18844852
193	0x3b7ac0c6	0.0038261875
194	0xbdaabc1f	-0.083366625
195	0x3e1e77b6	0.15475354
196	0x3e886a63	0.26643667
197	0xbddcdd86	-0.1078444
198	0xbdcf2a59	-0.10115499
199	0xbd2887ef	-0.04114526
200	0xbe2d5928	-0.16928542
201	0x3e78d164	0.24298626
202	0xbe6f6621	-0.23378803
203	0x3dd11a16	0.102100536
204	0x3ebfb9e2	0.37446505
205	0x3e9e1d8a	0.30881912
206	0xbe648197	-0.2231506
207	0x3e747df0	0.23876166
208	0xbe8a571b	-0.2701958
209	0xbe96fa0c	-0.29487646
210	0xbd8a944d	-0.067665674
211	0xbe5eadb9	-0.21745957
212	0x3df83463	0.12119367
213	0x3ec2c915	0.38044038
214	0xbccc8aa3	-0.02496845
215	0xbe9d7710	-0.307549
216	0x3e912133	0.28345641
217	0xbe251bf8	-0.1612395
218	0xbe2a7b90	-0.16648698
219	0xbeb89b8a	-0.36056167
220	0x3e55c268	0.20874941
221	0x3d52cd40	0.051465273
222	0x3e289bf9	0.16465749
223	0xbe959111	-0.2921224
224	0xbaeef147	-0.0018229865
225	0xbdfb7b30	-0.122793555
226	0x3d4e4538	0.05035898
227	0x3e34cd5f	0.17656468
228	0xbe8abc4d	-0.27096787
229	0xbdfc5540	-0.12320948
230	0xbe9eb469	-0.30997017
231	0x3bad56c7	0.0052898857
232	0x3cddca9e	0.027074154
233	0x3ec0e5c0	0.37675285
234	0x3e8fdf18	0.28099895
235	0xbc81081c	-0.015750937
236	0x3daebc5a	0.08532019
237	0x3e95b216	0.2923743
238	0x3e92007a	0.2851599
239	0x3eb3b219	0.35096815
240	0xbee4b4ac	-0.44669092
241	0xbdeab0e7	-0.11459523
242	0xbe6bdd4b	-0.23033635
243	0x3ed89da7	0.4230778
244	0xbe51abf8	-0.20475757
245	0x3d88d626	0.066814706
246	0x3da486e5	0.080335416
247	0xbd0d407b	-0.03448532
248	0xbd7bc40c	-0.06146626
249	0xbe3ce527	-0.1844679
250	0xbe8f8844	-0.2803365
251	0x3d63ca6c	0.055612966
252	0xbe6e60f5	-0.23279174
253	0xbdbb0a5b	-0.091328345
254	0xbdec3480	-0.11533451
255	0xbd60b5ec	-0.054860994

encoder.0.bias f4 [256]
0	0x3ddf9c6e	0.109185085
1	0x3eb974c0	0.36221886
2	0xbe83436c	-0.25637376
3	0x3d7bb73f	0.061454054
4	0x3e3d09dd	0.18460794
5	0x3d3d106d	0.046158243
6	0x3ed09cb0	0.40744543
7	0xbe8ec4c2	-0.2788449
8	0xbea36382	-0.31911856
9	0xbe4ce587	-0.20009433
10	0x3ea09db9	0.31370333
11	0xbeafe619	-0.34355238
12	0xbe84c9db	-0.25935254
13	0x3e8cfd97	0.27537224
14	0xbe8efbc5	-0.2792646
15	0xbe8faed0	-0.2806306
16	0xbe929a28	-0.28633237
17	0x3e16eafd	0.14738078
18	0x3ece6930	0.40314627
19	0x3e71a5da	0.23598424
20	0x3e8088fa	0.25104505
21	0x3e8f7c8a	0.28024703
22	0x3d858f34	0.065214545
23	0x3ed4e344	0.4157964
24	0x3e486488	0.195696
25	0xbd5f326e	-0.054491453
26	0x3d46be50	0.04852134
27	0x3e3697f3	0.17831402
28	0x3e9be4dd	0.30448046
29	0xbdcbec32	-0.0995716
30	0xbe5c084f	-0.21487544
31	0xbec18250	-0.37794733
32	0xbeb34389	-0.35012463
33	0x3ded4164	0.11584738
34	0xbd67b8aa	-0.056572594
35	0x3e9257ff	0.2858276
36	0xbe2f827b	-0.17139618
37	0x3e4322d6	0.19056258
38	0x3df82ef2	0.12118329
39	0xbe4a139f	-0.19734047
40	0xbe8552df	-0.26039788
41	0x3e8a2cb1	0.26987222
42	0x3e9f218b	0.3108028
43	0x3e4ad126	0.19806346
44	0x3e8c9fc5	0.27465644
45	0x3e978ee8	0.29601216
46	0x3eb67ee9	0.356437
47	0xbd99002c	-0.07470736
48	0xbea80d7c	-0.32822788
49	0xbc68257d	-0.014169094
50	0xbea12136	-0.3147065
51	0x3e94c2bd	0.29054824
52	0xbd0cda22	-0.034387715
53	0xbeb02d96	-0.3440978
54	0x3e982c95	0.29721513
55	0x3e94e65f	0.2908201
56	0xbdf57213	-0.119846486
57	0x3e2ec104	0.17065817
58	0x3d9c1c8c	0.076226324
59	0x3e6061b4	0.21912271
60	0x3ecc27d3	0.39874133
61	0x3e90ee69	0.28306893
62	0xbe10a773	-0.14126377
63	0x3e9393e7	0.28823778
64	0x3cf1cdc1	0.029517056
65	0x3eb9ab61	0.36263564
66	0x3e55375b	0.20821898
67	0xbe7fb46c	-0.24971169
68	0x3e88173b	0.26580223
69	0xbe9f61f1	-0.3112941
70	0x3de012f0	0.10941112
71	0x3c908c82	0.017645124
72	0x3e63649c	0.22206348
73	0xbe9f99ff	-0.31172177
74	0xbdbf2b09	-0.0933438
75	0x3e80952f	0.25113818
76	0xbecb851a	-0.39749986
77	0xbde355b7	-0.11100333
78	0x3e8bbbcf	0.27291724
79	0x3eba8566	0.364299
80	0xbe6b2202	-0.22962192
81	0x3d8c733b	0.06857916
82	0x3e95a6bf	0.2922878
83	0x3e20ee0d	0.15715809
84	0xbd90e323	-0.07074573
85	0x3da04295	0.078251995
86	0xbe392511	-0.18080546
87	0x3e7205f4	0.23635083
88	0x3dba5290	0.09097779
89	0x3ec1d06c	0.37854326
90	0xbbeb9e05	-0.0071904683
91	0x3e65b0b2	0.22430685
92	0xbe9d87d6	-0.30767697
93	0xbe1d29e0	-0.15348005
94	0xbddab2d1	-0.10678638
95	0xbd092004	-0.033477798
96	0x3e2c491b	0.16824763
97	0x3e1d7eda	0.15380421
98	0x3dc020fa	0.0938129
99	0xbe9b0f4d	-0.3028511
100	0xbdfac342	-0.12244274
101	0xbe199385	-0.1499768
102	0x3b4db5cd	0.003138888
103	0x3b8b3a70	0.0042489097
104	0xbe9b8389	-0.3037379
105	0x3e8edc41	0.27902415
106	0x3e9966eb	0.29961333
107	0x3e8770c2	0.26453215
108	0xbe43a766	-0.19106826
109	0x3e69e15c	0.22839874
110	0x3e9a5035	0.30139318
111	0x3e130c05	0.14360054
112	0xbe3b5228	-0.18293059
113	0x3ed079e5	0.40717998
114	0xbe73369b	-0.23751299
115	0x3e987d87	0.2978327
116	0x3d4eb9f1	0.050470296
117	0xbe0a5c5d	-0.13511796
118	0x3e884fa3	0.26623258
119	0xbe4daf9c	-0.20086521
120	0xbd5192ac	-0.051165268
121	0xbecda0ab	-0.40161642
122	0x3eb60c82	0.35556418
123	0x3e5940ba	0.21216097
124	0xbe83c334	-0.25734866
125	0xbd7cccc5	-0.06171872
126	0x3e702d03	0.2345467
127	0x3dbfab42	0.09358837
128	0xbe18fb8b	-0.14939706
129	0x3d36edfa	0.044660546
130	0x3e35715d	0.17719026
131	0x3e8b19b9	0.27168062
132	0x3ec490ae	0.38391632
133	0x3c975ece	0.018477824
134	0x3e3a3da4	0.18187577
135	0x3eb7285c	0.3577298
136	0xbdcb5a71	-0.0992936
137	0x3e816cc1	0.25278285
138	0x3c3f48d2	0.011675077
139	0xbd69aae0	-0.057047725
140	0x3d9c827d	0.07642076
141	0x3e1c8286	0.15284166
142	0x3da845a9	0.082164116
143	0x3ec43993	0.38325176
144	0x3c25b06e	0.010112865
145	0xbe780722	-0.24221471
146	0xbcbe5f62	-0.023238841
147	0x3e9a173a	0.30095845
148	0x3db9fc58	0.09081334
149	0x3e19ec18	0.15031469
150	0x3cd2eb4b	0.025746962
151	0xbe89133c	-0.26772487
152	0xbe8e7ce3	-0.27829656
153	0x3e840518	0.25785136
154	0x3e5d3669	0.21602787
155	0x3ea479df	0.3212423
156	0xbe654641	-0.22390081
157	0xbd764913	-0.060128283
158	0xbd3a548c	-0.045490786
159	0xbecfa552	-0.40555817
160	0x3eb66e83	0.3563119
161	0x3e56be92	0.20971134
162	0xbdd07a64	-0.10179594
163	0x3d009d4d	0.031400014
164	0x3e1f47a5	0.15554674
165	0xbe39bfcf	-0.18139575
166	0x3e206034	0.15661699
167	0xbdff8127	-0.12475806
168	0x3ead5cf3	0.33859977
169	0xbde6fa7d	-0.112782456
170	0x3dbc13ad	0.0918344
171	0xbe8cc4b5	-0.27493826
172	0xbdc2e280	-0.09515858
173	0x3ebf61ba	0.37379247
174	0x3e302788	0.1720258
175	0xbe293838	-0.16525352
176	0x3cffcc04	0.031225212
177	0x3d4f9c0c	0.050685927
178	0xbe4ebf93	-0.20190267
179	0x3e8171b9	0.25282076
180	0x3e169b99	0.14707793
181	0x3ed1aecc	0.40953672
182	0x3e4aeeda	0.19817677
183	0xbe811c41	-0.2521687
184	0xbe968bea	-0.2940362
185	0x3d9fcf30	0.0780319
186	0x3e84ba9a	0.25923616
187	0x3ea1bb00	0.31587982
188	0xbe6b75a0	-0.22994089
189	0xbe800c35	-0.25009313
190	0xbeaed6f6	-0.34148377
191	0x3ccce75a	0.02501266
192	0xbd892bb7	-0.06697791
193	0xbe050f98	-0.1299423
194	0x3e390e9e	0.18071982
195	0xbdb6259b	-0.088938914
196	0xbe8fc5fd	-0.2808074
197	0xbe575a16	-0.21030459
198	0xbe8c4650	-0.27397394
199	0xbe52f395	-0.20600732
200	0x3eb0651c	0.3445214
201	0xbd94fa2e	-0.072742805
202	0xbd031512	-0.032002516
203	0x3e8e7000	0.27819824
204	0x3d9ec36b	0.07752117
205	0xbe49fb58	-0.19724786
206	0xbdc33a1a	-0.09532566
207	0x3e0ab546	0.13545713
208	0x3dffa125	0.12481908
209	0xbe9aa259	-0.30201986
210	0xbe349c41	-0.17637731
211	0x3d88f125	0.0668662
212	0xbe8bffa8	-0.27343488
213	0xbdde1807	-0.108444266
214	0xbd22c91f	-0.039742585
215	0x3e858122	0.26075083
216	0xbdae4694	-0.085095555
217	0xbd8565f0	-0.06513584
218	0x3e327316	0.17426714
219	0x3e82ddf9	0.25559977
220	0xbdec10ba	-0.11526628
221	0xbce0019d	-0.02734452
222	0x3d0a0b74	0.03370233
223	0xbe96f068	-0.2948029
224	0x3ea76efe	0.32701868
225	0xbe17faac	-0.14841717
226	0x3ea7f01e	0.32800382
227	0xbc47870f	-0.012178197
228	0xbe4ea217	-0.2017902
229	0x3ec579aa	0.38569385
230	0x3e956a98	0.29182887
231	0xbdc03725	-0.09385518
232	0x3c93a179	0.018021332
233	0x3e1ce91c	0.15323299
234	0xbb8d1334	-0.0043052677
235	0xbe59e82a	-0.2127997
236	0x3decf8ad	0.11570869
237	0x3ea1992a	0.31562167
238	0xbe6c0052	-0.23046997
239	0x3e8f707f	0.28015515
240	0x3eab37be	0.33440965
241	0xbddb7db6	-0.10717337
242	0x3e60593e	0.21909043
243	0xbe2d0420	-0.16896105
244	0x3e6dc68f	0.23220275
245	0xbec15bc4	-0.37765324
246	0x3e73851c	0.23781246
247	0xbeb38d37	-0.35068676
248	0xbe26b7eb	-0.16281097
249	0x3e8f81ab	0.28028616
250	0x3dbbd638	0.09171718
251	0x3e788ee7	0.24273263
252	0x3dfd8d3a	0.123804525
253	0x3da8aabe	0.082356915
254	0xbe8e5928	-0.27802396
255	0x3e16bd62	0.14720681

encoder.2.weight f4 [128, 256]
0	0x3a9c828d	0.0011940763
1	0xbcc23c89	-0.023710506
2	0x3d85fe5c	0.06542656
3	0x3d5b65e8	0.053563982
4	0x3c751e6b	0.0149608655
5	0x3c87e260	0.016587436
6	0x3d4d5927	0.05013385
7	0x3cfef0c8	0.031120673
8	0x3d3da06f	0.04629558
9	0x3cb599c0	0.02216804
10	0x3c49b807	0.012311942
11	0xbb8ffbb1	-0.0043940176
12	0xbd356104	-0.044281974
13	0x3d02aac9	0.031901155
14	0x3d6e5afa	0.05819223
15	0x3b2135b8	0.002459867
16	0x3c07ab32	0.008280562
17	0xbd45bc17	-0.04827508
18	0x3d2800e6	0.04101648
19	0xbcefbaa2	-0.029263798
20	0xbc3ed5d0	-0.011647657
21	0xbbfff604	-0.00781131
22	0x3c97f8d0	0.01855126
23	0x3cdf5d5b	0.027266195
24	0xbcc0104c	-0.023445271
25	0xbc29ed0d	-0.010371459
26	0xbd884406	-0.066535994
27	0xbba456ea	-0.005015244
28	0xbd14acc7	-0.036297586
29	0xbd97918f	-0.0740081
30	0xbacd5697	-0.0015666065
31	0xbd334bee	-0.043773584
32	0xbca2e684	-0.019885309
33	0xbd8aa87a	-0.067704156
34	0xbbb5f8cd	-0.005553341
35	0x3d90552a	0.07047494
36	0x3bf6bcef	0.007529847
37	0x3d653858	0.055961937
38	0xbc97b1b4	-0.018517353
39	0xbcc1a457	-0.023637934
40	0x3d5e2740	0.05423665
41	0xbd2f9e40	-0.04287553
42	0xbd5ca7ee	-0.053871088
43	0xbd5dc083	-0.05413867
44	0x3d6acaed	0.05732243
45	0x3d56dae8	0.05245486
46	0x3ac3e242	0.001494475
47	0x3d89cb67	0.06728249
48	0x3c82c8a3	0.015964812
49	0x3c44e6f0	0.01201795
50	0x3d3ba4dc	0.04581152
51	0x3d903756	0.070418045
52	0xbd6e6de7	-0.05821028
53	0x3cabc9af	0.020970194
54	0x3ccb15ae	0.024790611
55	0xbd3944d0	-0.04523164
56	0xbd3f7c40	-0.046749353
57	0x3da107ed	0.0786284
58	0xbd6756bc	-0.0564792
59	0x3b384242	0.0028115665
60	0xbd158ce7	-0.036511328
61	0xbd71f1ba	-0.05906842
62	0x3d7d466f	0.06183475
63	0x3ca9a81b	0.020710042
64	0x3c3e938f	0.01163186
65	0x3ceecba5	0.02914984
66	0x3c2ffb97	0.010741136
67	0x3ca1b2e8	0.01973863
68	0xbc1747a4	-0.009233389
69	0x3cb57921	0.022152485
70	0x3be02133	0.006839895
71	0x3cb979e3	0.022641128
72	0xbc2008b7	-0.009767703
73	0xbc1d6c65	-0.009608363
74	0x3d23bf26	0.039977215
75	0xbc4f9dbb	-0.012671883
76	0x3b495297	0.0030719393
77	0x3b994805	0.004677775
78	0x3cb7bbae	0.02242836
79	0x3d137f28	0.036009938
80	0xbc6ab598	-0.014325522
81	0xbc22dd96	-0.0099405255
82	0xbcb89b2c	-0.02253493
83	0x3c12ce7b	0.008960362
84	0xbd9ac58e	-0.07557212
85	0xbc3816f8	-0.011235945
86	0x3d0329e8	0.032022387
87	0xbd271ec2	-0.040800817
88	0x3d7a5228	0.061113507
89	0x3cbfb99b	0.023403933
90	0x3d3e390d	0.046441127
91	0xbbcbf4a7	-0.006224233
92	0xbd5f71a4	-0.054551736
93	0xbbec153b	-0.0072046793
94	0xbd3505a7	-0.044194844
95	0xbc142f62	-0.0090445
96	0x3bdd5f9f	0.0067557837
97	0x3cc55a06	0.024090778
98	0x3cf9cd30	0.030493349
99	0x3d590743	0.05298544
100	0xbc10cd7c	-0.008838054
101	0xbc79063b	-0.015199239
102	0xbc6a1d94	-0.014289279
103	0x3d5ae52b	0.053441208
104	0xbc8f63d8	-0.017503664
105	0xbcab6deb	-0.020926436
106	0xbcba87e9	-0.022769885
107	0xbca667b7	-0.020313127
108	0xbd03eef8	-0.03221032
109	0xbcc9d2ab	-0.024636587
110	0x3d09e7cd	0.033668328
111	0x3c6852cd	0.0141798975
112	0x3c828eb1	0.015937181
113	0x3bf0785b	0.0073385662
114	0xba1b4dd8	-0.00059243804
115	0x3d0b92d5	0.034075577
116	0xbd17b41a	-0.037036993
117	0xbd4b5a1b	-0.04964648
118	0x3c729f9c	0.014808562
119	0x3c4fdb7f	0.012686609
120	0xbb94628d	-0.0045283497
121	0xbc309c5b	-0.010779466
122	0x3d79bbd1	0.06097013
123	0x3d13864d	0.03601675
124	0xbd0c8ed4	-0.0343159
125	0x3c70304f	0.014659955
126	0xbc51bb11	-0.012800948
127	0xbce48a2d	-0.027897919
128	0x3c7da63e	0.01548153
129	0x3d81b99a	0.06334229
130	0x3d08c27e	0.033388607
131	0x3d69f734	0.057120517
132	0x3ca52357	0.020158453
133	0xbdf5f9a1	-0.120105036
134	0x3c710133	0.014709759
135	0x3cc4d84c	0.02402892
136	0x3d31ab02	0.043375976
137	0x3db420cd	0.08795319
138	0xbc8d3c42	-0.017240647
139	0xbc0b739f	-0.008511453
140	0xbc693962	-0.014234873
141	0x3d6b0288	0.05737546
142	0x3d262f02	0.040572174
143	0x3ca9a346	0.020707738
144	0xb88d0be5	-6.7256195e-05
145	0xbd881abd	-0.06645725
146	0x3c0d86d9	0.008638107
147	0xbcd04ff4	-0.02542875
148	0xbd5d74c2	-0.054066427
149	0xbcd2921f	-0.025704442
150	0x3c9564ae	0.018236484
151	0x3d050f21	0.03248513
152	0xbd565640	-0.05232835
153	0xbb79c105	-0.0038109433
154	0xbd9fb4ad	-0.07798133
155	0xbafc5805	-0.0019252306
156	0x3ab1b5a3	0.001355816
157	0x3d481b00	0.048853874
158	0x3bab2b64	0.0052236784
159	0x3ca7e5ea	0.020495374
160	0xbc4f80bf	-0.012664973
161	0x3c8c0e25	0.017096588
162	0x3c81f3e7	0.015863372
163	0x3cfdb6f2	0.030971024
164	0xbcec6c1c	-0.028860144
165	0xbc50048b	-0.012696396
166	0xbd0a61df	-0.033784743
167	0xbb0173e1	-0.0019752907
168	0x3ce07594	0.027399816
169	0xbd653c74	-0.055965856
170	0x3bf35690	0.0074260905
171	0x3c174c34	0.009234477
172	0x3da8c9bb	0.08241602
173	0x3d210406	0.039310478
174	0x3d18f279	0.037340615
175	0x3d528a97	0.0514017
176	0xbda281e8	-0.07934934
177	0x3b0a621a	0.0021115602
178	0xbd0dc93a	-0.034615733
179	0x3c01ca7f	0.007921814
180	0xbc8b00fd	-0.016968245
181	0xbd3e1b77	-0.04641291
182	0x3cf756e0	0.030192792
183	0xbc988745	-0.018619189
184	0xbce5c98c	-0.028050207
185	0x3c3b8c93	0.01144709
186	0x3c0e9109	0.008701571
187	0x3cf1bb6c	0.029508315
188	0x3d3b4bd7	0.045726623
189	0xbdb99002	-0.090606704
190	0xbd6559f7	-0.055994
191	0xbcc6ae78	-0.024253115
192	0xbd4ad1b9	-0.049516413
193	0xbd3e54fc	-0.046467766
194	0x3c07a803	0.008279803
195	0x3c84aa2d	0.016194427
196	0x3d8a2fdf	0.06747412
197	0xbe1dfd4f	-0.15428661
198	0xbcce35de	-0.02517217
199	0x3d42ff3c	0.04760669
200	0xbd77e358	-0.060519546
201	0x3d141238	0.036150187
202	0xbba1d5a7	-0.0049387994
203	0x3cc69544	0.024241097
204	0x3cae7777	0.0212972
205	0x3c8b17e8	0.016979173
206	0x3a5a8826	0.0008336328
207	0xbcdd7b34	-0.027036287
208	0xbd076428	-0.0330545
209	0xbd57128b	-0.05250792
210	0x3da57beb	0.08080276
211	0xbca2e32b	-0.019883713
212	0x3ca56f90	0.020194799
213	0xbd01bb08	-0.031672508
214	0xbd4fc829	-0.050727997
215	0xbc28888c	-0.010286462
216	0xbc753790	-0.01496686
217	0xbc40b1ce	-0.011761142
218	0x3cd2922b	0.025704464
219	0x3bf5ebe6	0.007504928
220	0x3cd5fb2d	0.026120747
221	0x3d527884	0.051384464
222	0x3d6db687	0.0580354
223	0x3d809b84	0.06279662
224	0xbc43148f	-0.011906757
225	0x3c8489a8	0.01617892
226	0xbcc42385	-0.023942718
227	0x3bc198f4	0.005908126
228	0x3d9a87f0	0.07545459
229	0x3d7d04fc	0.06177233
230	0x3c1a3375	0.009411682
231	0xbbd1a172	-0.0063974196
232	0xbd6b7b38	-0.057490557
233	0x3cec74e8	0.028864339
234	0xbda0ef16	-0.07858102
235	0x3d2518b5	0.040306766
236	0x3d5309a3	0.051522862
237	0x3d2e885a	0.042610504
238	0xbd2f1b10	-0.04275042
239	0x3ca4cd1b	0.020117333
240	0x3bc94d66	0.00614326
241	0x3cceba96	0.025235455
242	0x3db02b8e	0.086020574
243	0xbb4c1660	-0.0031141266
244	0x3c3b2f20	0.01142481
245	0x3c697052	0.014247971
246	0xbccd5bf2	-0.025068257
247	0xbd2bdf52	-0.04196102
248	0x3c854758	0.01626937
249	0x3bf64fef	0.007516853
250	0x3cfdf70c	0.03100159
251	0x3ccee828	0.025257185
252	0x3c7c454a	0.015397379
253	0x3d10b5b9	0.035329554
254	0xbccb256d	-0.02479812
255	0xbb8e9ebf	-0.00435242

encoder.2.bias f4 [128]
0	0x3cc5c6fe	0.024142738
1	0xbd1d740a	-0.03844074
2	0x3d30d9d8	0.043176502
3	0xbd20c865	-0.03925361
4	0x3cb69f10	0.022292644
5	0xbc96b4ee	-0.01839682
6	0xbd239f59	-0.039946888
7	0xbd4f3bdf	-0.050594207
8	0xbc3b4b1f	-0.0114314845
9	0xbd855de4	-0.06512049
10	0x3d375263	0.044756304
11	0x3d16df21	0.036833886
12	0xbccc01f5	-0.024903277
13	0x3cd70d9a	0.026251603
14	0xbd954949	-0.07289369
15	0x3cb12437	0.021623714
16	0x3d7e3a06	0.062067054
17	0x3b4c59a0	0.003118135
18	0x3d16506b	0.036697786
19	0x3d616d26	0.055035733
20	0xbd62aac7	-0.055338647
21	0x3cfa4ad4	0.030553259
22	0xbbf32a75	-0.0074208328
23	0xbbc51819	-0.0060148356
24	0x3d1cf415	0.038318712
25	0x3b07e74b	0.0020737227
26	0xbd86737f	-0.06564998
27	0xbce580d4	-0.028015532
28	0x3d7aff2f	0.06127852
29	0xbb193cb5	-0.0023382131
30	0xbc82492c	-0.015904032
31	0xbc6bbb77	-0.014387957
32	0x3c485b20	0.012228757
33	0xbc3812c6	-0.011234945
34	0x3cde7e8d	0.027159953
35	0xbb7b0d90	-0.0038307644
36	0xbd200165	-0.03906383
37	0x3d04c8b6	0.032417975
38	0x3d2cdd8e	0.04220348
39	0x3d5bc60d	0.053655673
40	0x3cf2fd9c	0.029661946
41	0x3d7e5bf4	0.062099412
42	0x3d8e5fe4	0.069518834
43	0xbcaf7c17	-0.021421475
44	0x3ccb56bd	0.024821633
45	0x3c4913bd	0.012272772
46	0xbd58d344	-0.052935854
47	0xbd23f992	-0.04003293
48	0xbc3d15e3	-0.011540863
49	0xbd2b0ec1	-0.041762117
50	0x3d1c99e2	0.03823269
51	0xbcf265fb	-0.029589644
52	0x3c83834f	0.016053824
53	0xbcac8e20	-0.021063864
54	0xbd10f409	-0.03538898
55	0xbc50fd89	-0.01275576
56	0x3c9e58d9	0.019329475
57	0xbd6c8a6c	-0.057749197
58	0xbd078e14	-0.03309448
59	0x3ce38a3e	0.02777588
60	0x3d502940	0.05082059
61	0x3d0cc64a	0.03436879
62	0x3c97ddb9	0.018538343
63	0xbd56062f	-0.05225199
64	0x3d0d317a	0.034471013
65	0x3d582d73	0.05277772
66	0x3c015566	0.007893896
67	0x3d1bbd46	0.038022302
68	0x3d605edc	0.054777965
69	0xbd7b038b	-0.061282676
70	0x3d1f31d8	0.038865894
71	0x3d0d0ad8	0.03443417
72	0xbd515dec	-0.05111496
73	0xbc3ae559	-0.01140722
74	0x3cdfaa09	0.027302759
75	0x3ca0545e	0.01957148
76	0x3d2e996d	0.042626787
77	0x3d1e70e2	0.038681872
78	0xbd5d9fd5	-0.054107506
79	0x3c8f4bf4	0.017492272
80	0x3d98a846	0.074539706
81	0xbd503107	-0.050828006
82	0x3b47be88	0.0030478556
83	0x3af680f7	0.0018806745
84	0xbc8a19f8	-0.016858086
85	0x3d69f382	0.057116993
86	0x3d0c89ab	0.034310978
87	0x3ce2aefc	0.02767133
88	0xbc97fb43	-0.018552428
89	0x3cd53b60	0.026029289
90	0xbc8b735f	-0.017022787
91	0xbd774337	-0.060366835
92	0xbb156dac	-0.0022800965
93	0x3d7f79e9	0.062372122
94	0xbd1384c4	-0.036015287
95	0xbcabfc32	-0.02099428
96	0xbd4b6d8b	-0.049665015
97	0x3d5a4b22	0.05329431
98	0xbd00ac1d	-0.03141414
99	0xbc9e1af8	-0.01929997
100	0x3cf44e12	0.029822383
101	0xbd6fba22	-0.05852712
102	0xbd5df228	-0.054186016
103	0x3d384c38	0.044994563
104	0x3d05d3aa	0.03267256
105	0x3b99a58b	0.0046889237
106	0xbbfea895	-0.0077715614
107	0xbd89e79c	-0.06733629
108	0x3d3497d7	0.04409012
109	0xbb86c68d	-0.0041130246
110	0x3b0690c3	0.0020533062
111	0xbd355636	-0.04427167
112	0x3c6633a3	0.014050397
113	0x3d6e8d66	0.058240317
114	0x3d6202c5	0.055178422
115	0x3c83f743	0.016109115
116	0xbca6bc5d	-0.02035349
117	0x3cdea2a7	0.027177168
118	0x3d075e67	0.033049013
119	0x3d35838f	0.044314917
120	0x3d1f4597	0.038884725
121	0x3c651c49	0.0139837945
122	0x3b57cda3	0.0032928966
123	0x3c6d20b6	0.014473131
124	0x3ccb2b17	0.02480082
125	0x3bf8e977	0.0075961906
126	0xbd2a82dd	-0.041628707
127	0x3d0908b0	0.03345555

l1.weight f4 [64, 128]
0	0xbe674226	-0.22583827
1	0x3d9679b8	0.07347435
2	0x3d815949	0.06315858
3	0xbd455eed	-0.04818623
4	0x3cb87557	0.02251689
5	0xbde70e14	-0.11281982
6	0x3c844f11	0.016150983
7	0xbd356c5c	-0.044292793
8	0xbd440a1c	-0.047861204
9	0xbda222be	-0.07916783
10	0xbcc49df6	-0.024001103
11	0x3ddbf24b	0.10739573
12	0x3da38de7	0.0798605
13	0xbd5a2862	-0.05326117
14	0xbe194ac7	-0.14969932
15	0xbce4fe16	-0.027953189
16	0x3da74cf5	0.08168975
17	0x3d4030b3	0.046921443
18	0xbdb9b201	-0.09067155
19	0xbd82ebf8	-0.06392664
20	0x3dad137d	0.08450983
21	0x3e0921b1	0.13391759
22	0xbe4b8b8f	-0.19877456
23	0xbbd8d5e8	-0.0066172965
24	0xbd4e3a51	-0.050348584
25	0xbd206b40	-0.03916478
26	0x3cbc3334	0.022973634
27	0xbda922d1	-0.08258594
28	0x3e439027	0.19097959
29	0xbe1363b6	-0.14393505
30	0xbd36e65c	-0.04465328
31	0xbc8dcb45	-0.01730884
32	0xbdb12e63	-0.08651426
33	0xbd86a8dc	-0.06575176
34	0xbbaefe88	-0.005340401
35	0x3de5b580	0.11216259
36	0xbdc373e3	-0.09543588
37	0x3e71ff50	0.2363255
38	0x3db62afe	0.08894919
39	0x3bebe528	0.0071989484
40	0xbe0f7f9b	-0.14013521
41	0xbcef0de5	-0.02918143
42	0xbd3f75f3	-0.046743345
43	0xbe0df345	-0.13862331
44	0x3c00f478	0.007870786
45	0xbd007af2	-0.03136725
46	0xbd89401c	-0.06701681
47	0xbd0822d5	-0.033236343
48	0x3d3277da	0.04357133
49	0x3e1b1b9e	0.15147254
50	0xbe0736ea	-0.13204542
51	0xbc7284b3	-0.014802146
52	0xbd02786f	-0.031853136
53	0x3d180c7b	0.037121277
54	0xbb852096	-0.0040627224
55	0x3d2fc2e2	0.042910464
56	0x3d56bff4	0.052429155
57	0xbcc0c6ea	-0.02353235
58	0x3e04ba38	0.12961662
59	0x3dfecaf8	0.12441057
60	0xbd8d2d93	-0.06893458
61	0xbd717496	-0.058949076
62	0xbd8cf2d1	-0.06882251
63	0x3bb57cad	0.005538544
64	0xbd06c252	-0.032900162
65	0xbde9bb60	-0.11412692
66	0xbddafb0d	-0.106924154
67	0x3e2887ee	0.16458103
68	0xbe0a5092	-0.13507298
69	0xbc11d1a3	-0.008900079
70	0x3dd5a944	0.104326755
71	0x3dfd4418	0.123665035
72	0x3e1b94ab	0.15193431
73	0xbd273000	-0.04081726
74	0xbc9cdb81	-0.019147636
75	0xbd91b60c	-0.07114801
76	0xbdb8a4fc	-0.09015843
77	0x3d2bd032	0.041946597
78	0x3cf09f13	0.029372727
79	0xbe3553e4	-0.17707783
80	0x3d6a7009	0.05723575
81	0xbd351559	-0.04420981
82	0x3e400679	0.18752469
83	0x3cbdf870	0.023189753
84	0xbe2ae958	-0.16690576
85	0x3db4c827	0.088272385
86	0x3d95fa14	0.07323089
87	0xbc142d1d	-0.009043959
88	0x3dbb9e3d	0.09161041
89	0x3d308d99	0.043103788
90	0x3d6969b2	0.056985565
91	0x3da96fd1	0.082732804
92	0xbd4ec4ef	-0.05048078
93	0xbd5f1d3e	-0.054471247
94	0xbd165b67	-0.03670826
95	0x3e45f1ca	0.19330516
96	0xbe1b5ef9	-0.15172948
97	0xbd6dfb5b	-0.05810104
98	0x3d95e598	0.07319182
99	0x3c187321	0.009304793
100	0xbdb2152e	-0.08695446
101	0x3d72bc6d	0.059261728
102	0xbd16886b	-0.036751192
103	0x3e09fe58	0.1347593
104	0x3d446246	0.047945283
105	0xbd7f7d48	-0.062375337
106	0x3d46f90b	0.04857735
107	0xbe2a849a	-0.16652146
108	0x3c7ca1cc	0.015419435
109	0xbd3785fb	-0.044805508
110	0xbcfdcc31	-0.030981155
111	0xbd853b05	-0.06505398
112	0x3d79ea07	0.0610142
113	0x3e320dcb	0.17388074
114	0x3ce6a552	0.028155003
115	0x3d4dabe6	0.050212763
116	0x3d9ab4f9	0.07554049
117	0xbda3ccec	-0.0799807
118	0xbcb3eca9	-0.021963434
119	0xbce6223f	-0.028092502
120	0xbc1eaa68	-0.009684183
121	0x3d5bf722	0.05370248
122	0x3d58178c	0.05275683
123	0x3b934154	0.0044938717
124	0xbd5dad71	-0.054120485
125	0x3d20e747	0.039283063
126	0x3c9fd613	0.019511258
127	0x3dfffb3e	0.124990925
128	0xbba5b49b	-0.0050569302
129	0x3d8db9bb	0.06920191
130	0xbb7d0215	-0.0038605977
131	0xbe1cd301	-0.15314867
132	0xbdde2250	-0.10846388
133	0x3bc79181	0.0060903435
134	0x3e3150a3	0.17315917
135	0x3e1d1c43	0.15342812
136	0xbd8fdd86	-0.07024674
137	0x3d98f672	0.07468881
138	0xbb042d7d	-0.0020168715
139	0x3cd2c517	0.025728745
140	0x3cef6c7d	0.029226536
141	0x3d42be56	0.0475448
142	0xbd313e45	-0.043272275
143	0xbe7042cd	-0.23462982
144	0x3d4f471d	0.05060493
145	0x3c99e6a2	0.018786732
146	0xbe0f39b5	-0.13986857
147	0xbcd36490	-0.025804788
148	0x3df19985	0.1179686
149	0x3a9e230e	0.001206489
150	0xbd9733f6	-0.07382958
151	0x3c4955ba	0.012288505
152	0xbd8e1be4	-0.069389135
153	0x3cbfd487	0.02341677
154	0x3e26c488	0.16285908
155	0x3e0f159d	0.13973089
156	0x3d51266c	0.051062033
157	0x3d882885	0.066483535
158	0xbc4014bf	-0.011723696
159	0xbe61c46e	-0.22047588
160	0x3d02c2f1	0.03192419
161	0x3d210195	0.03930815
162	0xbcff3f14	-0.031158008
163	0xbda3607e	-0.07977389
164	0x3abebf57	0.0014552873
165	0x3c70c6e8	0.01469586
166	0x3e9ee3cb	0.31033167
167	0x3da482cc	0.0803276
168	0xbd9e8af2	-0.077413455
169	0x3d858e00	0.06521225
170	0x3e18e43c	0.14930815
171	0x3a906908	0.001101763
172	0x3c9fb544	0.019495614
173	0xbd940f90	-0.07229531
174	0x3dd853de	0.105628714
175	0xbda32eda	-0.079679206
176	0xbd83ea93	-0.06441226
177	0xbd4d7fcb	-0.0501707
178	0xbe29e659	-0.16591777
179	0xbca73316	-0.020410102
180	0x3de7d9a6	0.1132081
181	0x3cd3bb25	0.025846073
182	0x3d569ef8	0.0523977
183	0xbc12350e	-0.008923782
184	0xbdf45e4f	-0.119320504
185	0xbdc04513	-0.09388175
186	0x3df09520	0.11747193
187	0x3da461fc	0.080265015
188	0xbdd4ad0e	-0.1038457
189	0xbc6a5201	-0.014301778
190	0x3dfefc2c	0.12450442
191	0xbe3d2bcd	-0.1847374
192	0x3dd2d027	0.10293608
193	0xbd171873	-0.03688855
194	0x3db85595	0.090006985
195	0xbd1e3288	-0.03862241
196	0x3dae0682	0.08497335
197	0x3d0bcd9b	0.034131628
198	0x3d236698	0.039892763
199	0xbd8105f1	-0.06299961
200	0xbd228277	-0.039675202
201	0xbdb3632c	-0.0875915
202	0x3d09d0c6	0.033646367
203	0x3d7f5191	0.062333647
204	0x3d8c09d5	0.06837813
205	0x3d840293	0.064458035
206	0x3c71525b	0.014729108
207	0xbdbbfdf2	-0.091792956
208	0x3cd4595d	0.025921518
209	0xbdd2ab83	-0.102866195
210	0xbd490bdf	-0.049083587
211	0x3e237d5e	0.15965793
212	0x3daf076f	0.0854634
213	0xbe31affe	-0.17352292
214	0xbd987daf	-0.07445847
215	0x3c424ba1	0.011858852
216	0xbe1cd4b2	-0.15315512
217	0xbd32d0eb	-0.04365627
218	0x3d71f767	0.059073832
219	0x3d7016b1	0.05861539
220	0xbd3ff309	-0.046862636
221	0x3d823f1e	0.06359695
222	0x3c308f61	0.010776372
223	0xbd763f1b	-0.060118776
224	0x3deb4d34	0.11489335
225	0x3d4163f8	0.04721448
226	0x3d5d1eaf	0.05398434
227	0x3cf9a1b8	0.030472621
228	0xbd6cb767	-0.057792094
229	0x3d210784	0.039313808
230	0xbda176a8	-0.0788396
231	0xbe2342a4	-0.1594339
232	0x3c292413	0.010323542
233	0xbd6b7483	-0.05748416
234	0xbcf3ad68	-0.029745772
235	0xbe04461b	-0.12917368
236	0xbc8cbeb3	-0.017180776
237	0xbd98ce6b	-0.07461246
238	0x3cf88fa6	0.030341934
239	0x3de4f15f	0.111788504
240	0x3db5a341	0.08869029
241	0xbd807763	-0.06272771
242	0xbcf851fb	-0.030312529
243	0x3c3595b4	0.011083055
244	0xbd7317aa	-0.05934874
245	0x3d85e8df	0.06538557
246	0xbd1146bb	-0.035467844
247	0xbd42f0ec	-0.047593042
248	0xbcba7edd	-0.022765571
249	0x3d914799	0.07093734
250	0x3e0b15eb	0.1358258
251	0xbd15a151	-0.036530796
252	0xbdaa0ad1	-0.08302844
253	0xbdcb8ec4	-0.0993934
254	0x3ceb4add	0.028722221
255	0xbd7c748d	-0.06163459

l1.bias f4 [64]
0	0x3ad59759	0.0016295715
1	0x3b00d702	0.0019659405
2	0xbb2480c6	-0.002510117
3	0xb6eac1cd	-6.996305e-06
4	0x3ab6446d	0.001390589
5	0x3b02d13c	0.001996114
6	0xba4858ac	-0.00076426077
7	0xbb2d399d	-0.0026432045
8	0xb8c2a78e	-9.28185e-05
9	0xbafc6c0c	-0.0019258275
10	0x39b208f9	0.0003395749
11	0xba92b969	-0.0011194173
12	0xba7055d1	-0.0009168061
13	0xb8bbcdcb	-8.955187e-05
14	0x3a7f51fc	0.00097396947
15	0x3a8446c3	0.0010091889
16	0xbc3bfd7d	-0.011474011
17	0x3a24d7e8	0.0006288276
18	0xbaaacd93	-0.0013031237
19	0xba6273e7	-0.00086384866
20	0x3a8c1169	0.0010686341
21	0xb970de31	-0.00022970956
22	0xba321960	-0.00067939423
23	0x39ab3030	0.00032651564
24	0xbb09a93b	-0.002100541
25	0xbb772d53	-0.0037716224
26	0x3b13d210	0.0022555627
27	0x3a53b209	0.00080755405
28	0x38d7a8c0	0.00010283431
29	0xbbed1db6	-0.007236208
30	0x3a8fddb3	0.0010976106
31	0x39967d63	0.0002870365
32	0x3a4318e1	0.0007442367
33	0x3ad26ddc	0.0016054469
34	0xba1abf42	-0.00059031334
35	0x3abf0780	0.0014574379
36	0x3b196c37	0.0023410448
37	0xba39937d	-0.00070791674
38	0xba651f95	-0.0008740363
39	0xb9a681df	-0.0003175875
40	0xbac9feba	-0.0015410997
41	0xbaf7b785	-0.0018899298
42	0x3ac8c0b1	0.0015316216
43	0xbad4424b	-0.0016194073
44	0xba95b2ae	-0.0011421049
45	0x386cfe44	5.6503588e-05
46	0x3adc4ff7	0.0016808499
47	0x3ab93a7b	0.0014131808
48	0x3a5ebfc8	0.00084972056
49	0xb98212be	-0.00024809496
50	0xb9bc42c2	-0.00035907893
51	0x3a22c476	0.00062090845
52	0x3ad7d926	0.0016467914
53	0x3a935ca2	0.0011242817
54	0x39074668	0.00012900832
55	0xbad1ad35	-0.0015997054
56	0x3aaf9435	0.001339561
57	0x3acb7fe0	0.0015525781
58	0x3a5c594b	0.00084056397
59	0x3ab34521	0.0013677218
60	0xb9946f12	-0.00028311514
61	0x3b1c9bf9	0.0023896678
62	0x3b0d4d04	0.0021560797
63	0xba8adfb0	-0.0010595229

l2.weight f4 [2, 64]
0	0x3e0f0e17	0.13970219
1	0x3cf1886a	0.029483993
2	0x3d0703b8	0.03296253
3	0x3d4c5a31	0.0498907
4	0x3df5f328	0.12009269
5	0xb71b3e73	-9.25326e-06
6	0x3dd5651d	0.104196765
7	0x3d2add84	0.04171516
8	0x3e385d0f	0.18004249
9	0xbe1fd380	-0.15608025
10	0x3da12953	0.0786921
11	0xbe3095ad	-0.17244597
12	0xbe0eaaea	-0.13932386
13	0x3d84c384	0.06482604
14	0x3d9af9f5	0.07567207
15	0xbe5582f1	-0.20850731
16	0x3d2a7940	0.04161954
17	0x3e071dcd	0.13194962
18	0x3cb70006	0.022338878
19	0xbc4c23f9	-0.012459748
20	0xbe46955a	-0.1939291
21	0xbdcadfbd	-0.09905956
22	0xbe26f9f2	-0.16306284
23	0xbe00aa4c	-0.12564963
24	0xbe01f894	-0.12692481
25	0x3daf8a8d	0.08571348
26	0xbbc33dc8	-0.0059582926
27	0xbd68cb31	-0.056834403
28	0xbe0b95e4	-0.13631397
29	0x3e238643	0.15969186
30	0x3e16fc77	0.14744745
31	0x3d8980fd	0.06714056
32	0x3d2ee87a	0.042702176
33	0xbe3afd29	-0.18260635
34	0xbe353ad2	-0.1769822
35	0xbdeed3ab	-0.11661466
36	0x3e5d75d9	0.21626987
37	0xbdfbebaf	-0.123008125
38	0xbe722722	-0.2364774
39	0xbe334a0e	-0.17508718
40	0xbde4f615	-0.11179749
41	0x3e7bc221	0.24585773
42	0x3c5beb4a	0.0134227965
43	0xbd44ea1c	-0.048074827
44	0xbb1968a2	-0.0023408313
45	0xbe917869	-0.28412178
46	0x3da6a5ce	0.081370935
47	0x3e500481	0.20314218
48	0x3d476d6a	0.04868833
49	0xbd65569a	-0.055990793
50	0xbe86892d	-0.26276532
51	0x3d269694	0.040670946
52	0x3e281b01	0.16416551
53	0x3d048578	0.03235385
54	0x3d79b5bf	0.060964342
55	0x3d1e84bb	0.0387008
56	0x3da2b4a4	0.07944611
57	0x3d351d01	0.044217113
58	0xbb03f73a	-0.0020136372
59	0x3d029498	0.03187999
60	0x3b704585	0.003666253
61	0xbbb886bb	-0.0056312955
62	0x3e006b19	0.12540855
63	0xbe852881	-0.26007465
64	0xbd9440dc	-0.072389334
65	0xbd9950f4	-0.07486144
66	0x3cacb806	0.021083843
67	0x3e1244fc	0.14284128
68	0xbe9c18df	-0.30487725
69	0xbd64cf2c	-0.055861637
70	0x3d461037	0.048355307
71	0x3d95beb5	0.07311765
72	0xbc8ce0c6	-0.017197024
73	0x3e8b8e76	0.27257127
74	0x3cdbf3ba	0.026849616
75	0x3e24efd7	0.16107117
76	0x3d4dfbfa	0.05028913
77	0x3c7a4f2d	0.015277666
78	0x3d13d62c	0.036092922
79	0x3cdfcc37	0.027319057
80	0x3cec0a6f	0.028813569
81	0xbe16491f	-0.14676331
82	0x3e2b84ce	0.1674988
83	0x3e3c371e	0.183804
84	0xb9d9b477	-0.00041523922
85	0xbd5a08d2	-0.053231068
86	0xbd5b1f52	-0.053496666
87	0xbd4b182c	-0.0495836
88	0x3d57e9a0	0.052713037
89	0x3e0d8d4e	0.13823435
90	0xbdfcf9b8	-0.123523176
91	0x3bd6910e	0.0065480536
92	0xbd8555f6	-0.065105364
93	0x3e1a0db6	0.15044293
94	0x3de2c529	0.110727616
95	0xbe1de960	-0.15421057
96	0xbd7dd386	-0.061969303
97	0xbbc59abb	-0.006030408
98	0x3dde73ec	0.10861954
99	0xbe68be47	-0.22728835
100	0x3cf5d6c3	0.030009633
101	0x3d9bfbee	0.07616411
102	0xbc2b4303	-0.010452989
103	0xbd19efe1	-0.037582282
104	0x3ccc0c2c	0.024908148
105	0x3e4839b0	0.19553256
106	0xbe123d69	-0.14281239
107	0x3e16f500	0.14741898
108	0xbe1d288b	-0.15347497
109	0x3d7d2c7e	0.06181001
110	0xbde6b9fd	-0.11265943
111	0xbd8fbb97	-0.07018202
112	0xbc8c1c5d	-0.017103368
113	0x3d6a1cb4	0.05715628
114	0xbeab2d2a	-0.33432895
115	0xbe302714	-0.17202407
116	0x3d250498	0.040287584
117	0xbead0d0e	-0.33799022
118	0x3e410024	0.1884771
119	0x3dba8223	0.09106853
120	0x3d39a7a1	0.04532588
121	0xbdfe90a8	-0.12429935
122	0xbd669719	-0.05629644
123	0xbd0eeea0	-0.03489554
124	0x3d8a18ec	0.06743035
125	0xbe0c624e	-0.13709375
126	0xbe7bc0f7	-0.24585329
127	0x3e1f5747	0.15560637

l2.bias f4 [2]
0	0x393d88da	0.00018075426
1	0xbac789b3	-0.0015223533

discrete_net.0.weight f4 [64, 128]
0	0xbe674226	-0.22583827
1	0x3d9679b8	0.07347435
2	0x3d815949	0.06315858
3	0xbd455eed	-0.04818623
4	0x3cb87557	0.02251689
5	0xbde70e14	-0.11281982
6	0x3c844f11	0.016150983
7	0xbd356c5c	-0.044292793
8	0xbd440a1c	-0.047861204
9	0xbda222be	-0.07916783
10	0xbcc49df6	-0.024001103
11	0x3ddbf24b	0.10739573
12	0x3da38de7	0.0798605
13	0xbd5a2862	-0.05326117
14	0xbe194ac7	-0.14969932
15	0xbce4fe16	-0.027953189
16	0x3da74cf5	0.08168975
17	0x3d4030b3	0.046921443
18	0xbdb9b201	-0.09067155
19	0xbd82ebf8	-0.06392664
20	0x3dad137d	0.08450983
21	0x3e0921b1	0.13391759
22	0xbe4b8b8f	-0.19877456
23	0xbbd8d5e8	-0.0066172965
24	0xbd4e3a51	-0.050348584
25	0xbd206b40	-0.03916478
26	0x3cbc3334	0.022973634
27	0xbda922d1	-0.08258594
28	0x3e439027	0.19097959
29	0xbe1363b6	-0.14393505
30	0xbd36e65c	-0.04465328
31	0xbc8dcb45	-0.01730884
32	0xbdb12e63	-0.08651426
33	0xbd86a8dc	-0.06575176
34	0xbbaefe88	-0.005340401
35	0x3de5b580	0.11216259
36	0xbdc373e3	-0.09543588
37	0x3e71ff50	0.2363255
38	0x3db62afe	0.08894919
39	0x3bebe528	0.0071989484
40	0xbe0f7f9b	-0.14013521
41	0xbcef0de5	-0.02918143
42	0xbd3f75f3	-0.046743345
43	0xbe0df345	-0.13862331
44	0x3c00f478	0.007870786
45	0xbd007af2	-0.03136725
46	0xbd89401c	-0.06701681
47	0xbd0822d5	-0.033236343
48	0x3d3277da	0.04357133
49	0x3e1b1b9e	0.15147254
50	0xbe0736ea	-0.13204542
51	0xbc7284b3	-0.014802146
52	0xbd02786f	-0.031853136
53	0x3d180c7b	0.037121277
54	0xbb852096	-0.0040627224
55	0x3d2fc2e2	0.042910464
56	0x3d56bff4	0.052429155
57	0xbcc0c6ea	-0.02353235
58	0x3e04ba38	0.12961662
59	0x3dfecaf8	0.12441057
60	0xbd8d2d93	-0.06893458
61	0xbd717496	-0.058949076
62	0xbd8cf2d1	-0.06882251
63	0x3bb57cad	0.005538544
64	0xbd06c252	-0.032900162
65	0xbde9bb60	-0.11412692
66	0xbddafb0d	-0.106924154
67	0x3e2887ee	0.16458103
68	0xbe0a5092	-0.13507298
69	0xbc11d1a3	-0.008900079
70	0x3dd5a944	0.104326755
71	0x3dfd4418	0.123665035
72	0x3e1b94ab	0.15193431
73	0xbd273000	-0.04081726
74	0xbc9cdb81	-0.019147636
75	0xbd91b60c	-0.07114801
76	0xbdb8a4fc	-0.09015843
77	0x3d2bd032	0.041946597
78	0x3cf09f13	0.029372727
79	0xbe3553e4	-0.17707783
80	0x3d6a7009	0.05723575
81	0xbd351559	-0.04420981
82	0x3e400679	0.18752469
83	0x3cbdf870	0.023189753
84	0xbe2ae958	-0.16690576
85	0x3db4c827	0.088272385
86	0x3d95fa14	0.07323089
87	0xbc142d1d	-0.009043959
88	0x3dbb9e3d	0.09161041
89	0x3d308d99	0.043103788
90	0x3d6969b2	0.056985565
91	0x3da96fd1	0.082732804
92	0xbd4ec4ef	-0.05048078
93	0xbd5f1d3e	-0.054471247
94	0xbd165b67	-0.03670826
95	0x3e45f1ca	0.19330516
96	0xbe1b5ef9	-0.15172948
97	0xbd6dfb5b	-0.05810104
98	0x3d95e598	0.07319182
99	0x3c187321	0.009304793
100	0xbdb2152e	-0.08695446
101	0x3d72bc6d	0.059261728
102	0xbd16886b	-0.036751192
103	0x3e09fe58	0.1347593
104	0x3d446246	0.047945283
105	0xbd7f7d48	-0.062375337
106	0x3d46f90b	0.04857735
107	0xbe2a849a	-0.16652146
108	0x3c7ca1cc	0.015419435
109	0xbd3785fb	-0.044805508
110	0xbcfdcc31	-0.030981155
111	0xbd853b05	-0.06505398
112	0x3d79ea07	0.0610142
113	0x3e320dcb	0.17388074
114	0x3ce6a552	0.028155003
115	0x3d4dabe6	0.050212763
116	0x3d9ab4f9	0.07554049
117	0xbda3ccec	-0.0799807
118	0xbcb3eca9	-0.021963434
119	0xbce6223f	-0.028092502
120	0xbc1eaa68	-0.009684183
121	0x3d5bf722	0.05370248
122	0x3d58178c	0.05275683
123	0x3b934154	0.0044938717
124	0xbd5dad71	-0.054120485
125	0x3d20e747	0.039283063
126	0x3c9fd613	0.019511258
127	0x3dfffb3e	0.124990925
128	0xbba5b49b	-0.0050569302
129	0x3d8db9bb	0.06920191
130	0xbb7d0215	-0.0038605977
131	0xbe1cd301	-0.15314867
132	0xbdde2250	-0.10846388
133	0x3bc79181	0.0060903435
134	0x3e3150a3	0.17315917
135	0x3e1d1c43	0.15342812
136	0xbd8fdd86	-0.07024674
137	0x3d98f672	0.07468881
138	0xbb042d7d	-0.0020168715
139	0x3cd2c517	0.025728745
140	0x3cef6c7d	0.029226536
141	0x3d42be56	0.0475448
142	0xbd313e45	-0.043272275
143	0xbe7042cd	-0.23462982
144	0x3d4f471d	0.05060493
145	0x3c99e6a2	0.018786732
146	0xbe0f39b5	-0.13986857
147	0xbcd36490	-0.025804788
148	0x3df19985	0.1179686
149	0x3a9e230e	0.001206489
150	0xbd9733f6	-0.07382958
151	0x3c4955ba	0.012288505
152	0xbd8e1be4	-0.069389135
153	0x3cbfd487	0.02341677
154	0x3e26c488	0.16285908
155	0x3e0f159d	0.13973089
156	0x3d51266c	0.051062033
157	0x3d882885	0.066483535
158	0xbc4014bf	-0.011723696
159	0xbe61c46e	-0.22047588
160	0x3d02c2f1	0.03192419
161	0x3d210195	0.03930815
162	0xbcff3f14	-0.031158008
163	0xbda3607e	-0.07977389
164	0x3abebf57	0.0014552873
165	0x3c70c6e8	0.01469586
166	0x3e9ee3cb	0.31033167
167	0x3da482cc	0.0803276
168	0xbd9e8af2	-0.077413455
169	0x3d858e00	0.06521225
170	0x3e18e43c	0.14930815
171	0x3a906908	0.001101763
172	0x3c9fb544	0.019495614
173	0xbd940f90	-0.07229531
174	0x3dd853de	0.105628714
175	0xbda32eda	-0.079679206
176	0xbd83ea93	-0.06441226
177	0xbd4d7fcb	-0.0501707
178	0xbe29e659	-0.16591777
179	0xbca73316	-0.020410102
180	0x3de7d9a6	0.1132081
181	0x3cd3bb25	0.025846073
182	0x3d569ef8	0.0523977
183	0xbc12350e	-0.008923782
184	0xbdf45e4f	-0.119320504
185	0xbdc04513	-0.09388175
186	0x3df09520	0.11747193
187	0x3da461fc	0.080265015
188	0xbdd4ad0e	-0.1038457
189	0xbc6a5201	-0.014301778
190	0x3dfefc2c	0.12450442
191	0xbe3d2bcd	-0.1847374
192	0x3dd2d027	0.10293608
193	0xbd171873	-0.03688855
194	0x3db85595	0.090006985
195	0xbd1e3288	-0.03862241
196	0x3dae0682	0.08497335
197	0x3d0bcd9b	0.034131628
198	0x3d236698	0.039892763
199	0xbd8105f1	-0.06299961
200	0xbd228277	-0.039675202
201	0xbdb3632c	-0.0875915
202	0x3d09d0c6	0.033646367
203	0x3d7f5191	0.062333647
204	0x3d8c09d5	0.06837813
205	0x3d840293	0.064458035
206	0x3c71525b	0.014729108
207	0xbdbbfdf2	-0.091792956
208	0x3cd4595d	0.025921518
209	0xbdd2ab83	-0.102866195
210	0xbd490bdf	-0.049083587
211	0x3e237d5e	0.15965793
212	0x3daf076f	0.0854634
213	0xbe31affe	-0.17352292
214	0xbd987daf	-0.07445847
215	0x3c424ba1	0.011858852
216	0xbe1cd4b2	-0.15315512
217	0xbd32d0eb	-0.04365627
218	0x3d71f767	0.059073832
219	0x3d7016b1	0.05861539
220	0xbd3ff309	-0.046862636
221	0x3d823f1e	0.06359695
222	0x3c308f61	0.010776372
223	0xbd763f1b	-0.060118776
224	0x3deb4d34	0.11489335
225	0x3d4163f8	0.04721448
226	0x3d5d1eaf	0.05398434
227	0x3cf9a1b8	0.030472621
228	0xbd6cb767	-0.057792094
229	0x3d210784	0.039313808
230	0xbda176a8	-0.0788396
231	0xbe2342a4	-0.1594339
232	0x3c292413	0.010323542
233	0xbd6b7483	-0.05748416
234	0xbcf3ad68	-0.029745772
235	0xbe04461b	-0.12917368
236	0xbc8cbeb3	-0.017180776
237	0xbd98ce6b	-0.07461246
238	0x3cf88fa6	0.030341934
239	0x3de4f15f	0.111788504
240	0x3db5a341	0.08869029
241	0xbd807763	-0.06272771
242	0xbcf851fb	-0.030312529
243	0x3c3595b4	0.011083055
244	0xbd7317aa	-0.05934874
245	0x3d85e8df	0.06538557
246	0xbd1146bb	-0.035467844
247	0xbd42f0ec	-0.047593042
248	0xbcba7edd	-0.022765571
249	0x3d914799	0.07093734
250	0x3e0b15eb	0.1358258
251	0xbd15a151	-0.036530796
252	0xbdaa0ad1	-0.08302844
253	0xbdcb8ec4	-0.0993934
254	0x3ceb4add	0.028722221
255	0xbd7c748d	-0.06163459

discrete_net.0.bias f4 [64]
0	0x3ad59759	0.0016295715
1	0x3b00d702	0.0019659405
2	0xbb2480c6	-0.002510117
3	0xb6eac1cd	-6.996305e-06
4	0x3ab6446d	0.001390589
5	0x3b02d13c	0.001996114
6	0xba4858ac	-0.00076426077
7	0xbb2d399d	-0.0026432045
8	0xb8c2a78e	-9.28185e-05
9	0xbafc6c0c	-0.0019258275
10	0x39b208f9	0.0003395749
11	0xba92b969	-0.0011194173
12	0xba7055d1	-0.0009168061
13	0xb8bbcdcb	-8.955187e-05
14	0x3a7f51fc	0.00097396947
15	0x3a8446c3	0.0010091889
16	0xbc3bfd7d	-0.011474011
17	0x3a24d7e8	0.0006288276
18	0xbaaacd93	-0.0013031237
19	0xba6273e7	-0.00086384866
20	0x3a8c1169	0.0010686341
21	0xb970de31	-0.00022970956
22	0xba321960	-0.00067939423
23	0x39ab3030	0.00032651564
24	0xbb09a93b	-0.002100541
25	0xbb772d53	-0.0037716224
26	0x3b13d210	0.0022555627
27	0x3a53b209	0.00080755405
28	0x38d7a8c0	0.00010283431
29	0xbbed1db6	-0.007236208
30	0x3a8fddb3	0.0010976106
31	0x39967d63	0.0002870365
32	0x3a4318e1	0.0007442367
33	0x3ad26ddc	0.0016054469
34	0xba1abf42	-0.00059031334
35	0x3abf0780	0.0014574379
36	0x3b196c37	0.0023410448
37	0xba39937d	-0.00070791674
38	0xba651f95	-0.0008740363
39	0xb9a681df	-0.0003175875
40	0xbac9feba	-0.0015410997
41	0xbaf7b785	-0.0018899298
42	0x3ac8c0b1	0.0015316216
43	0xbad4424b	-0.0016194073
44	0xba95b2ae	-0.0011421049
45	0x386cfe44	5.6503588e-05
46	0x3adc4ff7	0.0016808499
47	0x3ab93a7b	0.0014131808
48	0x3a5ebfc8	0.00084972056
49	0xb98212be	-0.00024809496
50	0xb9bc42c2	-0.00035907893
51	0x3a22c476	0.00062090845
52	0x3ad7d926	0.0016467914
53	0x3a935ca2	0.0011242817
54	0x39074668	0.00012900832
55	0xbad1ad35	-0.0015997054
56	0x3aaf9435	0.001339561
57	0x3acb7fe0	0.0015525781
58	0x3a5c594b	0.00084056397
59	0x3ab34521	0.0013677218
60	0xb9946f12	-0.00028311514
61	0x3b1c9bf9	0.0023896678
62	0x3b0d4d04	0.0021560797
63	0xba8adfb0	-0.0010595229

discrete_net.2.weight f4 [2, 64]
0	0x3e0f0e17	0.13970219
1	0x3cf1886a	0.029483993
2	0x3d0703b8	0.03296253
3	0x3d4c5a31	0.0498907
4	0x3df5f328	0.12009269
5	0xb71b3e73	-9.25326e-06
6	0x3dd5651d	0.104196765
7	0x3d2add84	0.04171516
8	0x3e385d0f	0.18004249
9	0xbe1fd380	-0.15608025
10	0x3da12953	0.0786921
11	0xbe3095ad	-0.17244597
12	0xbe0eaaea	-0.13932386
13	0x3d84c384	0.06482604
14	0x3d9af9f5	0.07567207
15	0xbe5582f1	-0.20850731
16	0x3d2a7940	0.04161954
17	0x3e071dcd	0.13194962
18	0x3cb70006	0.022338878
19	0xbc4c23f9	-0.012459748
20	0xbe46955a	-0.1939291
21	0xbdcadfbd	-0.09905956
22	0xbe26f9f2	-0.16306284
23	0xbe00aa4c	-0.12564963
24	0xbe01f894	-0.12692481
25	0x3daf8a8d	0.08571348
26	0xbbc33dc8	-0.0059582926
27	0xbd68cb31	-0.056834403
28	0xbe0b95e4	-0.13631397
29	0x3e238643	0.15969186
30	0x3e16fc77	0.14744745
31	0x3d8980fd	0.06714056
32	0x3d2ee87a	0.042702176
33	0xbe3afd29	-0.18260635
34	0xbe353ad2	-0.1769822
35	0xbdeed3ab	-0.11661466
36	0x3e5d75d9	0.21626987
37	0xbdfbebaf	-0.123008125
38	0xbe722722	-0.2364774
39	0xbe334a0e	-0.17508718
40	0xbde4f615	-0.11179749
41	0x3e7bc221	0.24585773
42	0x3c5beb4a	0.0134227965
43	0xbd44ea1c	-0.048074827
44	0xbb1968a2	-0.0023408313
45	0xbe917869	-0.28412178
46	0x3da6a5ce	0.081370935
47	0x3e500481	0.20314218
48	0x3d476d6a	0.04868833
49	0xbd65569a	-0.055990793
50	0xbe86892d	-0.26276532
51	0x3d269694	0.040670946
52	0x3e281b01	0.16416551
53	0x3d048578	0.03235385
54	0x3d79b5bf	0.060964342
55	0x3d1e84bb	0.0387008
56	0x3da2b4a4	0.07944611
57	0x3d351d01	0.044217113
58	0xbb03f73a	-0.0020136372
59	0x3d029498	0.03187999
60	0x3b704585	0.003666253
61	0xbbb886bb	-0.0056312955
62	0x3e006b19	0.12540855
63	0xbe852881	-0.26007465
64	0xbd9440dc	-0.072389334
65	0xbd9950f4	-0.07486144
66	0x3cacb806	0.021083843
67	0x3e1244fc	0.14284128
68	0xbe9c18df	-0.30487725
69	0xbd64cf2c	-0.055861637
70	0x3d461037	0.048355307
71	0x3d95beb5	0.07311765
72	0xbc8ce0c6	-0.017197024
73	0x3e8b8e76	0.27257127
74	0x3cdbf3ba	0.026849616
75	0x3e24efd7	0.16107117
76	0x3d4dfbfa	0.05028913
77	0x3c7a4f2d	0.015277666
78	0x3d13d62c	0.036092922
79	0x3cdfcc37	0.027319057
80	0x3cec0a6f	0.028813569
81	0xbe16491f	-0.14676331
82	0x3e2b84ce	0.1674988
83	0x3e3c371e	0.183804
84	0xb9d9b477	-0.00041523922
85	0xbd5a08d2	-0.053231068
86	0xbd5b1f52	-0.053496666
87	0xbd4b182c	-0.0495836
88	0x3d57e9a0	0.052713037
89	0x3e0d8d4e	0.13823435
90	0xbdfcf9b8	-0.123523176
91	0x3bd6910e	0.0065480536
92	0xbd8555f6	-0.065105364
93	0x3e1a0db6	0.15044293
94	0x3de2c529	0.110727616
95	0xbe1de960	-0.15421057
96	0xbd7dd386	-0.061969303
97	0xbbc59abb	-0.006030408
98	0x3dde73ec	0.10861954
99	0xbe68be47	-0.22728835
100	0x3cf5d6c3	0.030009633
101	0x3d9bfbee	0.07616411
102	0xbc2b4303	-0.010452989
103	0xbd19efe1	-0.037582282
104	0x3ccc0c2c	0.024908148
105	0x3e4839b0	0.19553256
106	0xbe123d69	-0.14281239
107	0x3e16f500	0.14741898
108	0xbe1d288b	-0.15347497
109	0x3d7d2c7e	0.06181001
110	0xbde6b9fd	-0.11265943
111	0xbd8fbb97	-0.07018202
112	0xbc8c1c5d	-0.017103368
113	0x3d6a1cb4	0.05715628
114	0xbeab2d2a	-0.33432895
115	0xbe302714	-0.17202407
116	0x3d250498	0.040287584
117	0xbead0d0e	-0.33799022
118	0x3e410024	0.1884771
119	0x3dba8223	0.09106853
120	0x3d39a7a1	0.04532588
121	0xbdfe90a8	-0.12429935
122	0xbd669719	-0.05629644
123	0xbd0eeea0	-0.03489554
124	0x3d8a18ec	0.06743035
125	0xbe0c624e	-0.13709375
126	0xbe7bc0f7	-0.24585329
127	0x3e1f5747	0.15560637

discrete_net.2.bias f4 [2]
0	0x393d88da	0.00018075426
1	0xbac789b3	-0.0015223533
