AF_GLOSA/models/model081401/10000/actor_model/actor.pkl (torch, 236975 bytes, 26 tensors)

encoder.0.weight f4 [256, 6]
000000 2b eb 61 be f9 37 91 bd b9 be 19 be 87 91 5e bd
       -0.22062366 -0.07090754 -0.15014161 -0.054338004
000010 ae 0e 3a 3e 01 ff b1 3d 68 6d 24 bd d0 13 d7 bd
       0.18169662 0.08691216 -0.0401434 -0.10501826
000020 28 57 38 be 8d a4 a5 3e 87 69 b5 3d 61 0f 99 be
       -0.18001997 0.32352105 0.08858018 -0.29894546
000030 4d ec 88 3c 1f f5 9d 3e 66 97 c9 3e dc 2e d2 3e
       0.01671424 0.30851075 0.3937332 0.41051376
000040 89 a6 cc 3e 27 20 90 be c3 bf 09 3e 38 1d c0 be
       0.39970806 -0.2814953 0.13452058 -0.37522292
000050 e2 b9 c3 3d f0 6b d1 3e 29 aa c9 3e b3 58 c1 3e
       0.09556939 0.40902662 0.39387634 0.37762985
000060 f9 ea 8c 3c 07 b2 d5 be e3 75 bb be b6 38 ca 3d
       0.017201887 -0.41737387 -0.36613378 0.09874098
000070 c5 e6 b5 be 97 0d 91 be e4 e3 17 bd 68 de 0f bd
       -0.35527626 -0.2833068 -0.037082568 -0.035124213
000080 18 30 7e 3c f5 45 c2 be 8f 68 48 3e 19 28 25 3e
       0.015514396 -0.37943998 0.19571136 0.16128577
000090 51 dc b3 3e 0c a2 96 be a2 f6 c6 3e 14 cf 2e be
       0.35129026 -0.29420507 0.3886004 -0.17071182
0000a0 60 4b 8d be 82 59 b6 be 68 54 12 3e c8 20 01 be
       -0.2759657 -0.35615164 0.14290011 -0.12610161
0000b0 4e ce 6b 3e 1c 57 a3 3e 31 bc cb 3d db c3 8e 3e
       0.23027918 0.31902397 0.09948004 0.278838
0000c0 0b bc dc bd 6f c8 ac be aa 8b 1b bd 62 4a 86 3e
       -0.10778054 -0.3374667 -0.03797499 0.26228625
0000d0 3b 01 47 3d c6 f9 cb 3d b7 58 28 bd 8a 92 53 3e
       0.048585158 0.0995975 -0.04110023 0.20661369
0000e0 82 f5 83 3e 56 b9 b6 be b7 8b 2e 3e 53 97 a2 bd
       0.25773245 -0.35688275 0.17045484 -0.07939019
0000f0 64 f0 82 be be b6 36 be e1 2f 95 3e e1 0f d4 3d
       -0.25574028 -0.17843148 0.2913809 0.10354591
000100 0f 22 bc 3d 1f aa c0 3e 47 2c c1 be 2f b1 c6 be
       0.09186184 0.37629792 -0.37729093 -0.38807055
000110 6c fc b9 bd 10 60 e6 3d b8 37 9b 3e e9 9c b8 3e
       -0.09081349 0.11248791 0.30315948 0.36057213
000120 9f c4 a5 3e fa b9 67 3d eb 83 92 bd a2 ac 16 bd
       0.32376572 0.056573845 -0.071540676 -0.03678573
000130 fe fe a6 be f4 bf e3 3e a1 21 b7 3e 6d d5 83 be
       -0.3261642 0.44482386 0.35767844 -0.25748768
000140 c1 4b 98 3d bc 69 20 3e 31 76 00 be e2 47 b4 be
       0.07436324 0.15665334 -0.12545086 -0.35211092
000150 25 66 04 3e b3 ea 54 3e 29 37 9f 3e 55 77 4c be
       0.1292959 0.20792656 0.3109677 -0.19967397
000160 ea a3 9f be ef 68 48 be 00 47 05 be 00 ff 10 bd
       -0.31179744 -0.19571279 -0.13015366 -0.035399437
000170 af 76 b2 3e 02 61 b0 be 17 8f 7b be 3e e2 44 be
       0.34856173 -0.3444901 -0.24566303 -0.1922693
000180 20 79 0f be 6d cc 76 be 09 30 a6 3e db c0 56 be
       -0.1401105 -0.2410142 0.32458523 -0.20972006
000190 37 d1 f4 bd 1b fa 56 3c cd c2 fe bc bf d6 a3 3e
       -0.11953967 0.013121153 -0.031098748 0.31999776
0001a0 1e 75 f1 3d e5 11 6d 3e b0 a6 7b bd 9b d1 53 3d
       0.117899165 0.23151357 -0.061438262 0.051713567
0001b0 a0 b6 b0 3e d9 cb 52 3e 26 9d ab 3e 93 d2 72 3e
       0.34514332 0.20585574 0.33518332 0.2371314
0001c0 ff de a5 be 79 d1 8b bd 00 0c f3 3d ca 5e af 3e
       -0.32396695 -0.06827063 0.11867523 0.34252006
0001d0 89 f0 a5 3e ca 4b c4 be d1 69 ca 3e 37 86 ae bd
       0.32410076 -0.38339072 0.39533857 -0.08521693
0001e0 26 e5 30 3e 7c e0 a7 3d 96 32 c2 be 35 e9 7e 3e
       0.17274913 0.08197114 -0.3792922 0.24893649
0001f0 d8 2f bf be 0e b7 d7 3e f1 a8 46 3d 53 0a 61 3e
       -0.3734119 0.42131847 0.04850096 0.21976595
000200 3d 8e 49 3e a3 4d 45 bd 33 78 4a be 0b 31 ad 3e
       0.19683166 -0.048169743 -0.19772415 0.3382648
000210 68 b5 be be aa 6c 80 bc ee 22 a8 3e a1 a6 6a 3d
       -0.37247777 -0.015676815 0.3283915 0.057287816
000220 8a b9 38 3c 1c 5c af 3e 2f 14 14 3e f6 76 cd 3e
       0.011274705 0.3424996 0.14460824 0.40129822
000230 71 3f 80 be 14 41 96 3e ca e2 bc b9 b4 3f a5 be
       -0.25048402 0.29346526 -0.00036027125 -0.32275164
000240 f2 38 b5 bc 74 f8 79 3e ba 70 9a be cc 95 c6 be
       -0.02212188 0.24411184 -0.3016413 -0.3878616
000250 fc 68 18 3e 67 73 97 be 96 32 ca 3e e2 a8 ea 3b
       0.14883798 -0.29580233 0.3949172 0.0071612457
000260 ac cb a9 be 8d 2a ff 3d 11 d4 8a 3e 02 d4 c3 be
       -0.33163202 0.12459288 0.2711492 -0.38247687
000270 0f ba c8 3e d1 6c d5 be d4 42 bb 3d 92 1e 58 3e
       0.3920445 -0.41684583 0.09143606 0.21105412
000280 03 fd f7 bc 02 9b b2 3e 48 87 26 3e aa 19 03 3e
       -0.030272013 0.34883887 0.16262543 0.12802759
000290 67 d8 ab be 09 1d 96 3e bf c2 7f 3e a8 23 c4 3e
       -0.3356354 0.29319027 0.24976633 0.38308454
0002a0 ba 5f 94 be 57 ba 95 be 52 13 aa bd 90 d0 1b 3d
       -0.28979284 -0.2924373 -0.08304466 0.038040698
0002b0 63 52 8b be 57 cf ba be a8 f7 bc be 82 96 f6 3d
       -0.27211294 -0.36486313 -0.36907697 0.12040426
0002c0 b9 d6 79 be 45 7a 66 bd 05 73 9f 3d aa e5 3c bd
       -0.24398316 -0.05626895 0.0778561 -0.046117462
0002d0 2d 9a a5 3e 9a 8f 47 3e 2c 03 d7 3e 1f 1b 52 3e
       0.3234419 0.19488373 0.41994607 0.20518158
0002e0 06 5d 44 3e 1d 47 92 3c 20 96 52 3d a9 14 e1 3d
       0.1917611 0.017856175 0.0514127 0.10990269
0002f0 8a 3e b6 3e 74 ea 96 3e ba 76 94 be 94 35 9b bd
       0.3559459 0.2947575 -0.2899683 -0.075785786
000300 51 08 41 be 8f 12 20 3c 6e a4 a7 bd 48 71 1d 3e
       -0.18850829 0.00977005 -0.08185659 0.15375245
000310 20 88 87 3e 39 97 cf bd ad 3c d0 bd 25 34 28 bd
       0.26471043 -0.10136265 -0.10167823 -0.041065354
000320 a2 60 2a be d6 e6 7c 3e a3 52 69 be b6 24 db 3d
       -0.16638425 0.24697432 -0.2278543 0.107003614
000330 34 3a be 3e b2 64 a0 3e 46 17 66 be cb e3 77 3e
       0.3715378 0.31326824 -0.22469816 0.2420799
000340 48 6d 84 be 16 13 9a be b7 ff 9b bd d6 46 5d be
       -0.25864625 -0.30092686 -0.07617133 -0.21609053
000350 5e d0 ef 3d cc 41 bf 3e 37 13 a9 bc df 7d 9d be
       0.11709665 0.37354887 -0.020639045 -0.30760095
000360 37 04 95 3e c0 fc 22 be db ec 19 be 9a cd b3 be
       0.29104778 -0.15916729 -0.1503176 -0.351178
000370 b4 12 5e 3e c2 98 3e 3d f1 59 2b 3e 83 72 95 be
       0.21686822 0.0465324 0.16733529 -0.29188928
000380 f4 ef ce b9 0d 47 f7 bd c9 fd 21 3d 67 ca 3a 3e
       -0.0003947016 -0.12074099 0.03954867 0.18241273
000390 ee f4 84 be d7 9d 03 be f8 96 9a be 83 05 80 ba
       -0.25968117 -0.1285318 -0.30193305 -0.0009767268
0003a0 aa d4 6d 3c 09 79 c5 3e 46 66 89 3e eb 60 c5 bc
       0.014516035 0.38568905 0.2683584 -0.024094066
0003b0 52 c1 a3 3d a6 5e 99 3e fb e5 94 3e ac 86 b3 3e
       0.07995857 0.29955024 0.2908171 0.35063684
0003c0 93 be df be 45 7d e9 bd 2b 21 69 be 42 a5 db 3e
       -0.43700084 -0.114008464 -0.22766559 0.4289952
0003d0 0c 7b 42 be c9 36 70 3d 2c 06 96 3d 9f d0 11 bd
       -0.18992251 0.058645997 0.07325396 -0.035599347
0003e0 86 8f 5b bd 0d 2d 3d be 33 23 91 be 22 80 77 3d
       -0.05360367 -0.18474217 -0.28347167 0.06042493
0003f0 3b 97 73 be 7d 5e a1 bd 34 8c e6 bd bb e9 6c bd
       -0.23788159 -0.0787935 -0.112572104 -0.05784009

encoder.0.bias f4 [256]
000000 f7 98 e4 3d 33 8b b8 3e 41 c1 83 be 15 12 75 3d
       0.11161988 0.360437 -0.2573338 0.059831697
000010 af b4 39 3e 14 72 3c 3d 5c 5a cb 3e 48 8d 86 be
       0.18135332 0.04600723 0.39717376 -0.26279664
000020 c2 69 a4 be 7b dc 43 be ca 1f a1 3e ab 4f b0 be
       -0.32111937 -0.19127075 0.31469566 -0.34435782
000030 aa c5 81 be b9 58 86 3e 60 54 8d be 05 99 8b be
       -0.25346118 0.26239565 -0.27603436 -0.27265182
000040 b9 93 93 be ef 33 17 3e 7a 43 d0 3e ba e6 71 3e
       -0.2882364 0.14765905 0.4067648 0.23623171
000050 bd aa 86 3e 5b f0 93 3e 43 8b 7d 3d 0a e3 d4 3e
       0.26302138 0.28894314 0.06190039 0.41579467
000060 91 8e 4d 3e af ee 56 bd bc b6 3b 3d ad 78 3d 3e
       0.20073916 -0.05247372 0.045828566 0.18503065
000070 08 55 9b 3e 6d 4c cc bd 64 9b 64 be e1 c2 c4 be
       0.3033831 -0.099755146 -0.22324902 -0.3842993
000080 17 45 b3 be e0 7f 02 3e f5 08 57 bd 2f 5e 98 3e
       -0.3501365 0.12744093 -0.052498776 0.29759356
000090 32 73 36 be be e0 3c 3e e6 57 fd 3d 01 c3 48 be
       -0.17817381 0.18445107 0.12370281 -0.19605638
0000a0 1b 03 85 be 85 4f 8c 3e aa 86 a1 3e db 36 4e 3e
       -0.25978932 0.2740442 0.31548053 0.20138113
0000b0 13 79 8a 3e 24 a9 97 3e 5f 36 bd 3e 37 46 94 bd
       0.27045497 0.29621232 0.36955544 -0.07239955
0000c0 9a 96 a5 be ef 5c fe bc 8d ac 9f be 20 b7 90 3e
       -0.32341462 -0.031050174 -0.31186333 0.28264713
0000d0 64 2c 1e bd 37 72 b7 be e4 17 99 3e fa 0b 91 3e
       -0.038616553 -0.35829327 0.2990104 0.2832945
0000e0 0f fe f2 bd cf db 37 3e 20 2e 96 3d b9 82 61 3e
       -0.11864864 0.17954944 0.073330164 0.22022523
0000f0 c2 dd ce 3e 47 18 92 3e 90 4b 11 be 77 f8 94 3e
       0.40403563 0.28534147 -0.14188981 0.29095814
000100 97 5a d4 3c 94 4c bb 3e e2 18 54 3e 6b bd 72 be
       0.025922103 0.36581862 0.20712617 -0.2370507
000110 de 62 8d 3e e3 4f 9f be 5b ae e6 3d 0f 39 bf 3c
       0.27614492 -0.31115636 0.112637244 0.023342637
000120 09 c0 64 3e b2 79 a1 be 15 82 c9 bd 73 85 82 3e
       0.2233888 -0.3153816 -0.09839264 0.2549244
000130 ca fd c7 be 40 7f ea bd 00 dd 8b 3e f1 97 ba 3e
       -0.39060813 -0.11450052 0.27317047 0.36444047
000140 05 7f 6c be 03 4e 88 3d 50 a7 9a 3e 47 3a 29 3e
       -0.23095329 0.066555046 0.30205774 0.16526137
000150 46 30 79 bd 92 74 93 3d 07 8e 3c be 53 4b 76 3e
       -0.060837053 0.071999684 -0.18413554 0.24052171
000160 0a 31 be 3d 4b d1 bb 3e c8 8d 05 bc 2c 9c 6d 3e
       0.09286697 0.36683115 -0.008151479 0.23204106
000170 96 a0 97 be b9 dd 22 be a6 56 eb bd 69 1a 3f bd
       -0.29614705 -0.15904893 -0.11491136 -0.046656046
000180 65 62 2c 3e 8b 61 16 3e 70 6c ba 3d d1 6a 9a be
       0.1683441 0.14685647 0.09102714 -0.3015962
000190 81 2a f5 bd 5d bb 15 be 13 5e a5 3b 30 05 00 3c
       -0.119709976 -0.14622255 0.005046615 0.007813737
0001a0 01 a3 9b be ad 37 93 3e 91 f6 99 3e 4b 2e 8c 3e
       -0.303978 0.28753415 0.30070928 0.2737907
0001b0 4a f3 36 be 1e 05 6c 3e 39 89 97 3e c8 65 22 3e
       -0.17866245 0.23048827 0.2959688 0.15859139
0001c0 b9 58 3a be 1c eb d0 3e d0 06 75 be 08 71 97 3e
       -0.18197908 0.40804374 -0.2392838 0.29578424
0001d0 36 ac 38 3d a5 0a 04 be a7 80 8a 3e 4e e0 54 be
       0.04508611 -0.12894686 0.2705128 -0.2078869
0001e0 12 85 51 bd 12 bf c4 be 8c 59 b7 3e cc be 5d 3e
       -0.051152296 -0.38427025 0.35810506 0.21654814
0001f0 c5 cf 85 be f7 a5 90 bd 40 48 71 3e 8c 9d c4 3d
       -0.26135078 -0.07062905 0.23562717 0.09600362
000200 54 12 1c be 9c 96 50 3d ce 83 30 3e 04 4d 8a 3e
       -0.15241367 0.050924882 0.1723778 0.27011883
000210 cc 4c c8 3e 8f ba 56 3c 61 02 40 3e 26 24 b4 3e
       0.3912109 0.0131060025 0.18750907 0.3518383
000220 f9 37 cd bd 3d ac 82 3e 41 9d 03 3d d5 3a 5f bd
       -0.100204416 0.25522032 0.03213239 -0.054499466
000230 e8 c6 9e 3d b8 03 18 3e a9 87 a4 3d 77 6e c7 3e
       0.07752782 0.14845169 0.080336876 0.38951465
000240 ee 28 77 3c 61 51 73 be 32 d4 d9 bc 72 dd 9b 3e
       0.015085442 -0.23761512 -0.02659044 0.30442387
000250 58 c7 bb 3d 17 26 1b 3e eb 9c bc 3c ba 0b 89 be
       0.09168881 0.15151249 0.023024043 -0.2676676
000260 b0 8c 86 be 34 b3 80 3e e8 ef 5a 3e 90 9a a3 3e
       -0.2627921 0.2513672 0.2138058 0.3195386
000270 94 3c 5c be 42 89 62 bd f7 8b 42 bd 50 ad ca be
       -0.21507484 -0.05530668 -0.047496762 -0.39585352
000280 55 22 bc 3e 95 6b 52 3e e2 52 d3 bd b0 2c 20 3d
       0.36744943 0.20548852 -0.10318543 0.039105117
000290 35 11 35 3e 44 81 36 be e2 75 1f 3e 52 3a 14 be
       0.17682345 -0.17822748 0.15572312 -0.14475372
0002a0 63 47 ae 3e c2 76 da bd d2 ca b8 3d 25 32 8f be
       0.3403884 -0.106671825 0.0902306 -0.27967945
0002b0 06 1f cb bd 85 02 bf 3e a9 be 2b 3e f9 82 22 be
       -0.099180266 0.3730661 0.1677195 -0.15870275
0002c0 db b9 d7 3c d2 cf 37 3d 48 7c 43 be 16 d0 84 3e
       0.02633374 0.044875927 -0.19090378 0.25940007
0002d0 9c 93 11 3e 4a 6d d5 3e fc 97 52 3e 02 dc 83 be
       0.14216465 0.41684943 0.2056579 -0.2575379
0002e0 2c 68 95 be a4 63 a8 3d 21 44 89 3e ed 39 a5 3e
       -0.2918104 0.0822213 0.2680979 0.32270756
0002f0 a6 db 68 be e9 74 83 be 2e 41 b5 be 6c d4 c3 3c
       -0.22740039 -0.25675133 -0.3540129 0.023905002
000300 82 4b 86 bd d1 d4 05 be ee 55 3b 3e 2f 22 b3 bd
       -0.06557371 -0.13069464 0.18294498 -0.087467544
000310 ab 8e 92 be fb 42 60 be b5 24 8d be fc c6 49 be
       -0.28624472 -0.21900551 -0.27567068 -0.19704813
000320 ab 0b b2 3e 7d 57 8d bd d3 e7 04 bd 83 82 92 3e
       0.34774527 -0.06901453 -0.032447647 0.28615198
000330 db 15 a5 3d 64 5d 47 be 8c e3 c3 bd 67 76 07 3e
       0.08060809 -0.1946922 -0.095648855 0.1322876
000340 e9 95 06 3e c0 9e 9c be 82 3d 33 be 2e d7 91 3d
       0.13143124 -0.30589867 -0.17503932 0.071211204
000350 1a 9f 8e be 2b 56 e1 bd 2c 77 16 bd 1e 2a 80 3e
       -0.2785576 -0.11002763 -0.036734745 0.25032133
000360 2f 5d ac bd 39 d9 85 bd 5e 89 2c 3e 25 c8 86 3e
       -0.08416211 -0.065355726 0.16849276 0.26324573
000370 67 95 f6 bd 1c 8b b5 bc 49 04 42 3d af 73 96 be
       -0.12040215 -0.02216106 0.047367368 -0.29385135
000380 0e 0e ae 3e 57 8c 19 be fb be a9 3e 6d 9e 18 bc
       0.33995098 -0.14994942 0.3315352 -0.009315115
000390 03 97 4d be f9 2a c5 3e 01 e9 94 3e e9 55 9e bd
       -0.20077138 0.38509348 0.29084018 -0.0773123
0003a0 52 a8 84 3c b6 20 21 3e b7 ea 47 bc 3c bf 5e be
       0.016193543 0.15735134 -0.0122019565 -0.21752638
0003b0 33 53 e7 3d 18 38 a4 3e 1b 9f 64 be ba 15 92 3e
       0.11295166 0.32074046 -0.22326319 0.285322
0003c0 f0 b3 aa 3e 97 d1 dc bd b3 d0 5a 3e 0d a8 2d be
       0.33340406 -0.107821636 0.21368675 -0.16958638
0003d0 ae f2 6a 3e 9a b9 c3 be c7 4b 6f 3e 93 df b3 be
       0.22944137 -0.3822754 0.2336875 -0.3513151
0003e0 f2 24 37 be 21 b3 8c 3e 8f 36 cb 3d 5c c5 74 3e
       -0.17885187 0.27480415 0.099225156 0.23903412
0003f0 6a bb 0c 3e a4 c7 b4 3d ed c0 8c be 4f 93 18 3e
       0.13743368 0.08827141 -0.2749094 0.14899944

encoder.2.weight f4 [128, 256]
000000 f7 69 82 bb 25 45 c7 bc f4 e8 87 3d f7 82 6b 3d
       -0.003979917 -0.024324963 0.06636229 0.057497945
000010 b5 0a 8b 3c da d8 1a 3c a2 24 46 3d b0 cc e5 3c
       0.016972879 0.0094511155 0.04837478 0.028051704
000020 d6 11 44 3d 48 a7 b8 3c 34 97 16 3c 79 51 b0 bb
       0.047868572 0.022540703 0.009191323 -0.005380806
000030 7c a2 40 bd e2 7b 36 3d 8e 25 6e 3d b5 42 b6 bb
       -0.047029957 0.044551738 0.058141284 -0.0055621513
000040 a7 c9 91 b8 fe 40 39 bd 0e a9 2c 3d bb 2c d7 bc
       -6.9516995e-05 -0.045227997 0.04215341 -0.026266446
000050 61 ad 5a bc 93 d9 45 bc 65 51 4c 3c 2b 4c f9 3c
       -0.013347001 -0.0120757995 0.012470578 0.030431828
000060 5b 1e ce bc 09 7d a3 bb 0a 41 57 bd 82 dc 22 bb
       -0.025160959 -0.0049892706 -0.05255226 -0.0024850671
000070 0b 24 32 bd 6a 7e a0 bd a6 b5 be ba ee 66 54 bd
       -0.043491405 -0.078366116 -0.0014549985 -0.051855974
000080 33 d1 be bc ed c5 89 bd ec 3b a9 3a c9 3f 90 3d
       -0.023293113 -0.067272045 0.0012911535 0.07043416
000090 52 54 14 3c 11 2a 6e 3d c3 c5 bf bc ce 04 e1 bc
       0.009053307 0.058145586 -0.02340973 -0.027468111
0000a0 0a 3a 6b 3d 9f b4 42 bd 5a 79 77 bd c7 c3 47 bd
       0.057428397 -0.047535535 -0.060418464 -0.048770692
0000b0 ce 32 5c 3d fb 8e 51 3d e7 5e 1b ba e2 b8 7a 3d
       0.05375939 0.051161747 -0.00059269223 0.061211474
0000c0 0a 5d 67 3c 65 c8 96 3c 47 84 43 3d c7 e6 8a 3d
       0.014121303 0.018406102 0.04773357 0.067822985
0000d0 13 0d 63 bd 7a 43 3b 3c 6e cf 02 3d ab 83 43 bd
       -0.05543239 0.011429662 0.0319361 -0.04773299
0000e0 62 c4 24 bd f0 c0 a3 3d d6 4d 80 bd b7 fe bb ba
       -0.040226348 0.07995784 -0.06264846 -0.0014342879
0000f0 14 db 16 bd 2d 2c 6c bd ff 9f 83 3d 56 22 99 3c
       -0.036830023 -0.057659317 0.06427001 0.01869313
000100 29 ad 76 3c 55 77 c2 3c e3 fa 45 3c 64 5b c7 3c
       0.015055933 0.023738543 0.012083742 0.02433557
000110 92 26 41 bc 4f 0e 90 3c bb 70 12 3c f4 86 ea 3c
       -0.011788981 0.017584948 0.00893801 0.028628804
000120 db e2 42 bc 4f cf 1f bc ff 84 01 3d ab 2d 76 bc
       -0.011894907 -0.009754016 0.031620976 -0.0150255365
000130 b1 d3 93 3b 33 44 57 3b cf 51 ea 3c 5c 08 01 3d
       0.0045113196 0.0032847046 0.028603463 0.031502113
000140 0d d1 63 bc 5b bc 80 bc 18 fa da bc 1c b0 02 3c
       -0.013904822 -0.015714815 -0.026730582 0.007976558
000150 40 62 8f bd 7d 7e 90 bc 17 5e b9 3c 42 81 28 bd
       -0.070011616 -0.01763844 0.022627873 -0.041138895
000160 9d 8d 8a 3d 92 d4 17 3d d1 22 37 3d b3 98 4b bc
       0.06765292 0.037067957 0.044710938 -0.012426543
000170 1a 6a 4d bd e9 ef 44 bb ee 4b 5e bd 4a 37 f0 bb
       -0.050150014 -0.0030050224 -0.05427163 -0.0073308097
000180 d3 6c 89 3b 0f 44 d0 3c 5d ed 17 3d 2f 87 3e 3d
       0.004193881 0.025423078 0.0370916 0.04651564
000190 44 c5 87 ba 5a 81 70 bc b7 c8 94 bc 26 ad 43 3d
       -0.0010358472 -0.014679277 -0.018162115 0.04777255
0001a0 9e 2b 07 bd ad b4 de bc 0b 3f a9 bc d9 d7 df bc
       -0.03300058 -0.027185762 -0.020659944 -0.027324604
0001b0 38 cd fc bc 72 98 eb bc af 96 ee 3c 4a 77 e2 3b
       -0.030859575 -0.028759215 0.029124586 0.006911193
0001c0 c2 16 6d 3c 29 85 3d 3c 4a fb c2 bb a4 42 0e 3d
       0.014470758 0.011567392 -0.005950366 0.034731522
0001d0 cd 67 1d bd 25 9d 5e bd c4 65 8a 3c e7 7b 9b 3c
       -0.03842907 -0.054349083 0.016894229 0.01897998
0001e0 12 a9 61 bb 3f 92 c1 bc 2a fd 80 3d 8d 09 0e 3d
       -0.003443305 -0.023629306 0.06298287 0.034677077
0001f0 bf 4f 29 bd 5f 86 a5 3c f7 d9 93 bc 82 73 13 bd
       -0.041335817 0.020205675 -0.01804827 -0.03599883
000200 40 34 62 3c 2e 77 67 3d 8e ce 04 3d 26 9b 6c 3d
       0.013806403 0.056510143 0.03242355 0.05776515
000210 91 e3 6c 3c c7 58 e4 bd c7 8f 72 3c 3c 45 9c 3c
       0.014458553 -0.111497454 0.014804787 0.019075982
000220 80 98 32 3d df ee b7 3d ba 34 3b bc 20 eb fc bb
       0.043602467 0.08981108 -0.011426145 -0.007718459
000230 4e cb b1 bc 2b 33 83 3d 87 19 37 3d c7 71 bc 3c
       -0.021703389 0.06406244 0.04470208 0.023003472
000240 9b 97 e7 3b c0 aa 8f bd a2 1f 1a 3c 1d 8f 09 bd
       0.0070676333 -0.0701499 0.009406956 -0.03358375
000250 3f 01 43 bd fa c9 d4 bc 7c 73 a4 3c f7 d8 12 3d
       -0.04760861 -0.025975216 0.020074598 0.035851445
000260 4f 9a 62 bd 91 79 61 3b 65 7f 95 bd 63 0e bb bb
       -0.05532294 0.0034404735 -0.07299689 -0.005708502
000270 ad 57 e2 ba 80 f1 4f 3d 2e 89 17 3b 59 84 c2 3c
       -0.0017268561 0.05076742 0.0023122537 0.023744749
000280 58 87 78 bc 3f f0 4e 3c 25 7a b7 3b 14 46 f2 3c
       -0.015168987 0.012630521 0.0055992776 0.029574431
000290 7f ad d6 bc 48 4f ca bc 48 30 cd bc 44 e7 08 ba
       -0.026205776 -0.024696007 -0.025047436 -0.00052224495
0002a0 46 a0 cf 3c 74 2a 69 bd 47 80 86 3b 1b 16 15 3c
       0.025344979 -0.056925252 0.0041046473 0.009099509
0002b0 6d 77 a1 3d d0 38 1a 3d 6d 13 1a 3d 63 59 5a 3d
       0.07884107 0.037651837 0.037616182 0.053307902
0002c0 0a 95 94 bd 43 33 a9 3b 51 66 01 bd 3f d4 1f 3b
       -0.072549894 0.0051635816 -0.031591717 0.0024387983
0002d0 88 e9 72 bc 9e 74 4e bd 71 52 ef 3c 09 3e be bc
       -0.014826186 -0.050404184 0.029214116 -0.02322294
0002e0 dd c9 09 bd b0 74 6a 3c 9d c0 53 3c 2d 02 02 3d
       -0.033639777 0.014310047 0.012924341 0.031740356
0002f0 74 e9 35 3d 9a 37 b6 bd 35 a0 5a bd ba f9 e2 bc
       0.04441209 -0.08897324 -0.05337544 -0.02770697
000300 7d 3e 43 bd 96 1c 53 bd 2a 07 2b 3b 50 fe 65 3c
       -0.047667015 -0.051540934 0.00260968 0.014037684
000310 db a3 78 3d 48 22 0c be d0 ab 08 bd 30 89 55 3d
       0.06070314 -0.13684952 -0.03336698 0.052132785
000320 99 2f 83 bd a3 c6 09 3d 74 62 a1 bb a5 84 d3 3c
       -0.06405563 0.0336367 -0.0049250666 0.025820086
000330 cc bb 9b 3c ea 09 92 3c 24 e5 54 bb 77 bb 92 bc
       0.019010447 0.017826993 -0.0032485211 -0.017911656
000340 57 6e 33 bd 24 8d 42 bd 2b 1e 9f 3d 5a a0 86 bc
       -0.0438064 -0.047497883 0.07769426 -0.016433883
000350 63 06 d6 3c 3d af 12 bd ae bd 4b bd 4b 0b 09 bb
       0.026126092 -0.03581165 -0.04974144 -0.0020911272
000360 d1 98 8b bc 99 37 19 bc a9 fe af 3c bc 75 b7 3b
       -0.017040642 -0.009351634 0.021483736 0.005598752
000370 17 de 05 3d f0 69 3d 3d 92 c8 74 3d 5f 6a 59 3d
       0.032682505 0.046243608 0.05976159 0.05307996
000380 2d 05 44 bc 1b 55 a2 3c a7 3b d2 bc 8a d8 c8 ba
       -0.011964125 0.019815972 -0.02566321 -0.0015323323
000390 11 ab ad 3d b1 42 78 3d 1f 68 02 3c 9f 1b 18 bc
       0.08479894 0.060610477 0.007959395 -0.009283929
0003a0 bd 55 39 bd 2a c7 aa 3c f1 e8 94 bd ea 80 12 3d
       -0.045247782 0.020846922 -0.072709925 0.035767473
0003b0 e7 62 89 3d bb 34 25 3d d5 28 05 bd f6 98 c2 3c
       0.06708317 0.04033349 -0.032509644 0.023754578
0003c0 e0 67 ad 3b fa 61 c7 3c 80 8c af 3d 4e e2 ca bb
       0.005291924 0.024338711 0.0857172 -0.0061915284
0003d0 cc 28 56 3c 3e ab 0b 3c 40 51 6c bc e1 b2 2f bd
       0.01307125 0.008524714 -0.014423668 -0.0428952
0003e0 f6 4d 89 3c 29 0d 6c 3c 61 21 bd 3c 94 f3 9c 3c
       0.016760807 0.0144074345 0.023087205 0.019159116
0003f0 52 ed 16 3c 7d 62 23 3d 32 c8 21 bd 31 aa 96 bb
       0.009211855 0.039888848 -0.03949756 -0.004597925

encoder.2.bias f4 [128]
000000 0b e6 b9 3c 70 21 2c bd 89 84 3b 3d a2 e2 2e bd
       0.0226927 -0.042024076 0.045780692 -0.042696603
000010 0b c3 83 3c f6 b9 56 bc 4d d2 1a bd 54 20 66 bd
       0.016084215 -0.01310586 -0.037798215 -0.056183174
000020 ec 7d 84 bc e4 5d 85 bd 9b 46 30 3d 39 34 20 3d
       -0.016173325 -0.06512049 0.043036085 0.039112303
000030 2d b9 91 bc 6e 9a a7 3c 73 49 67 bd 19 ad b8 3c
       -0.017788494 0.02045938 -0.05646653 0.022543477
000040 60 82 87 3d de 63 0b 3c f9 2b ea 3c 3f dd 61 3d
       0.06616664 0.008507697 0.02858542 0.055142637
000050 9a 51 62 bd 5f e2 1a 3d 68 b6 f7 bb 32 cd b8 ba
       -0.055253603 0.03781354 -0.0075595863 -0.0014099239
000060 64 c1 22 3d 35 23 b7 b5 34 e8 8e bd d4 80 e5 bc
       0.039735213 -1.3644809e-06 -0.06977883 -0.028015532
000070 a4 bd 84 3d 3d a1 52 bc c6 50 7c bc e9 7f b2 bc
       0.064814836 -0.012855825 -0.015400117 -0.021789508
000080 2f 2e 6c 3c 62 12 65 bc fb ab de 3c bd 74 8c bb
       0.014415308 -0.013981434 0.027181616 -0.004286377
000090 61 4f 1a bd b6 0f 06 3d 82 03 4d 3d 1e e6 72 3d
       -0.037673358 0.032729827 0.050052173 0.059301488
0000a0 ac a4 16 3d b6 2c 86 3d 0e d5 96 3d 17 7c af bc
       0.036778137 0.06551497 0.07364856 -0.021421475
0000b0 84 fd ad 3c 2b 9d 47 3c 1b 25 68 bd bf b2 ed bc
       0.02123905 0.012183468 -0.05667601 -0.029015897
0000c0 63 b1 4b bc a0 74 31 bd e3 89 1b 3d 12 25 ef bc
       -0.012432429 -0.043324113 0.037973296 -0.029192481
0000d0 69 fd 31 3c 6c f4 aa bc 75 e4 06 bd e3 01 39 bc
       0.01086364 -0.020868503 -0.032932717 -0.011291954
0000e0 c1 64 a8 3c 4a da 54 bd 1e 12 0b bd 84 45 e3 3c
       0.020555856 -0.05196599 -0.033952825 0.027743109
0000f0 d8 6c 59 3d f8 d9 18 3d ea c3 9f 3c 7c 71 51 bd
       0.053082317 0.037317246 0.019502599 -0.051133618
000100 8c 91 0d 3d 87 9e 6d 3d 7d a4 b0 3a 46 bd 1b 3d
       0.034562632 0.05801251 0.0013476756 0.038022302
000110 1d 59 45 3d 30 72 6e bd 1e 2e 27 3d de 77 21 3d
       0.04818069 -0.058214366 0.040815465 0.039420955
000120 ec 5d 51 bd 46 66 04 bc 0c c4 bd 3c bb 73 d1 3c
       -0.05111496 -0.0080810245 0.023164771 0.02556788
000130 b8 85 14 3d 46 b1 2d 3d 61 f0 5d bd cc ad 93 3c
       0.036260337 0.04240539 -0.05418432 0.018027209
000140 90 39 9f 3d d6 5a 2c bd b7 a0 68 39 75 b4 78 bb
       0.07774651 -0.042078815 0.00022185115 -0.0037949358
000150 6f cf 44 bc 53 30 6b 3d 0c 3e 01 3d 05 8c 16 3d
       -0.012012347 0.057419132 0.031553313 0.036754627
000160 64 8e 51 bc d3 9c c8 3c 00 1b 90 bc 9b 19 76 bd
       -0.012790296 0.024488842 -0.017591 -0.060083013
000170 3f d2 a2 3b 1d 49 74 3d 3e 4c f7 bc f0 af 88 bc
       0.004968911 0.05964004 -0.030187722 -0.016685456
000180 0b 48 51 bd 7f 89 63 3d ac 81 f5 bc 4d ae aa bc
       -0.051094096 0.05555105 -0.029969059 -0.020835066
000190 54 ec 03 3d cc 45 44 bd 22 f8 4a bd a7 45 48 3d
       0.032207802 -0.047918126 -0.049553044 0.04889455
0001a0 76 bb 15 3d 64 88 23 3c a6 62 c5 bb 3e ea 89 bd
       0.03655573 0.0099812485 -0.0060237227 -0.06734131
0001b0 52 b4 27 3d 94 e6 e2 ba 88 9e f7 39 89 56 38 bd
       0.04094345 -0.0017311149 0.00047229626 -0.0450044
0001c0 8d bb 95 3c fd 82 64 3d 7e 96 70 3d 40 28 7f 3c
       0.018277908 0.055788983 0.05873727 0.015573561
0001d0 a0 d4 90 bc 7e 18 f9 3c 4c 5c 14 3d 38 f8 28 3d
       -0.017679513 0.030407187 0.036220834 0.041252345
0001e0 91 51 1c 3d 8f fd 8e 3c 4d e9 bd 3a 6d fe 86 3c
       0.038163725 0.01745489 0.0014489085 0.016478742
0001f0 c4 8e ad 3c 67 4f 28 3c 30 a4 28 bd d8 1b 2e 3d
       0.02118624 0.010272837 -0.041172206 0.042507023

l1.weight f4 [64, 128]
000000 e3 91 67 be 2b 71 95 3d 06 d7 7e 3d 77 1b 48 bd
       -0.22614245 0.07296976 0.06221678 -0.048854318
000010 5c 59 af 3c 3c ae e7 bd d7 7c 61 3c 1c 83 34 bd
       0.021404915 -0.113125294 0.013762674 -0.04407035
000020 c0 36 48 bd be 22 a2 bd 62 fe c5 bc 61 93 da 3d
       -0.04888034 -0.07916783 -0.02416915 0.106726415
000030 d7 11 a4 3d fd cf 57 bd 65 32 15 be 61 ac f4 bc
       0.08011215 -0.052688587 -0.14570005 -0.029867353
000040 f2 83 a8 3d bb f2 45 3d 6e ef ba bd 60 4c 83 bd
       0.082282916 0.04832719 -0.09127699 -0.06411052
000050 c6 6d a5 3d 06 d9 08 3e 3a a5 49 be 40 f5 eb bb
       0.08077578 0.13364038 -0.19691935 -0.007200867
000060 a1 60 52 bd 26 92 21 bd 2a c2 b8 3c d1 22 a9 bd
       -0.051361684 -0.03944602 0.022553522 -0.08258594
000070 08 7f 43 3e 55 ac 13 be d8 52 3b bd 30 64 95 bc
       0.19091427 -0.14421208 -0.045733303 -0.01823625
000080 11 62 b3 bd e6 ca 87 bd 38 c7 e4 bb 08 23 e9 3d
       -0.08758939 -0.06630497 -0.0069817565 0.11383635
000090 83 0c c7 bd 39 61 71 3e 71 5a b3 3d c5 96 fd 3b
       -0.09719183 0.23572244 0.08757485 0.0077389204
0000a0 15 66 0f be fe d4 f0 bc 24 47 43 bd 45 f3 0d be
       -0.14003785 -0.029398438 -0.047675267 -0.13862331
0000b0 3f f7 02 3c 7a 4f 01 bd e6 9f 8b bd 22 95 05 bd
       0.007993518 -0.031569935 -0.068176076 -0.032612927
0000c0 07 5d 34 3d ce 10 19 3e bf 42 08 be 6d 78 7a bc
       0.04403403 0.14947817 -0.13306712 -0.015287501
0000d0 a6 af 07 bd db be 0e 3d 73 ea 86 bb 3b 7e 2d 3d
       -0.033126496 0.034849983 -0.004117304 0.04235671
0000e0 96 c8 4f 3d ff a9 b1 bc 61 ed 04 3e a8 77 fe 3d
       0.050728403 -0.021687506 0.12981178 0.12425166
0000f0 59 e4 8e bd 78 8b 73 bd aa 3d 8d bd d3 2a 81 3b
       -0.069771476 -0.05945918 -0.06896527 0.0039418726
000100 84 26 0b bd aa 5f ec bd 3b 6f dd bd ee 87 28 3e
       -0.03397228 -0.11541684 -0.10812231 0.16458103
000110 9c ec 08 be d7 49 38 bc a7 ea d1 3d 5a 66 fc 3d
       -0.1337151 -0.011248074 0.102498345 0.123242095
000120 ab 94 1b 3e 6f c7 24 bd 1d 0c a4 bc 7a 42 93 bd
       0.15193431 -0.040229257 -0.020025307 -0.07190414
000130 6d 2e ba bd 68 75 2a 3d c3 b5 ef 3c db 53 35 be
       -0.09090886 0.041615874 0.029261475 -0.1770777
000140 da 7a 65 3d 51 7f 36 bd ae ca 3f 3e 01 76 be 3c
       0.056025364 -0.044555012 0.1872966 0.023249628
000150 b7 b5 29 be be 41 b3 3d e2 dc 95 3d b7 da 0d bc
       -0.16573225 0.08752774 0.07317521 -0.008658103
000160 00 e9 bb 3d 55 01 2d 3d bb 53 65 3d 3d 2d a9 3d
       0.091753006 0.0422376 0.055988055 0.08260582
000170 ff ab 59 bd d5 b4 64 bd fa 87 1a bd f2 eb 45 3e
       -0.053142544 -0.055836517 -0.037727334 0.19328287
000180 18 7f 1d be 45 f6 6e bd c7 ae 93 3d b9 a2 1c 3c
       -0.15380514 -0.05834033 0.072110705 0.0095602805
000190 fb a2 ab bd ec 0c 83 3d 01 81 15 bd f5 cf 09 3e
       -0.083806954 0.06398949 -0.03649998 0.13458236
0001a0 f4 9d 41 3d d9 15 80 bd 18 15 43 3d 20 7b 29 be
       0.047269776 -0.06254167 0.04762754 -0.16550875
0001b0 01 ec 81 3c a8 c8 3d bd 40 e1 fc bc 65 92 87 bd
       0.015859606 -0.04633394 -0.030869126 -0.066197194
0001c0 84 59 7c 3d bc 48 31 3e ff c8 e4 3c 1f a7 4a 3d
       0.061608806 0.17312902 0.027927874 0.049475785
0001d0 bc 8f 9a 3d 14 44 9e bd c5 6e a3 bc 7c 4c eb bc
       0.075469464 -0.077278286 -0.01995028 -0.028722994
0001e0 8f 70 36 bc 74 53 57 3d 5c d3 55 3d 88 72 96 3b
       -0.0111352345 0.05256982 0.05220352 0.00459129
0001f0 89 34 61 bd 98 ec 1e 3d b0 af a0 3c 7e 2f 07 3e
       -0.054981742 0.038799852 0.019615024 0.1320171
000200 da 99 9b bb d1 78 8d 3d 44 18 a2 bb 58 37 1d be
       -0.004748565 0.069078095 -0.0049467403 -0.15353143
000210 b3 f2 df bd c6 85 cf 3b 26 a2 2f 3e e2 8b 1d 3e
       -0.10934963 0.0063330857 0.17151698 0.15385392
000220 12 bc 91 bd 72 f6 98 3d 65 2a 05 bb d3 19 cf 3c
       -0.0711595 0.07468881 -0.0020319459 0.025280869
000230 68 1b f2 3c 0d 51 47 3d 13 78 22 bd 78 ec 70 be
       0.029554084 0.04866128 -0.039665293 -0.23527706
000240 f0 a6 52 3d 9a f4 a5 3c 49 3a 0f be 30 12 d3 bc
       0.051428735 0.020258237 -0.13987078 -0.025765508
000250 4c 6d ea 3d e6 0d b2 3a 29 07 92 bd 4d 96 48 3c
       0.11446628 0.0013584464 -0.07130272 0.012242866
000260 b5 b7 8f bd 40 06 c3 3c ba 73 26 3e 9d 15 0f 3e
       -0.07017461 0.023806691 0.16255084 0.13973089
000270 c7 98 51 3d b3 d4 87 3d 8e 4e 3d bc 62 25 63 be
       0.05117109 0.06632366 -0.011554373 -0.22182229
000280 1f b7 f9 3c 75 ad 21 3d 97 e1 04 bd 24 24 9f bd
       0.030482827 0.039472062 -0.0324417 -0.07770565
000290 33 1c c6 39 02 61 6e 3c 5a 53 9e 3e 76 41 a6 3d
       0.00037786513 0.014549496 0.30922967 0.081179544
0002a0 86 48 9b bd 79 76 86 3d 41 68 18 3e 08 69 90 3a
       -0.07582192 0.065655656 0.1488352 0.001101763
0002b0 82 77 a4 3c d1 a0 93 bd f5 a4 d6 3d 16 b3 a0 bd
       0.020076517 -0.07208408 0.10480682 -0.07846658
0002c0 6a 9b 82 bd 63 cf 51 bd 60 73 2a be 08 70 a5 bc
       -0.06377299 -0.05122317 -0.16645575 -0.020195022
0002d0 f0 10 e6 3d 12 62 be 3c 4d d7 55 3d 97 f3 14 bc
       0.11233699 0.023240123 0.05220728 -0.0090912795
0002e0 ea 58 f6 bd d5 6f bc bd 00 cc f0 3d 63 b8 a4 3d
       -0.12028678 -0.09201018 0.1175766 0.080429815
0002f0 53 5f d5 bd 8c 0c 68 bc 6c 19 00 3e 94 2b 3e be
       -0.10418572 -0.014163148 0.12509698 -0.18571311
000300 87 d1 d0 3d ee d7 1b bd 88 3a b7 3d 88 32 1e bd
       0.10196214 -0.038047723 0.08946711 -0.03862241
000310 c1 06 b1 3d b2 04 07 3d 8a 7e 1d 3d 02 c2 81 bd
       0.08643866 0.032963462 0.038450755 -0.06335832
000320 77 82 22 bd 03 08 b1 bd b6 1f 09 3d 95 cb 7e 3d
       -0.039675202 -0.08644106 0.033477508 0.06220587
000330 dd 9c 8a 3d aa af 83 3d 23 87 6e 3c ea fd bb bd
       0.067682005 0.0642999 0.014558586 -0.0917929
000340 e5 4a d0 3c 56 34 d3 bd de 04 4a bd 10 90 23 3e
       0.025426337 -0.10312717 -0.049321048 0.15972924
000350 95 a0 b1 3d 08 e3 31 be 22 98 97 bd e7 22 56 3c
       0.08673207 -0.17371762 -0.07402064 0.013069845
000360 fe 98 1c be 56 08 35 bd 0e ef 70 3d 6c a8 6f 3d
       -0.15292737 -0.044197403 0.05882173 0.05851023
000370 9f f9 48 bd cc a9 80 3d 11 43 27 3c 42 4f 74 bd
       -0.049066182 0.06282386 0.010208861 -0.0596459
000380 b6 9b e8 3d ae af 40 3d e7 ce 5b 3d 8e f1 fc 3c
       0.113578245 0.04704254 0.053664114 0.030876901
000390 6b 80 5f bd d8 64 33 3d bf 17 a0 bd 72 45 23 be
       -0.05456583 0.043797344 -0.07817029 -0.1594446
0003a0 7f 78 24 3c 82 a6 69 bd 5e e8 f8 bc ab 41 03 be
       0.010038494 -0.05704356 -0.030384239 -0.12818019
0003b0 3b ab 84 bc 37 46 9b bd 40 c8 fa 3c 9e 96 e2 3d
       -0.01619493 -0.07581752 0.030613065 0.11063884
0003c0 ad 05 b7 3d e2 57 81 bd 2d 79 f7 bc d4 f6 22 3c
       0.089366294 -0.063155904 -0.030209148 0.009946544
0003d0 9d c1 71 bd 05 c8 8b 3d c9 90 08 bd bb 0d 43 bd
       -0.059022535 0.0682526 -0.033341203 -0.047620516
0003e0 52 a5 be bc 69 f9 8f 3d f6 df 0a 3e f4 06 13 bd
       -0.02327219 0.07029993 0.13561997 -0.035895303
0003f0 08 87 aa bd 28 6f cc bd 37 cf ed 3c 05 75 62 bd
       -0.083265364 -0.09982139 0.029029472 -0.05528738

l1.bias f4 [64]
000000 5e be 08 3a 72 f5 99 3a f1 f8 1f bb 1c 79 98 3a
       0.0005216355 0.0011746122 -0.0024409855 0.0011632773
000010 42 ea 18 3a 0e 7d 53 3a 20 26 4c ba f6 73 6a ba
       0.0005833247 0.0008067646 -0.00077876635 -0.0008943671
000020 23 82 f8 b9 be 5a 32 ba e6 b1 d9 b9 45 3d 07 39
       -0.00047399206 -0.0006803683 -0.0004152201 0.00012897428
000030 f5 ab 95 b9 9c ba c1 b9 05 4a 4b 3a c4 e6 b4 3a
       -0.00028547613 -0.00036950863 0.0007754865 0.0013801684
000040 4c 90 3d bc 46 ae 03 b8 10 05 be b9 2a 08 91 37
       -0.011570048 -3.139514e-05 -0.00036243396 1.7289149e-05
000050 85 c7 b0 3a bf 39 09 b8 eb 50 1a ba 17 05 d3 39
       0.0013487196 -3.2717126e-05 -0.00058866915 0.00040248848
000060 b1 31 a4 ba df 84 f2 ba 6b 28 8d 3a 7a 7e c0 3a
       -0.0012527016 -0.0018502733 0.0010769492 0.001468613
000070 24 9f 4f b7 9c e8 e9 bb 3d 0d e4 3a b2 22 8d ba
       -1.2375214e-05 -0.007138325 0.0017398965 -0.0010767786
000080 d2 37 99 b9 be 37 12 3b 87 03 81 39 8f 9c 83 38
       -0.00029224023 0.0022311057 0.00024607425 6.275728e-05
000090 31 2b e1 3a e1 d5 64 b8 25 75 fb b9 7f af a4 b8
       0.001717901 -5.4558626e-05 -0.0004796173 -7.852818e-05
0000a0 53 cf 5a ba d2 2a cc ba 3c b9 69 39 81 61 36 ba
       -0.0008346934 -0.0015576726 0.00022289617 -0.0006957278
0000b0 69 e9 18 bb 85 0a 66 39 8a 64 48 3a ac 0a 73 39
       -0.0023332483 0.00021938428 0.0007644376 0.00023178261
0000c0 f6 8b 8c 39 d0 51 2d 3a e8 a9 c1 ba 0c e9 34 ba
       0.0002680716 0.0006611617 -0.0014775367 -0.0006901182
0000d0 64 0f 8c 3a d1 0b 66 b7 e6 3a aa 3a a4 b0 f0 b8
       0.0010685739 -1.37118195e-05 0.0012987524 -0.00011476994
0000e0 18 38 53 3a 77 3a 05 3a e8 8f 63 b8 8f 59 08 3a
       0.000805737 0.00050822593 -5.425504e-05 0.00052013336
0000f0 3f d9 49 3a 0a 51 a9 3a 8c 13 d3 3a 6a f5 0e ba
       0.00076999137 0.0012917828 0.0016103848 -0.00054534397

l2.weight f4 [2, 64]
000000 67 46 0f 3e 22 29 ec 3c 3f f7 02 3d dd 1d 46 3d
       0.139917 0.028828207 0.031974073 0.048368324
000010 8d cb f6 3d 76 70 98 b9 f0 af d3 3d 27 c6 27 3d
       0.12050543 -0.0002907549 0.10336292 0.040960457
000020 07 b4 37 3e b7 93 20 be 71 e8 9d 3d 2c 28 31 be
       0.17939769 -0.15681349 0.0771035 -0.1730048
000030 e9 fd 0e be 81 18 84 3d ff 76 96 3d d5 f4 54 be
       -0.13964047 0.06449986 0.073469155 -0.20796521
000040 f3 17 29 3d 6a 3d 07 3e 66 3b bd 3c c6 50 5f bc
       0.041282605 0.13207021 0.023099612 -0.013630098
000050 66 75 46 be ee 76 cc bd bc bb 26 be 36 0b fe bd
       -0.19380721 -0.099836215 -0.16282552 -0.12404482
000060 ce 2d 01 be 77 4c af 3d ae 48 d5 bb 46 fd 64 bd
       -0.1261513 0.085595064 -0.0065089082 -0.055905603
000070 ae f7 0b be 3b bc 22 3e 01 84 16 3e de 18 8a 3d
       -0.13668701 0.15892117 0.14698793 0.06743024
000080 9f 7f 2a 3d 8c 34 3b be 14 47 35 be 82 4b ec bd
       0.041625615 -0.18281764 -0.17702895 -0.115378395
000090 6a af 5d 3e 72 9e fe bd ad c1 72 be d8 50 33 be
       0.21648946 -0.12432565 -0.23706694 -0.17511308
0000a0 af 74 e3 bd ba a3 7a 3e 51 60 5e 3c bc 2e 45 bd
       -0.1110624 0.24476519 0.013572768 -0.048140272
0000b0 16 18 ff ba d1 1d 92 be 64 44 a5 3d 90 41 50 3e
       -0.0019462134 -0.28538373 0.08069685 0.2033751
0000c0 36 e4 48 3d 29 d1 67 bd 1c 05 86 be 0d 9a 28 3d
       0.049045764 -0.056595955 -0.26175773 0.04116254
0000d0 b2 ca 27 3e 1f 05 02 3d 6b 55 73 3d 63 b2 27 3d
       0.16385916 0.031743165 0.059407633 0.040941607
0000e0 47 03 a7 3d 99 53 37 3d f2 3c 6f ba 1f dc f3 3c
       0.08154922 0.04475746 -0.0009126208 0.029768048
0000f0 fa 43 3a 3b 76 b7 dc bb d0 92 00 3e a3 68 85 be
       0.0028421865 -0.0067357374 0.12556005 -0.26056394
000100 5f 43 93 bd 51 cc 95 bd 9f fd aa 3c d8 f1 11 3e
       -0.071905844 -0.07314361 0.02087289 0.14252412
000110 da 2a 9c be e2 16 64 bd 2b e3 44 3d d9 88 96 3d
       -0.30501443 -0.055685885 0.048068207 0.0735032
000120 db 34 78 bc 37 77 8b 3e b8 41 e1 3c de 6b 24 3e
       -0.0151493205 0.2723939 0.027497157 0.16056773
000130 d1 d4 4f 3d 6f fc 6d 3c 62 bb 19 3d af 27 e3 3c
       0.050740067 0.014525517 0.037532218 0.027728884
000140 54 32 e6 3c 9c 50 15 be 30 55 29 3e cd 62 3c 3e
       0.02810017 -0.14581531 0.16536403 0.18397065
000150 f7 7c d5 b8 3f cb 54 bd e4 32 58 bd a6 65 51 bd
       -0.00010179908 -0.051951643 -0.052782908 -0.05112233
000160 a6 6a 58 3d 22 cf 0c 3e 12 9d fb bd 02 bb d8 3b
       0.052836083 0.1375089 -0.12285818 0.00661409
000170 9c af 83 bd 98 ad 19 3e 8f 6a e2 3d 85 46 1d be
       -0.06429979 0.15007627 0.11055481 -0.15358932
000180 bb a8 77 bd b6 14 dc bb 7e bb dd 3d 7e 97 68 be
       -0.06046365 -0.006716336 0.10826777 -0.2271404
000190 21 fd f9 3c c4 2c 9c 3d e2 a9 16 bc a3 18 19 bd
       0.03051621 0.07625726 -0.009195777 -0.03737701
0001a0 0e 15 cb 3c 49 f1 47 3e d5 a2 11 be b7 a2 16 3e
       0.024790313 0.19525637 -0.14222272 0.14710508
0001b0 37 67 1c be 3b 9b 80 3d 45 b0 e3 bd 6a cf 8e bd
       -0.15273748 0.06279608 -0.11117605 -0.06973155
0001c0 94 23 90 bc a6 8d 67 3d 5e f4 aa be 05 94 30 be
       -0.01759509 0.05653157 -0.33389562 -0.17243965
0001d0 10 5e 22 3d ea ff ac be a1 7d 40 3e 0d d3 b6 3d
       0.039640486 -0.33788997 0.18797924 0.089269735
0001e0 9d 9d 3b 3d ba f4 fc bd d0 64 6a bd 29 09 06 bd
       0.04580461 -0.123513654 -0.05722505 -0.03272358
0001f0 66 a6 88 3d 98 6a 0c be 0d 33 7a be c4 8b 20 3e
       0.06672363 -0.13712537 -0.24433537 0.15678316

l2.bias f4 [2]
000000 1b af 6f b9 18 b2 0d ba
       -0.00022858048 -0.0005405261

discrete_net.0.weight f4 [64, 128]
000000 e3 91 67 be 2b 71 95 3d 06 d7 7e 3d 77 1b 48 bd
       -0.22614245 0.07296976 0.06221678 -0.048854318
000010 5c 59 af 3c 3c ae e7 bd d7 7c 61 3c 1c 83 34 bd
       0.021404915 -0.113125294 0.013762674 -0.04407035
000020 c0 36 48 bd be 22 a2 bd 62 fe c5 bc 61 93 da 3d
       -0.04888034 -0.07916783 -0.02416915 0.106726415
000030 d7 11 a4 3d fd cf 57 bd 65 32 15 be 61 ac f4 bc
       0.08011215 -0.052688587 -0.14570005 -0.029867353
000040 f2 83 a8 3d bb f2 45 3d 6e ef ba bd 60 4c 83 bd
       0.082282916 0.04832719 -0.09127699 -0.06411052
000050 c6 6d a5 3d 06 d9 08 3e 3a a5 49 be 40 f5 eb bb
       0.08077578 0.13364038 -0.19691935 -0.007200867
000060 a1 60 52 bd 26 92 21 bd 2a c2 b8 3c d1 22 a9 bd
       -0.051361684 -0.03944602 0.022553522 -0.08258594
000070 08 7f 43 3e 55 ac 13 be d8 52 3b bd 30 64 95 bc
       0.19091427 -0.14421208 -0.045733303 -0.01823625
000080 11 62 b3 bd e6 ca 87 bd 38 c7 e4 bb 08 23 e9 3d
       -0.08758939 -0.06630497 -0.0069817565 0.11383635
000090 83 0c c7 bd 39 61 71 3e 71 5a b3 3d c5 96 fd 3b
       -0.09719183 0.23572244 0.08757485 0.0077389204
0000a0 15 66 0f be fe d4 f0 bc 24 47 43 bd 45 f3 0d be
       -0.14003785 -0.029398438 -0.047675267 -0.13862331
0000b0 3f f7 02 3c 7a 4f 01 bd e6 9f 8b bd 22 95 05 bd
       0.007993518 -0.031569935 -0.068176076 -0.032612927
0000c0 07 5d 34 3d ce 10 19 3e bf 42 08 be 6d 78 7a bc
       0.04403403 0.14947817 -0.13306712 -0.015287501
0000d0 a6 af 07 bd db be 0e 3d 73 ea 86 bb 3b 7e 2d 3d
       -0.033126496 0.034849983 -0.004117304 0.04235671
0000e0 96 c8 4f 3d ff a9 b1 bc 61 ed 04 3e a8 77 fe 3d
       0.050728403 -0.021687506 0.12981178 0.12425166
0000f0 59 e4 8e bd 78 8b 73 bd aa 3d 8d bd d3 2a 81 3b
       -0.069771476 -0.05945918 -0.06896527 0.0039418726
000100 84 26 0b bd aa 5f ec bd 3b 6f dd bd ee 87 28 3e
       -0.03397228 -0.11541684 -0.10812231 0.16458103
000110 9c ec 08 be d7 49 38 bc a7 ea d1 3d 5a 66 fc 3d
       -0.1337151 -0.011248074 0.102498345 0.123242095
000120 ab 94 1b 3e 6f c7 24 bd 1d 0c a4 bc 7a 42 93 bd
       0.15193431 -0.040229257 -0.020025307 -0.07190414
000130 6d 2e ba bd 68 75 2a 3d c3 b5 ef 3c db 53 35 be
       -0.09090886 0.041615874 0.029261475 -0.1770777
000140 da 7a 65 3d 51 7f 36 bd ae ca 3f 3e 01 76 be 3c
       0.056025364 -0.044555012 0.1872966 0.023249628
000150 b7 b5 29 be be 41 b3 3d e2 dc 95 3d b7 da 0d bc
       -0.16573225 0.08752774 0.07317521 -0.008658103
000160 00 e9 bb 3d 55 01 2d 3d bb 53 65 3d 3d 2d a9 3d
       0.091753006 0.0422376 0.055988055 0.08260582
000170 ff ab 59 bd d5 b4 64 bd fa 87 1a bd f2 eb 45 3e
       -0.053142544 -0.055836517 -0.037727334 0.19328287
000180 18 7f 1d be 45 f6 6e bd c7 ae 93 3d b9 a2 1c 3c
       -0.15380514 -0.05834033 0.072110705 0.0095602805
000190 fb a2 ab bd ec 0c 83 3d 01 81 15 bd f5 cf 09 3e
       -0.083806954 0.06398949 -0.03649998 0.13458236
0001a0 f4 9d 41 3d d9 15 80 bd 18 15 43 3d 20 7b 29 be
       0.047269776 -0.06254167 0.04762754 -0.16550875
0001b0 01 ec 81 3c a8 c8 3d bd 40 e1 fc bc 65 92 87 bd
       0.015859606 -0.04633394 -0.030869126 -0.066197194
0001c0 84 59 7c 3d bc 48 31 3e ff c8 e4 3c 1f a7 4a 3d
       0.061608806 0.17312902 0.027927874 0.049475785
0001d0 bc 8f 9a 3d 14 44 9e bd c5 6e a3 bc 7c 4c eb bc
       0.075469464 -0.077278286 -0.01995028 -0.028722994
0001e0 8f 70 36 bc 74 53 57 3d 5c d3 55 3d 88 72 96 3b
       -0.0111352345 0.05256982 0.05220352 0.00459129
0001f0 89 34 61 bd 98 ec 1e 3d b0 af a0 3c 7e 2f 07 3e
       -0.054981742 0.038799852 0.019615024 0.1320171
000200 da 99 9b bb d1 78 8d 3d 44 18 a2 bb 58 37 1d be
       -0.004748565 0.069078095 -0.0049467403 -0.15353143
000210 b3 f2 df bd c6 85 cf 3b 26 a2 2f 3e e2 8b 1d 3e
       -0.10934963 0.0063330857 0.17151698 0.15385392
000220 12 bc 91 bd 72 f6 98 3d 65 2a 05 bb d3 19 cf 3c
       -0.0711595 0.07468881 -0.0020319459 0.025280869
000230 68 1b f2 3c 0d 51 47 3d 13 78 22 bd 78 ec 70 be
       0.029554084 0.04866128 -0.039665293 -0.23527706
000240 f0 a6 52 3d 9a f4 a5 3c 49 3a 0f be 30 12 d3 bc
       0.051428735 0.020258237 -0.13987078 -0.025765508
000250 4c 6d ea 3d e6 0d b2 3a 29 07 92 bd 4d 96 48 3c
       0.11446628 0.0013584464 -0.07130272 0.012242866
000260 b5 b7 8f bd 40 06 c3 3c ba 73 26 3e 9d 15 0f 3e
       -0.07017461 0.023806691 0.16255084 0.13973089
000270 c7 98 51 3d b3 d4 87 3d 8e 4e 3d bc 62 25 63 be
       0.05117109 0.06632366 -0.011554373 -0.22182229
000280 1f b7 f9 3c 75 ad 21 3d 97 e1 04 bd 24 24 9f bd
       0.030482827 0.039472062 -0.0324417 -0.07770565
000290 33 1c c6 39 02 61 6e 3c 5a 53 9e 3e 76 41 a6 3d
       0.00037786513 0.014549496 0.30922967 0.081179544
0002a0 86 48 9b bd 79 76 86 3d 41 68 18 3e 08 69 90 3a
       -0.07582192 0.065655656 0.1488352 0.001101763
0002b0 82 77 a4 3c d1 a0 93 bd f5 a4 d6 3d 16 b3 a0 bd
       0.020076517 -0.07208408 0.10480682 -0.07846658
0002c0 6a 9b 82 bd 63 cf 51 bd 60 73 2a be 08 70 a5 bc
       -0.06377299 -0.05122317 -0.16645575 -0.020195022
0002d0 f0 10 e6 3d 12 62 be 3c 4d d7 55 3d 97 f3 14 bc
       0.11233699 0.023240123 0.05220728 -0.0090912795
0002e0 ea 58 f6 bd d5 6f bc bd 00 cc f0 3d 63 b8 a4 3d
       -0.12028678 -0.09201018 0.1175766 0.080429815
0002f0 53 5f d5 bd 8c 0c 68 bc 6c 19 00 3e 94 2b 3e be
       -0.10418572 -0.014163148 0.12509698 -0.18571311
000300 87 d1 d0 3d ee d7 1b bd 88 3a b7 3d 88 32 1e bd
       0.10196214 -0.038047723 0.08946711 -0.03862241
000310 c1 06 b1 3d b2 04 07 3d 8a 7e 1d 3d 02 c2 81 bd
       0.08643866 0.032963462 0.038450755 -0.06335832
000320 77 82 22 bd 03 08 b1 bd b6 1f 09 3d 95 cb 7e 3d
       -0.039675202 -0.08644106 0.033477508 0.06220587
000330 dd 9c 8a 3d aa af 83 3d 23 87 6e 3c ea fd bb bd
       0.067682005 0.0642999 0.014558586 -0.0917929
000340 e5 4a d0 3c 56 34 d3 bd de 04 4a bd 10 90 23 3e
       0.025426337 -0.10312717 -0.049321048 0.15972924
000350 95 a0 b1 3d 08 e3 31 be 22 98 97 bd e7 22 56 3c
       0.08673207 -0.17371762 -0.07402064 0.013069845
000360 fe 98 1c be 56 08 35 bd 0e ef 70 3d 6c a8 6f 3d
       -0.15292737 -0.044197403 0.05882173 0.05851023
000370 9f f9 48 bd cc a9 80 3d 11 43 27 3c 42 4f 74 bd
       -0.049066182 0.06282386 0.010208861 -0.0596459
000380 b6 9b e8 3d ae af 40 3d e7 ce 5b 3d 8e f1 fc 3c
       0.113578245 0.04704254 0.053664114 0.030876901
000390 6b 80 5f bd d8 64 33 3d bf 17 a0 bd 72 45 23 be
       -0.05456583 0.043797344 -0.07817029 -0.1594446
0003a0 7f 78 24 3c 82 a6 69 bd 5e e8 f8 bc ab 41 03 be
       0.010038494 -0.05704356 -0.030384239 -0.12818019
0003b0 3b ab 84 bc 37 46 9b bd 40 c8 fa 3c 9e 96 e2 3d
       -0.01619493 -0.07581752 0.030613065 0.11063884
0003c0 ad 05 b7 3d e2 57 81 bd 2d 79 f7 bc d4 f6 22 3c
       0.089366294 -0.063155904 -0.030209148 0.009946544
0003d0 9d c1 71 bd 05 c8 8b 3d c9 90 08 bd bb 0d 43 bd
       -0.059022535 0.0682526 -0.033341203 -0.047620516
0003e0 52 a5 be bc 69 f9 8f 3d f6 df 0a 3e f4 06 13 bd
       -0.02327219 0.07029993 0.13561997 -0.035895303
0003f0 08 87 aa bd 28 6f cc bd 37 cf ed 3c 05 75 62 bd
       -0.083265364 -0.09982139 0.029029472 -0.05528738

discrete_net.0.bias f4 [64]
000000 5e be 08 3a 72 f5 99 3a f1 f8 1f bb 1c 79 98 3a
       0.0005216355 0.0011746122 -0.0024409855 0.0011632773
000010 42 ea 18 3a 0e 7d 53 3a 20 26 4c ba f6 73 6a ba
       0.0005833247 0.0008067646 -0.00077876635 -0.0008943671
000020 23 82 f8 b9 be 5a 32 ba e6 b1 d9 b9 45 3d 07 39
       -0.00047399206 -0.0006803683 -0.0004152201 0.00012897428
000030 f5 ab 95 b9 9c ba c1 b9 05 4a 4b 3a c4 e6 b4 3a
       -0.00028547613 -0.00036950863 0.0007754865 0.0013801684
000040 4c 90 3d bc 46 ae 03 b8 10 05 be b9 2a 08 91 37
       -0.011570048 -3.139514e-05 -0.00036243396 1.7289149e-05
000050 85 c7 b0 3a bf 39 09 b8 eb 50 1a ba 17 05 d3 39
       0.0013487196 -3.2717126e-05 -0.00058866915 0.00040248848
000060 b1 31 a4 ba df 84 f2 ba 6b 28 8d 3a 7a 7e c0 3a
       -0.0012527016 -0.0018502733 0.0010769492 0.001468613
000070 24 9f 4f b7 9c e8 e9 bb 3d 0d e4 3a b2 22 8d ba
       -1.2375214e-05 -0.007138325 0.0017398965 -0.0010767786
000080 d2 37 99 b9 be 37 12 3b 87 03 81 39 8f 9c 83 38
       -0.00029224023 0.0022311057 0.00024607425 6.275728e-05
000090 31 2b e1 3a e1 d5 64 b8 25 75 fb b9 7f af a4 b8
       0.001717901 -5.4558626e-05 -0.0004796173 -7.852818e-05
0000a0 53 cf 5a ba d2 2a cc ba 3c b9 69 39 81 61 36 ba
       -0.0008346934 -0.0015576726 0.00022289617 -0.0006957278
0000b0 69 e9 18 bb 85 0a 66 39 8a 64 48 3a ac 0a 73 39
       -0.0023332483 0.00021938428 0.0007644376 0.00023178261
0000c0 f6 8b 8c 39 d0 51 2d 3a e8 a9 c1 ba 0c e9 34 ba
       0.0002680716 0.0006611617 -0.0014775367 -0.0006901182
0000d0 64 0f 8c 3a d1 0b 66 b7 e6 3a aa 3a a4 b0 f0 b8
       0.0010685739 -1.37118195e-05 0.0012987524 -0.00011476994
0000e0 18 38 53 3a 77 3a 05 3a e8 8f 63 b8 8f 59 08 3a
       0.000805737 0.00050822593 -5.425504e-05 0.00052013336
0000f0 3f d9 49 3a 0a 51 a9 3a 8c 13 d3 3a 6a f5 0e ba
       0.00076999137 0.0012917828 0.0016103848 -0.00054534397

discrete_net.2.weight f4 [2, 64]
000000 67 46 0f 3e 22 29 ec 3c 3f f7 02 3d dd 1d 46 3d
       0.139917 0.028828207 0.031974073 0.048368324
000010 8d cb f6 3d 76 70 98 b9 f0 af d3 3d 27 c6 27 3d
       0.12050543 -0.0002907549 0.10336292 0.040960457
000020 07 b4 37 3e b7 93 20 be 71 e8 9d 3d 2c 28 31 be
       0.17939769 -0.15681349 0.0771035 -0.1730048
000030 e9 fd 0e be 81 18 84 3d ff 76 96 3d d5 f4 54 be
       -0.13964047 0.06449986 0.073469155 -0.20796521
000040 f3 17 29 3d 6a 3d 07 3e 66 3b bd 3c c6 50 5f bc
       0.041282605 0.13207021 0.023099612 -0.013630098
000050 66 75 46 be ee 76 cc bd bc bb 26 be 36 0b fe bd
       -0.19380721 -0.099836215 -0.16282552 -0.12404482
000060 ce 2d 01 be 77 4c af 3d ae 48 d5 bb 46 fd 64 bd
       -0.1261513 0.085595064 -0.0065089082 -0.055905603
000070 ae f7 0b be 3b bc 22 3e 01 84 16 3e de 18 8a 3d
       -0.13668701 0.15892117 0.14698793 0.06743024
000080 9f 7f 2a 3d 8c 34 3b be 14 47 35 be 82 4b ec bd
       0.041625615 -0.18281764 -0.17702895 -0.115378395
000090 6a af 5d 3e 72 9e fe bd ad c1 72 be d8 50 33 be
       0.21648946 -0.12432565 -0.23706694 -0.17511308
0000a0 af 74 e3 bd ba a3 7a 3e 51 60 5e 3c bc 2e 45 bd
       -0.1110624 0.24476519 0.013572768 -0.048140272
0000b0 16 18 ff ba d1 1d 92 be 64 44 a5 3d 90 41 50 3e
       -0.0019462134 -0.28538373 0.08069685 0.2033751
0000c0 36 e4 48 3d 29 d1 67 bd 1c 05 86 be 0d 9a 28 3d
       0.049045764 -0.056595955 -0.26175773 0.04116254
0000d0 b2 ca 27 3e 1f 05 02 3d 6b 55 73 3d 63 b2 27 3d
       0.16385916 0.031743165 0.059407633 0.040941607
0000e0 47 03 a7 3d 99 53 37 3d f2 3c 6f ba 1f dc f3 3c
       0.08154922 0.04475746 -0.0009126208 0.029768048
0000f0 fa 43 3a 3b 76 b7 dc bb d0 92 00 3e a3 68 85 be
       0.0028421865 -0.0067357374 0.12556005 -0.26056394
000100 5f 43 93 bd 51 cc 95 bd 9f fd aa 3c d8 f1 11 3e
       -0.071905844 -0.07314361 0.02087289 0.14252412
000110 da 2a 9c be e2 16 64 bd 2b e3 44 3d d9 88 96 3d
       -0.30501443 -0.055685885 0.048068207 0.0735032
000120 db 34 78 bc 37 77 8b 3e b8 41 e1 3c de 6b 24 3e
       -0.0151493205 0.2723939 0.027497157 0.16056773
000130 d1 d4 4f 3d 6f fc 6d 3c 62 bb 19 3d af 27 e3 3c
       0.050740067 0.014525517 0.037532218 0.027728884
000140 54 32 e6 3c 9c 50 15 be 30 55 29 3e cd 62 3c 3e
       0.02810017 -0.14581531 0.16536403 0.18397065
000150 f7 7c d5 b8 3f cb 54 bd e4 32 58 bd a6 65 51 bd
       -0.00010179908 -0.051951643 -0.052782908 -0.05112233
000160 a6 6a 58 3d 22 cf 0c 3e 12 9d fb bd 02 bb d8 3b
       0.052836083 0.1375089 -0.12285818 0.00661409
000170 9c af 83 bd 98 ad 19 3e 8f 6a e2 3d 85 46 1d be
       -0.06429979 0.15007627 0.11055481 -0.15358932
000180 bb a8 77 bd b6 14 dc bb 7e bb dd 3d 7e 97 68 be
       -0.06046365 -0.006716336 0.10826777 -0.2271404
000190 21 fd f9 3c c4 2c 9c 3d e2 a9 16 bc a3 18 19 bd
       0.03051621 0.07625726 -0.009195777 -0.03737701
0001a0 0e 15 cb 3c 49 f1 47 3e d5 a2 11 be b7 a2 16 3e
       0.024790313 0.19525637 -0.14222272 0.14710508
0001b0 37 67 1c be 3b 9b 80 3d 45 b0 e3 bd 6a cf 8e bd
       -0.15273748 0.06279608 -0.11117605 -0.06973155
0001c0 94 23 90 bc a6 8d 67 3d 5e f4 aa be 05 94 30 be
       -0.01759509 0.05653157 -0.33389562 -0.17243965
0001d0 10 5e 22 3d ea ff ac be a1 7d 40 3e 0d d3 b6 3d
       0.039640486 -0.33788997 0.18797924 0.089269735
0001e0 9d 9d 3b 3d ba f4 fc bd d0 64 6a bd 29 09 06 bd
       0.04580461 -0.123513654 -0.05722505 -0.03272358
0001f0 66 a6 88 3d 98 6a 0c be 0d 33 7a be c4 8b 20 3e
       0.06672363 -0.13712537 -0.24433537 0.15678316

discrete_net.2.bias f4 [2]
000000 1b af 6f b9 18 b2 0d ba
       -0.00022858048 -0.0005405261
